checkpoints/acetylation_agent.pt (torch, 35552 bytes, 3 tensors)

classifier.0.weight f4 [64, 128]
0	0xbdb757f4	-0.089523226
1	0xbdc2431a	-0.09485455
2	0xbc5c5076	-0.013446918
3	0x3e3716d1	0.17879798
4	0x3e013cff	0.12620924
5	0x3de52d25	0.11190251
6	0xbd40f767	-0.04711094
7	0xbd444042	-0.047912844
8	0x3ba586d3	0.0050514727
9	0x3e2da772	0.16958407
10	0xbdd96534	-0.10615006
11	0x3dab3fc2	0.0836177
12	0xbd9ab40b	-0.07553872
13	0xbd3e5244	-0.046465173
14	0x3bd29644	0.0064266045
15	0x3c9d5019	0.019203233
16	0x3cfc2bac	0.030782543
17	0xbc91e0ab	-0.017807325
18	0xbd215ffe	-0.039398186
19	0xbd43b86a	-0.047783293
20	0x3d8b5a3a	0.06804319
21	0x3e303196	0.17206416
22	0x3c85188b	0.016247055
23	0xbd49553a	-0.049153544
24	0x3e3593c8	0.17732155
25	0xbd2d7c74	-0.042355016
26	0x3d485889	0.04891256
27	0x3dd0e7cc	0.10200462
28	0x3d127208	0.03575328
29	0x3d007f83	0.031371605
30	0x3d05a5f0	0.032628953
31	0xbd4ddcfb	-0.05025957
32	0xbd9a3eb3	-0.0753149
33	0xbd4ef965	-0.05053081
34	0x3d3d4624	0.04620947
35	0x3d488798	0.048957437
36	0x3bd479d3	0.006484249
37	0xbe42b115	-0.19012864
38	0x3dce29a7	0.10066538
39	0x3d3e6a2e	0.04648798
40	0x3c8203b0	0.015870899
41	0x3d0ece1f	0.03486454
42	0xbd97ee2c	-0.074184746
43	0xbcae30cb	-0.0212635
44	0x3e26af51	0.16277815
45	0x3d5edc39	0.05440924
46	0xba1c1c3c	-0.0005955135
47	0xbd940548	-0.0722757
48	0x3c845a9b	0.016156485
49	0x3beb0897	0.007172655
50	0xbd272f9c	-0.04081689
51	0x3d320813	0.04346473
52	0x3dc335f6	0.095317766
53	0xbdbcfc46	-0.09227805
54	0xbd86e41f	-0.065864794
55	0x3db69fcc	0.089171976
56	0xbc33260a	-0.010934362
57	0x3d814e00	0.063137054
58	0x3e274696	0.1633552
59	0x3e0a02d8	0.13477647
60	0xbe201db2	-0.15636328
61	0x3dd8ed42	0.10592128
62	0x3cf4610c	0.029831432
63	0x3d410de1	0.047132377
64	0xbda3e86b	-0.080033146
65	0x3d9c5788	0.07633883
66	0xbd150461	-0.03638113
67	0xbb1fefa8	-0.002440432
68	0x3d48c3dc	0.04901491
69	0x3e0093bd	0.12556358
70	0xbcccadaf	-0.024985163
71	0x3d13275f	0.03592622
72	0xbd62a84e	-0.05533629
73	0xbdcd6019	-0.10028095
74	0xbe418736	-0.18899235
75	0x3d878587	0.06617265
76	0x3d0fdb78	0.03512141
77	0xbe14b278	-0.14521205
78	0x3d045ac6	0.03231313
79	0xbd8160b1	-0.063172705
80	0xbcfd5db7	-0.030928476
81	0xbd4f621f	-0.050630685
82	0xbd8f485f	-0.069962256
83	0xbe02f783	-0.1278973
84	0xbd090e12	-0.033460684
85	0xbd36f2c2	-0.044665106
86	0xbe38578d	-0.18002148
87	0xbc8a70f2	-0.01689956
88	0x3dcb845f	0.09937357
89	0x3da4561e	0.08024238
90	0xbb74cc46	-0.0037353202
91	0x3ca5ddbf	0.020247338
92	0x3cef04fe	0.029177185
93	0x3cb5e6da	0.022204805
94	0xbdfc93c9	-0.12332875
95	0xbcb8494b	-0.022495886
96	0x3c23a8e4	0.009988997
97	0xbcc224d1	-0.023699196
98	0xbc9c5df2	-0.019087765
99	0xbc657488	-0.014004834
100	0xbd8fefe1	-0.07028175
101	0x3dbe523c	0.09293029
102	0xbc87b9a4	-0.016568013
103	0xbdd29afc	-0.10283467
104	0xbd578823	-0.052620064
105	0x3e026d37	0.12736975
106	0x3d223811	0.03960425
107	0xbe2f604a	-0.17126575
108	0xbc1e4be7	-0.009661651
109	0xbd6f08b5	-0.058357913
110	0xbc01856d	-0.007905346
111	0x3cb98f3f	0.022651313
112	0xbd3c00fb	-0.045899373
113	0xbbe98369	-0.007126261
114	0x3d21228d	0.03933959
115	0x3d4fd0ec	0.050736353
116	0x3c22d032	0.009937333
117	0x3e651277	0.22370325
118	0xbd90f53b	-0.07078024
119	0xbd83d793	-0.06437602
120	0x3e01609b	0.12634508
121	0xbcfcedb7	-0.03087507
122	0x3acf497c	0.0015814747
123	0xbd851369	-0.06497843
124	0xbcb8dab7	-0.022565229
125	0x3db97a0f	0.09056484
126	0x3ce7f2c4	0.028314002
127	0x3d0c2790	0.034217417
128	0x3d4701c8	0.048585683
129	0xbd8aa15c	-0.06769058
130	0x3cab7f29	0.020934658
131	0xbde6cc97	-0.11269491
132	0xbd88b5c3	-0.06675293
133	0xbd9c88f3	-0.076433085
134	0xbd4e9008	-0.050430328
135	0x3dc36925	0.09541539
136	0xbc8d58ba	-0.017254222
137	0xbd6e96cd	-0.058249284
138	0xbcecbbdb	-0.02889817
139	0x3cbd9a07	0.023144735
140	0x3cd4a5f6	0.025958043
141	0xbb559ec5	-0.0032595855
142	0xbc4bca14	-0.012438316
143	0x3d61b998	0.055108637
144	0x3cf4c77b	0.029880276
145	0x3c79f1bd	0.015255389
146	0xbd9c7add	-0.07640622
147	0xbced9a2c	-0.029004179
148	0xbc36fd7b	-0.011168833
149	0x3b4db578	0.0031388681
150	0x3d9c40bb	0.07629534
151	0x3c0dfdd7	0.008666477
152	0xbcc6a919	-0.024250554
153	0xbd83323c	-0.06406066
154	0x3bae645a	0.0053220214
155	0xbd0f1d1d	-0.034939874
156	0xbc8eaded	-0.017416919
157	0x3dad6bb0	0.084678054
158	0x3cbfd91c	0.023418956
159	0x3cabfedc	0.02099555
160	0x3d105bec	0.035243914
161	0xbb8c7b23	-0.00428714
162	0xbc69ea42	-0.014277043
163	0xbd97c05e	-0.07409738
164	0xbd6a43a4	-0.057193413
165	0x3d0e28a1	0.034706715
166	0x3c20a934	0.009805966
167	0xbdb3b062	-0.08773877
168	0xbc391125	-0.0112955915
169	0x3d701af8	0.05861947
170	0x3c33a9c2	0.010965766
171	0xbd9ea8a6	-0.07747011
172	0x3ca8e57a	0.020617235
173	0x3c170b67	0.009219027
174	0x3a61433b	0.0008593087
175	0x39c920a6	0.00038362033
176	0xbbb22393	-0.0054363697
177	0xbd878c46	-0.06618552
178	0x3acacda4	0.0015472663
179	0xb8a09adf	-7.6582415e-05
180	0xbd095a4c	-0.03353338
181	0xbd337ddd	-0.043821204
182	0xba2ae22a	-0.00065186864
183	0x3b60c9ed	0.0034300045
184	0xbc19fd6d	-0.0093988
185	0xbd73ff66	-0.05956974
186	0xbd2b951c	-0.04189025
187	0xbdd8d4a6	-0.105874345
188	0x3d8e273d	0.06941078
189	0x3d6dd1b0	0.0580613
190	0x3d016230	0.03158778
191	0xbd8218ca	-0.063523844
192	0xbd61d8ab	-0.05513827
193	0xbd4d2b57	-0.05009016
194	0x3d37519d	0.044755567
195	0x3c386407	0.011254317
196	0x3c0148fb	0.007890935
197	0xbd56c0c0	-0.052429914
198	0xbd2336b6	-0.0398471
199	0x3c5cd2b9	0.013477975
200	0x3c993f8f	0.018707065
201	0xbd168ca9	-0.036755238
202	0xbcaa5ec5	-0.020797143
203	0xbd906be7	-0.07051831
204	0x3d7eee7b	0.06223915
205	0xbd8707f1	-0.065933116
206	0xbd6afbc6	-0.057369016
207	0x3d94bfbd	0.07263134
208	0xbd6eb3f6	-0.058277093
209	0x3dcca2aa	0.09991963
210	0xbd440250	-0.047853768
211	0xbdc048fb	-0.0938892
212	0x3cdc684a	0.026905198
213	0x3d707bbc	0.058711752
214	0x3b96233a	0.004581836
215	0xbd2245fd	-0.039617527
216	0xbd1aad89	-0.037763152
217	0x3ce8b079	0.028404461
218	0x3d43b32b	0.04777829
219	0x3d32296a	0.043496527
220	0x3cc181cc	0.023621462
221	0xbdd09331	-0.101843245
222	0x3d532bbb	0.051555376
223	0xbd8964df	-0.06708693
224	0xbd63316c	-0.055467054
225	0x3d89ec92	0.06734575
226	0xbba3f63a	-0.0050037177
227	0xbd9320eb	-0.07184013
228	0xbd77e52d	-0.060521293
229	0xbd694ff0	-0.056961
230	0x3d5d43ec	0.054019853
231	0x3d6917c2	0.056907423
232	0x3cfcbdf9	0.030852305
233	0x3c9ca766	0.01912279
234	0x3d98c1e7	0.07458859
235	0x3cd3e672	0.02586672
236	0x3d1f7058	0.0389255
237	0x3d7b5e1b	0.061369043
238	0xbd2dcd5d	-0.042432178
239	0xbda6f111	-0.081514485
240	0xbc537634	-0.0129066
241	0x3dbb619e	0.091494784
242	0xbdc97cec	-0.0983828
243	0xbd2858d0	-0.041100323
244	0xbd3c6f31	-0.046004478
245	0x3d7c0a68	0.06153336
246	0xbd4dd112	-0.050248213
247	0x3ceca0c7	0.028885258
248	0x3cf7ca06	0.0302477
249	0x3daddfb7	0.08489936
250	0x3d57fd59	0.052731846
251	0x3c83eb9e	0.016103562
252	0x3c9c83b8	0.019105777
253	0xbddcd9af	-0.10783707
254	0x3dbf6078	0.09344572
255	0x3cf081cb	0.029358765

classifier.0.bias f4 [64]
0	0x3d138ead	0.036024738
1	0x3d924420	0.071419
2	0x3d3afc13	0.045650553
3	0x3d730e3c	0.059339747
4	0xbdbaf024	-0.091278344
5	0xbc658a81	-0.014010073
6	0x3d8f871d	0.07008193
7	0xbd78963f	-0.06069016
8	0xbdac1514	-0.08402458
9	0x3d77b891	0.06047875
10	0xbdc66161	-0.09686542
11	0x3cb7f47a	0.022455443
12	0x3cba0a2c	0.022709928
13	0xbb89a272	-0.004200273
14	0x3cb0bde5	0.021574924
15	0x3dc44751	0.09583915
16	0xbcf8b899	-0.03036146
17	0xbce79c55	-0.028272787
18	0xbdc6929e	-0.09695934
19	0xbdac99a2	-0.08427741
20	0xbce9271f	-0.028461037
21	0xbda40a3e	-0.08009766
22	0xbd517742	-0.051139124
23	0xbd0a73fe	-0.033802025
24	0x3dcf4d8c	0.10122213
25	0xbda09691	-0.07841218
26	0xbd83c67b	-0.064343415
27	0x3d785dbf	0.06063628
28	0x3d6e4c23	0.05817808
29	0xbd5894c4	-0.05287625
30	0x3ccde8e7	0.02513547
31	0x3de32707	0.11091428
32	0xbcea7deb	-0.028624495
33	0x3d66171b	0.05617438
34	0xbc0fb309	-0.008770713
35	0xbdc3ef16	-0.095670864
36	0x3cc947c2	0.02457035
37	0xbc99ae3c	-0.01875984
38	0x3dd69ed8	0.10479516
39	0x3d267944	0.04064299
40	0xbcfcd570	-0.030863494
41	0x3d73e2d1	0.05954248
42	0x3cebea74	0.02879832
43	0x3b89ed37	0.0042091864
44	0xbdf59c99	-0.11992759
45	0x3c42e415	0.011895199
46	0xbd1b1984	-0.03786613
47	0x3db29918	0.087206066
48	0x3d7aaf0d	0.061202098
49	0x3c81c484	0.015840776
50	0x3dbbf872	0.091782466
51	0x3d30100e	0.04298406
52	0x3db9783a	0.090561345
53	0x3d7a40da	0.061097004
54	0xbc9cdba3	-0.0191477
55	0xbccac1c6	-0.024750602
56	0x3d683a06	0.05669596
57	0xbc7466ba	-0.01491707
58	0x3d1332c5	0.03593709
59	0x3d09e77a	0.03366802
60	0x3c791c90	0.015204564
61	0x3d003d9d	0.03130876
62	0x3cb7884a	0.022403855
63	0x3d1416ff	0.036154743

classifier.3.weight f4 [1, 64]
0	0xbe0ea120	-0.13928652
1	0x3dcf5db2	0.10125293
2	0xbdb6da72	-0.08928384
3	0xbd81dd01	-0.06340981
4	0x3be07c72	0.0068507725
5	0xbd4bb7e1	-0.049735907
6	0xbe1680ea	-0.14697614
7	0x3c073b5e	0.0082539
8	0x3dc2e039	0.09515423
9	0xbddc4a09	-0.107563086
10	0x3dcd150c	0.1001378
11	0xbe8298d8	-0.25507236
12	0x3dc16989	0.09443957
13	0xbdc49441	-0.0959859
14	0xbe03c39a	-0.12867585
15	0xbe0a6096	-0.13513407
16	0xbe2c2dcb	-0.16814344
17	0x3da8278c	0.08210668
18	0x3b9dad1f	0.0048118974
19	0x3d02fa7a	0.031977154
20	0xbe12fab9	-0.14353456
21	0x3d1be093	0.038055968
22	0x3e0b7cc7	0.13621818
23	0xbdb46027	-0.08807402
24	0xbd1dd684	-0.038534656
25	0x3d300b1c	0.042979345
26	0x3da9da74	0.0829362
27	0x3c9e26b4	0.019305564
28	0xbe1fc2e3	-0.15601687
29	0xbc0085d7	-0.00784441
30	0xbe0d53b7	-0.13801466
31	0xbdb28726	-0.08717184
32	0xbd1f8f1b	-0.038954835
33	0x3cd09e0b	0.025465986
34	0xbe0319cd	-0.12802811
35	0x3dc74ccf	0.09731447
36	0xbdb681ac	-0.08911452
37	0x3cd19ce5	0.025587508
38	0xbd99387b	-0.07481476
39	0xbdfc34bc	-0.12314746
40	0xbdf28ed0	-0.118436456
41	0x3e0b24db	0.13588278
42	0xbd7eca26	-0.062204503
43	0x3c33d977	0.010977141
44	0x3dd36c2a	0.10323365
45	0xbdc46bf5	-0.09590904
46	0xbde17623	-0.11008861
47	0xbde2941e	-0.11063407
48	0x3c9ddd6f	0.019270627
49	0xbde53cc5	-0.111932315
50	0xbdfe0094	-0.12402454
51	0xbe08b900	-0.13351822
52	0xbdf67bc9	-0.12035329
53	0xbe0b0df1	-0.13579537
54	0x3db6f062	0.08932568
55	0x3dd02317	0.10162943
56	0xbd23475c	-0.039862975
57	0xbe26d36f	-0.16291593
58	0x3d67d544	0.05659987
59	0xbd84a3e0	-0.06476569
60	0x3d80cef4	0.06289473
61	0x3c26bda8	0.0101770535
62	0x3c6f1187	0.014591581
63	0xbd223301	-0.039599422
