checkpoints/citrullination_agent.pt (torch, 35576 bytes, 3 tensors)

classifier.0.weight f4 [64, 128]
000000 c9 68 fc bb 6f dd 89 3d 55 ec 40 bc 79 95 14 3c
       -0.007702921 0.06731688 -0.011775096 0.00906884
000010 6a 19 8b bc 28 fa dc 3c 5d 83 2c 3d e6 36 59 3b
       -0.016979892 0.026974753 0.042117465 0.0033144294
000020 1c 51 ad b9 27 17 2a 3d d7 65 fa 3d 25 ac 4a 3d
       -0.00033057563 0.041525986 0.12226456 0.049480576
000030 06 e4 59 3d 0e f3 14 3c 51 88 9d bd 46 08 70 bd
       0.053195976 0.009091152 -0.07692016 -0.05860164
000040 ad ce 6d bd 77 06 b7 bd 64 7b ae bc f4 4c 96 bc
       -0.05805843 -0.0893678 -0.021299072 -0.018347241
000050 07 f3 72 bd ff 1c 16 bd 8e 24 c8 bc d8 f4 1f bd
       -0.0593138 -0.036648747 -0.024431493 -0.03905186
000060 b4 e7 7d bc 9f 0d 83 bd 5e 84 22 bd 04 9b 18 3d
       -0.015497137 -0.063990824 -0.039677016 0.03725721
000070 ae e8 3f 3d b1 3e 69 3c 65 5d 78 bb ba 08 a4 bd
       0.04685276 0.014236138 -0.0037897464 -0.08009477
000080 02 4d 1f bd 2b 55 5b 3c 6a 62 8d 3d 94 2e 74 3d
       -0.0388918 0.013387005 0.069035366 0.059614733
000090 f5 11 38 3d f1 26 0f bd d0 30 c0 bc cd ff a9 bd
       0.044939 -0.034949247 -0.023460776 -0.08300743
0000a0 29 74 9a bc f2 07 74 3d c3 54 03 bd 50 4a 93 bc
       -0.018854218 0.05957789 -0.032063257 -0.01797977
0000b0 7d 7c f9 bc e0 21 6c bd 27 46 12 3d 2d f5 91 3d
       -0.030454868 -0.057649493 0.035711434 0.07126842
0000c0 14 e8 83 3c 9d a2 af bc ec 73 e5 bd 7c 66 22 3c
       0.016101874 -0.021439845 -0.11203751 0.0099121295
0000d0 c9 5f 5c bd 99 e9 86 3c ea 5d 9d bd 4e 1d 3b bc
       -0.053802285 0.01646881 -0.07683928 -0.011420561
0000e0 77 30 35 bd fb fe 86 3d 6d 3d 78 3c 0a c6 2e bd
       -0.044235673 0.065916024 0.015151364 -0.042669334
0000f0 0f 2a 7c 3d 1f a4 66 bd 7a 1b 26 3b 4c 5c 7a bb
       0.061563548 -0.05630886 0.0025345967 -0.0038201986
000100 d5 99 a2 3d 13 c8 87 3d fd cd 9d bd 1f 9a 80 bd
       0.079394974 0.06629958 -0.07705305 -0.06279396
000110 25 ca ac ba a4 13 37 3c 67 81 99 bd a2 e8 b2 3d
       -0.0013182802 0.011174116 -0.07495385 0.087357774
000120 87 77 bd 3c 12 eb 92 bd 0d de 46 bc 2e bb aa 3d
       0.023128284 -0.07173742 -0.012137902 0.08336483
000130 b9 29 fe 3b eb 4f 32 3d 39 73 24 bd 4b e9 18 bd
       0.0077564386 0.043533247 -0.040148947 -0.03733186
000140 65 f6 c5 3d 3f f6 ae 3d f1 0a 03 3d 92 cc 10 bd
       0.09666137 0.085430615 0.031992856 -0.035351343
000150 4f 84 2d 3c 8e ef b0 bc 6e 3c 65 3d 6a e0 ef 3b
       0.010590627 -0.021598604 0.055965833 0.0073204534
000160 c2 d5 21 bd c0 fc e9 3b 2e b6 94 bc 3c a8 8b bc
       -0.039510496 0.007140726 -0.018153276 -0.017047994
000170 e0 92 a1 bd a9 07 da bc d4 cc 19 bc df ae b8 3c
       -0.07889342 -0.02661498 -0.009387214 0.022544323
000180 b6 c4 56 3d 30 e2 bc bd cf bf ee bc 13 70 8a bd
       0.052433692 -0.09222829 -0.029144196 -0.06759658
000190 24 99 d9 3d cc 5f c9 bd e6 b4 a1 3c 6d c6 9a bd
       0.106249124 -0.09832725 0.01973958 -0.07557378
0001a0 75 38 16 bc 87 40 42 3d 54 9e d1 3d c1 6a cd bd
       -0.009168734 0.04742482 0.10235277 -0.10030127
0001b0 46 ee c9 3d bb 39 1e bd 2f 53 93 3d 99 c3 5d bc
       0.098599 -0.038629275 0.071936004 -0.013535404
0001c0 76 1f a0 3d eb 53 4c 3d 41 e8 35 bd a5 83 91 3d
       0.07818501 0.049884718 -0.044410948 0.07105187
0001d0 da 1b 1d 3d c6 9a 4e 3d eb 6d 99 bd bc ba 45 bc
       0.03835664 0.050440572 -0.07491668 -0.012068447
0001e0 8d e9 8e bb 37 99 26 bd 71 9f 6f bd b3 52 b1 bc
       -0.0043613375 -0.04067346 -0.058501665 -0.02164588
0001f0 17 54 f5 bb f6 a4 58 3c c0 8e cc 3b 69 ba a6 bc
       -0.007486831 0.0132229235 0.006242603 -0.02035256
000200 53 1b 74 3d 40 79 5b bc 2b 16 77 bc c6 0a 92 3c
       0.05959637 -0.0133956075 -0.015080969 0.017827403
000210 a1 6d b5 bd 97 84 de bc 2c d9 a1 3b b8 cf 12 3d
       -0.08858801 -0.027162833 0.004939219 0.035842627
000220 ef 0b 4b 3d 7a 50 9e 3a 5a f7 e4 3c 5b fc dc 3c
       0.049571928 0.0012078427 0.027949978 0.026975801
000230 ae 89 be 3c 24 a4 8c bb c1 26 0b bd ce 27 75 bd
       0.02325901 -0.004292028 -0.033972505 -0.059852414
000240 7e 07 03 bc b7 57 99 bd 0b 14 95 3d fb 01 1e bd
       -0.007997392 -0.074874334 0.072792135 -0.038576107
000250 db 33 81 3c 90 3c 0d 3d 4a 0b 8d 3d 77 a7 35 bd
       0.015771797 0.034481585 0.06886919 -0.04434916
000260 06 d7 a5 3d a1 dc b8 3d 28 a2 95 bd 82 f0 a1 3d
       0.08097653 0.090264566 -0.073063195 0.07907201
000270 1f f6 29 3c d7 56 1d bd c7 c6 95 ba 50 32 8e bd
       0.010373621 -0.038412895 -0.0011427038 -0.0694319
000280 f7 d3 26 3d d3 79 a3 bd 5d 80 a1 3c ac 9a 6b 3d
       0.04072949 -0.079822205 0.019714529 0.057520553
000290 de 36 06 bd cf 0c 0d bd bf ad 59 3d 76 65 b5 bd
       -0.03276717 -0.034436043 0.053144213 -0.08857243
0002a0 97 2d 2c bc 69 ec d7 bb 7f fe dd 3c a9 62 a7 3b
       -0.010508916 -0.0065894616 0.027098892 0.0051081968
0002b0 9f 23 87 bd 67 91 70 bd a3 cd aa bb 49 60 53 bc
       -0.06598591 -0.058732416 -0.005212502 -0.012901374
0002c0 86 41 06 3c bf a6 af 3d b4 5f 43 bd 47 53 9b 3d
       0.008194333 0.08576726 -0.04769869 0.07584243
0002d0 0f 22 6e bd f2 5c a3 3d ca a4 92 bd fd 05 b5 bd
       -0.05813795 0.07976712 -0.07160337 -0.08839033
0002e0 44 8d 79 bd 60 fc 4a 3d 92 9e 21 bd 97 8c db 3c
       -0.060925737 0.04955709 -0.039457865 0.026800437
0002f0 e2 d7 6c 3d f2 d4 79 bc d8 a2 14 bd d2 99 28 bd
       0.05782307 -0.015248524 -0.036288112 -0.04116232
000300 85 d6 87 3d ec 7d df 3c 48 05 3a bd fc 5e 7e bd
       0.06632713 0.027281724 -0.045415193 -0.062102303
000310 11 dd 92 bd d9 e8 03 bd 77 53 51 bc e5 b4 a5 bc
       -0.07171071 -0.032204483 -0.012776247 -0.020227859
000320 a6 80 32 3d 54 41 26 bc 67 11 f1 ba eb bf 16 3d
       0.04357972 -0.010147411 -0.0018392027 0.03680412
000330 f1 0f 93 3d 69 56 2e 3d 88 5b 01 bd 3c 1c 7c 3d
       0.07180775 0.042562876 -0.03158143 0.061550364
000340 62 05 67 3d 87 43 16 3c 26 46 e3 bb af 9c 9e 3d
       0.056401618 0.009171373 -0.0069358526 0.07744729
000350 4f 32 94 3d 8b 92 be 3d ff 42 94 bd 8e 09 9a 3d
       0.07236158 0.093052946 -0.07239341 0.07521354
000360 a6 fd 88 bd 02 26 a0 bb af aa c1 bd c6 74 05 bd
       -0.066890046 -0.0048873434 -0.094563834 -0.032582067
000370 6c 5f e8 3c b3 bc 80 bd b4 39 c2 bc 51 a5 82 3b
       0.028365813 -0.062859915 -0.023709156 0.0039869924
000380 22 aa 16 ba 26 b2 8c 3d 95 b3 5f 3c 2f ac b4 bc
       -0.00057473977 0.068699166 0.013653656 -0.02205476
000390 14 d8 82 bd e5 80 60 bc 6b 6c 9a bc 4a 0c 7b bd
       -0.0638887 -0.013702606 -0.018850526 -0.061291017
0003a0 43 40 06 bd 18 4d d6 3c 77 89 2b bd fa 7e b3 bc
       -0.03277613 0.026159808 -0.041879144 -0.021911133
0003b0 d9 5e 83 bd 42 dc 39 3d a9 f0 31 bd 02 df aa bd
       -0.06414575 0.04537607 -0.043442402 -0.083433166
0003c0 27 27 41 3d 06 c5 62 3c e0 01 51 bd df bc e6 3c
       0.04715648 0.013840919 -0.05102718 0.028166233
0003d0 9b 33 42 bd d0 61 7e 3c 9c 0d 74 bd 05 29 52 3c
       -0.047412496 0.01552625 -0.05958329 0.012827163
0003e0 16 e1 b1 bd ec a6 88 3d e4 ae c3 3d d9 e6 93 bd
       -0.0868551 0.06672463 0.09554842 -0.07221765
0003f0 47 fa aa bc 56 fb 8c bd 62 d3 84 3d c9 28 82 bd
       -0.020871295 -0.06883876 0.064856306 -0.063554354

classifier.0.bias f4 [64]
000000 02 c1 82 3d 7e 44 79 bd 45 8e b7 bc 8c c7 e1 bc
       0.063844696 -0.060856335 -0.022406707 -0.027560972
000010 a3 b2 d1 bd 41 56 ab 3d 20 b0 b8 3d 39 cb 4d 3d
       -0.102391504 0.08366061 0.09017968 0.050242636
000020 55 22 8b 3d 32 72 3d 3d 1c 9a 8c 3d b1 3e b1 bc
       0.06793658 0.046251483 0.068653315 -0.021636339
000030 bb 22 31 3d 52 20 7e bd f3 23 56 3c 08 13 36 bd
       0.043246012 -0.06204254 0.013070094 -0.044451743
000040 28 6d c6 3c f4 98 54 bb 75 4a 1c 3d 46 87 54 3d
       0.024221972 -0.00324398 0.038156945 0.05188682
000050 95 ef c0 3d cc 68 bb 3d 89 39 87 bc 03 d3 85 3d
       0.09420697 0.09150848 -0.016506927 0.06534388
000060 4c d2 d0 3d c0 1a c4 3d 04 09 4e 3c 77 7c 81 bd
       0.10196361 0.09575415 0.012575392 -0.06322568
000070 47 4b a2 bb 8f 8a 34 3c d0 31 c1 3c 1e 22 b4 3d
       -0.0049528214 0.011019363 0.023583323 0.0879557
000080 46 fa c0 bd 76 d8 85 3d 22 1b 20 bd d4 9f 0b 3d
       -0.09422736 0.06535427 -0.039088376 0.03408797
000090 70 49 c5 3b 96 d9 b6 bd a2 44 c4 3d 09 d9 a3 3c
       0.0060207173 -0.0892822 0.09583403 0.020000951
0000a0 17 6f 98 3d 1a 34 96 3d f2 c3 a2 3c 1f 63 dd 3d
       0.07443064 0.07334156 0.019868825 0.108099215
0000b0 fd 67 83 3c a0 e2 6b bc ae ad bc 3c 59 9c bd 3d
       0.016040796 -0.014397293 0.023032036 0.092583366
0000c0 d5 64 b6 bd ac 7c 60 3d d5 ad 92 bc 73 ff e7 bc
       -0.08905951 0.054806396 -0.017905155 -0.02832005
0000d0 69 e3 d4 bd 66 12 9f 3d 3d df 42 bd e0 df 59 bc
       -0.103949375 0.07767181 -0.047576178 -0.013298005
0000e0 9e 1a 35 bc ad fe cd 3c 57 6a 27 bd 4e 58 ea 3d
       -0.011053709 0.025145853 -0.040872898 0.11442624
0000f0 b9 48 96 bd 48 88 f9 3d 36 4d 62 3d c8 c9 f6 bb
       -0.073380895 0.12184197 0.055249415 -0.0075313784

classifier.3.weight f4 [1, 64]
000000 92 27 53 3d 6e a9 3c 3d 0f d0 a6 bd 25 3f 97 3b
       0.05155141 0.04606002 -0.08145153 0.0046156817
000010 a0 2a 46 3e 31 09 87 bd 0d a9 bb bd 43 62 83 3d
       0.19352198 -0.0659355 -0.09163103 0.06415226
000020 24 1c 98 3d 8a 06 f9 bd ff 3d c4 3b dc 71 e1 3c
       0.074272424 -0.1215945 0.005988836 0.027520113
000030 ed d1 a9 bc 8d 73 7e 3d 95 34 02 be a0 eb 3d be
       -0.020729983 0.062121917 -0.12715371 -0.18546915
000040 50 12 cd 3d 1a a1 7d bd 53 47 85 bd 38 c9 c9 3d
       0.100132585 -0.061921217 -0.06507745 0.098528326
000050 65 40 ca bd ee da 3a bd fb 94 e5 3d 07 02 99 3c
       -0.098755635 -0.045618944 0.112100564 0.018677725
000060 0d cb fe bd 77 02 80 bd 3f 96 d7 bd 00 cf 98 3d
       -0.124410726 -0.0625047 -0.10526704 0.07461357
000070 a9 35 01 3d a2 1b 02 3c da 40 8c 3d 9c d7 1b be
       0.031545315 0.0079411585 0.06848307 -0.15218967
000080 e8 78 8e 3d 4e b8 6e bd 9b 47 f2 bd 9f 84 2c be
       0.06956655 -0.058281235 -0.11830064 -0.16847466
000090 5c 4a c1 bd 06 d9 0e 3b e7 f6 ba bd 75 ee bc bd
       -0.09438011 0.0021796837 -0.09129124 -0.092251696
0000a0 6d d6 45 bd 16 e1 de bd 3e 53 17 bd 8e ff 06 be
       -0.048300195 -0.108827755 -0.03694462 -0.13183424
0000b0 04 25 84 3b ba 9a f9 bd 39 0b fd bd a2 8d be bd
       0.004032733 -0.12187715 -0.12355656 -0.09304358
0000c0 ae 91 17 3d 51 b1 3f be fc c1 07 be 1b e2 03 be
       0.037004165 -0.18719985 -0.13257593 -0.12879221
0000d0 e5 ad ca 3d 19 57 8a bd 6a a9 54 3d af 5e e2 39
       0.09896449 -0.06754894 0.05191938 0.00043176624
0000e0 45 3d b2 bd 02 53 cf 3d 7e af c0 3d e4 84 14 bd
       -0.087030925 0.10123254 0.094084725 -0.036259547
0000f0 e1 63 86 3d 29 df 59 bd fb 3e 6e 3d b9 7a cf 3d
       0.06562019 -0.053191338 0.05816553 0.10130829
