checkpoints/expression_agent.pt (torch, 173436 bytes, 11 tensors)

positional_encoding f4 [100, 1]
0	0xbe20da17	-0.15708195
1	0xbf097123	-0.5368826
2	0xc0187e05	-2.3826916
3	0x3fb48793	1.4103874
4	0xbdaddac7	-0.08488994
5	0x3f504ee7	0.81370395
6	0xbe6ea6a5	-0.23305757
7	0x3f2909fd	0.66030866
8	0xbfec601a	-1.8466828
9	0x3f186233	0.5952484
10	0xbf9bb36e	-1.2164133
11	0x3ece2796	0.40264577
12	0x3fa5f47f	1.2965239
13	0x3f5fcfc9	0.8742643
14	0x3e0dc70d	0.13845463
15	0xbf8caab3	-1.0989593
16	0xbdf2a22d	-0.11847339
17	0xbfabab74	-1.3411698
18	0xbf5d5d90	-0.8647089
19	0x3df2c7fc	0.1185455
20	0xbf0f1c2e	-0.55902374
21	0x3f1044bd	0.56354886
22	0xbf4ac462	-0.79205906
23	0x3e6d070a	0.23147216
24	0xbf95ddf5	-1.1708361
25	0xbe739cab	-0.23790233
26	0x3f9c0ace	1.2190797
27	0x3f2d955d	0.67806035
28	0x3e6f5eec	0.23376054
29	0xbf948fea	-1.1606419
30	0xbf63bb4c	-0.8895767
31	0xbf0818d6	-0.53162897
32	0x3e880fb2	0.26574475
33	0xbe87c7cb	-0.26519617
34	0xc02887ed	-2.6332963
35	0x3e4259a5	0.18979509
36	0xbd15dd1f	-0.03658783
37	0x3fca10aa	1.5786335
38	0xbf89b27a	-1.0757592
39	0x3fece0c0	1.8506088
40	0x3f30155f	0.6878261
41	0x3cdc75bc	0.026911609
42	0x3ebd7a92	0.37007576
43	0xbebb954d	-0.36637345
44	0xbd67cb96	-0.05659064
45	0x3f31f5a2	0.6951543
46	0xbfb20ded	-1.39105
47	0xbfa9e8f9	-1.3274223
48	0xbf11a16d	-0.5688694
49	0xbd793172	-0.06083817
50	0x3e945542	0.28971297
51	0xbe289bb5	-0.16465648
52	0xbf2c913b	-0.67409104
53	0x3ecf328f	0.4046826
54	0xbee89d38	-0.45432448
55	0xbee42f39	-0.44567278
56	0x3f516ea3	0.81809443
57	0x3fe7f5b2	1.8121855
58	0x3f238c04	0.6388552
59	0x3faa378f	1.3298205
60	0x3fb1aad7	1.3880261
61	0xbf9acff1	-1.2094709
62	0x3ff00d86	1.8754127
63	0xbe391019	-0.18072547
64	0xbdd569d9	-0.104205795
65	0x400da920	2.2134476
66	0x3f0fbc2a	0.5614649
67	0x3f081366	0.531546
68	0xbee9d23c	-0.4566821
69	0x3ca391e9	0.019967036
70	0x3f268fc9	0.6506315
71	0xbf86cf72	-1.0532057
72	0x3f287202	0.6579896
73	0xbdd2d593	-0.10294642
74	0xbf77c710	-0.9678812
75	0xbf4ac924	-0.79213166
76	0x3f3cf134	0.73805547
77	0xbf81fb07	-1.0154732
78	0x3ed25b49	0.4108527
79	0xc007e630	-2.1234245
80	0xbf63b1e3	-0.8894331
81	0xbea25368	-0.3170426
82	0x3f7b2309	0.98100334
83	0x3f2bd522	0.6712209
84	0xbea04928	-0.31305814
85	0x3efa4c23	0.48886213
86	0x3e94c77c	0.29058444
87	0xbfb2ec40	-1.3978348
88	0x3f8e9647	1.1139611
89	0x3fd52fab	1.6655172
90	0x3f87f254	1.0620828
91	0xbfe318ae	-1.7741907
92	0x3f139e09	0.5766302
93	0xbfc7fe02	-1.5624392
94	0x3cfe8bd2	0.03107253
95	0x3f4a05ed	0.7891529
96	0xbf8e6231	-1.1123716
97	0x3e59a712	0.21255139
98	0x3fefd60c	1.8737197
99	0x3e32537e	0.17414662

gru.weight_ih_l0 f4 [192, 1]
0	0x3d911af2	0.070852175
1	0xbb8c09b8	-0.0042736195
2	0xbdba4a7b	-0.09096237
3	0x3c14e106	0.009086853
4	0x3c14598c	0.009054553
5	0x3d8b41a8	0.06799632
6	0x3d723cd9	0.05914006
7	0x3defc7fa	0.117080644
8	0x3dd5e87f	0.10444736
9	0xbcb51e53	-0.022109186
10	0xb9e50022	-0.00043678383
11	0xbe01aa2d	-0.12662573
12	0xbdff4fd5	-0.124663986
13	0xbd02f7fe	-0.031974785
14	0xbc17f34e	-0.009274317
15	0x3dd41685	0.10355858
16	0x3d022bb4	0.03177996
17	0x3c695dd0	0.014243558
18	0x3caccaac	0.021092735
19	0xbc4a3ed0	-0.012344077
20	0xbdaca844	-0.084305316
21	0x3dde4c45	0.10854391
22	0x3da82810	0.08210766
23	0xbd221005	-0.03956606
24	0x3d92ac23	0.07161739
25	0x3dd3ac22	0.10335566
26	0xbcd610ee	-0.02613112
27	0xbdcbbe9e	-0.09948467
28	0xbd4e298a	-0.050332583
29	0x3ddaa121	0.10675264
30	0xbd518fe3	-0.05116261
31	0x3dfedf0d	0.12444887
32	0x3de25b4f	0.11052572
33	0x3d342a04	0.04398538
34	0x3c425ef6	0.011863461
35	0x3dd5dc2a	0.104423836
36	0x3de2b0dd	0.1106889
37	0xbd5297bb	-0.051414233
38	0xbda9bed2	-0.08288349
39	0xbca6d284	-0.020364054
40	0x3e0bcbba	0.13651934
41	0x3d9caf48	0.0765062
42	0x3dd48913	0.10377707
43	0xbdd8006c	-0.105469555
44	0x3d3a29f3	0.045450162
45	0xbc33504d	-0.010944438
46	0x3daab988	0.083361685
47	0xbd4b67a4	-0.049659386
48	0xbbf8b7db	-0.0075902767
49	0xbd0ea0b1	-0.034821216
50	0xbd94a609	-0.07258231
51	0xbddde60b	-0.10834893
52	0xbd996b76	-0.074912
53	0xbd1ed2b4	-0.03877516
54	0xbda7f1c7	-0.08200412
55	0xbb917299	-0.00443871
56	0x3d5326a5	0.051550526
57	0x3ce1d821	0.027568879
58	0x3dcbd845	0.099533595
59	0xbdd3b2b5	-0.1033682
60	0x3bfbf4ff	0.007689118
61	0x3de97932	0.11400069
62	0x3d55a03a	0.052154757
63	0x3ded5d5a	0.11590071
64	0xbd83edc0	-0.064418316
65	0x3ce1dc8c	0.027570985
66	0xbcaa3e25	-0.020781586
67	0x3d19d383	0.03755523
68	0x3db0985c	0.0862281
69	0x3d51edd0	0.051252186
70	0xbd0642a3	-0.032778393
71	0x3e050e8b	0.12993829
72	0xbe025bde	-0.12730357
73	0xbce9f5ac	-0.028559528
74	0xbdd1532a	-0.102209404
75	0xbd401baf	-0.0469014
76	0x3c4990fd	0.012302634
77	0x3d843756	0.06455867
78	0xbd5a7093	-0.053330015
79	0xbd3176ff	-0.043326374
80	0xbdbaebc5	-0.09127001
81	0x3ccef463	0.025263017
82	0x3cd2c32c	0.02572783
83	0xbe0fa5ba	-0.14028063
84	0x3e0745ae	0.13210174
85	0x3ddc97ba	0.10771127
86	0x3d993533	0.0748085
87	0xbd4ce951	-0.050027195
88	0xbd9c74e1	-0.076394804
89	0x3da33748	0.079695284
90	0xbd8653b8	-0.06558937
91	0xbd9d6fcf	-0.076873414
92	0x3da088f1	0.078386195
93	0xbd438d4d	-0.047742177
94	0x3be952ff	0.0071204896
95	0xbd314cd9	-0.04328618
96	0xbce277de	-0.027645048
97	0xbdf11e16	-0.117733166
98	0x3d84f59e	0.0649216
99	0xbe064566	-0.13112411
100	0x3ccfe669	0.025378423
101	0x3dd6d79e	0.104903445
102	0x3c2571b0	0.010097906
103	0xbd6acf2e	-0.05732649
104	0xbdd3d372	-0.10343064
105	0x3d15ba5d	0.036554683
106	0x3dd188f0	0.10231197
107	0x3d4a2ab5	0.049357135
108	0x3c15b14c	0.009136509
109	0x3d392a7d	0.045206536
110	0xbcb9587c	-0.0226252
111	0xbb825103	-0.0039769425
112	0x3deb96f1	0.11503399
113	0x3bd6fc7f	0.0065608616
114	0xbd11343e	-0.035450213
115	0xbdc0236d	-0.09381757
116	0x397bf8f2	0.00024029965
117	0x3dca3096	0.09872548
118	0x3c6b0b53	0.014345962
119	0x3d72ab68	0.059245497
120	0x3d64ede5	0.055890936
121	0xbd960109	-0.07324416
122	0xbdc8a9cf	-0.097980134
123	0x3e019a05	0.1265641
124	0xbd93ebd1	-0.07222713
125	0x3d01cdf8	0.031690568
126	0xbc23c0f3	-0.009994733
127	0xbde32ab5	-0.1109213
128	0xbdf6c463	-0.120491765
129	0xbdae9aa7	-0.08525591
130	0xbd08bdfa	-0.0333843
131	0xbd2d4c3e	-0.04230904
132	0xbad6ea86	-0.0016396798
133	0xbd2d8c95	-0.042370398
134	0xbbaa8afb	-0.005204556
135	0xbaff597c	-0.0019481624
136	0xbdda6980	-0.10664654
137	0x3d92bac4	0.07164529
138	0xbde703b9	-0.11280007
139	0x3dc335b7	0.0953173
140	0xbcd2de73	-0.025740838
141	0xbdc617e7	-0.09672528
142	0xbd139a07	-0.036035564
143	0xbdc9c254	-0.09851518
144	0xbda73839	-0.081650205
145	0x3d65e446	0.0561259
146	0x3cd76ae6	0.02629609
147	0x3de0a369	0.10968668
148	0x3c665866	0.014059162
149	0x3d7e5207	0.062089946
150	0xbcb48330	-0.022035211
151	0x3d5de87b	0.05417679
152	0xbdad94eb	-0.084756695
153	0xbd3d5b8f	-0.046229895
154	0xbe0f990a	-0.14023224
155	0xba0c9e1a	-0.0005364135
156	0x3d2f08c6	0.042732976
157	0xbde22227	-0.1104167
158	0xbcdb5e54	-0.026778378
159	0x3dca9b19	0.09892864
160	0x3cbadacb	0.022809407
161	0x3d5af2af	0.053454097
162	0x3d5554aa	0.052082695
163	0x3e0b1b41	0.13584615
164	0x3d9dda7e	0.0770769
165	0x3c9f34a9	0.01943429
166	0x3da31b9c	0.079642504
167	0x3d77b6ca	0.060477056
168	0x3de62b89	0.112387724
169	0x3be9efb0	0.0071391687
170	0x3d5928c2	0.053017385
171	0x3bd17b44	0.0063928682
172	0xbe02c4a1	-0.1277032
173	0x3d7276ea	0.059195437
174	0x3e04deb6	0.12975582
175	0xbe09c122	-0.1345258
176	0xbdbfe6c2	-0.093701854
177	0xbd3c5153	-0.045975994
178	0x3dbbdbdc	0.09172794
179	0xbd91ad10	-0.07113087
180	0xbd43fcd7	-0.04784855
181	0x3d860953	0.06544747
182	0xbcb5cc4d	-0.022192145
183	0xbdd89224	-0.10574749
184	0x3d222611	0.039587084
185	0xbb953e38	-0.004554536
186	0x3d4b8139	0.049683783
187	0x3de4c08b	0.11169537
188	0x3dbb5d60	0.09148669
189	0x3ce97f64	0.028503127
190	0x3d87662e	0.06611286
191	0xbdcab638	-0.09898037

gru.weight_hh_l0 f4 [192, 64]
0	0xbdbd42b9	-0.09241242
1	0xbd0050a8	-0.03132692
2	0xbd791e1c	-0.06081973
3	0xbdff6f8e	-0.12472449
4	0x3cf4f23b	0.02990066
5	0x3d910339	0.07080693
6	0xbd8a239d	-0.06745074
7	0x3dfaa031	0.12237585
8	0x3da0b7a7	0.07847529
9	0xbd9984c4	-0.07496026
10	0xbde7928a	-0.11307247
11	0x3df0efc8	0.11764485
12	0x3d2a3e38	0.041563243
13	0xbd2f6830	-0.04282397
14	0x3bcfc708	0.006340865
15	0x3cdb8238	0.026795492
16	0xbcf99583	-0.0304668
17	0x3b3df4db	0.0028985057
18	0x3dc43598	0.09580535
19	0xbdaa318b	-0.08310231
20	0xbe082c1f	-0.13298081
21	0xbdc8fe11	-0.09814084
22	0x3d1b5d33	0.03793068
23	0xbdb50072	-0.088379756
24	0xbd8ec8ea	-0.06971915
25	0xbdd460e2	-0.103700414
26	0xbccf9eae	-0.025344219
27	0xbd6890ac	-0.056778595
28	0xbc342deb	-0.010997276
29	0xbdb41e9a	-0.08794899
30	0xbdd68cd2	-0.10476078
31	0xbd8462fe	-0.06464194
32	0xbd0cdda2	-0.034391053
33	0xbb1c9bdf	-0.0023896617
34	0xbc8fbcb7	-0.017546041
35	0xbd2f6551	-0.042821232
36	0xbda78814	-0.08180252
37	0x3da785d2	0.08179821
38	0x3d5cfa0d	0.053949405
39	0x3cc50df4	0.024054505
40	0xbdc1008d	-0.09423933
41	0x3d8684e8	0.065683186
42	0xbdb7d6f1	-0.08976544
43	0xbda9834b	-0.08276995
44	0xbd4a553a	-0.049397685
45	0x3c9f798c	0.019467138
46	0xbd13521d	-0.03596698
47	0xbd89135b	-0.06693145
48	0xbca0cf17	-0.019629998
49	0x3d8cfd3f	0.0688424
50	0xbd123267	-0.0356926
51	0x3db6f813	0.08934035
52	0x3b46c793	0.0030331358
53	0x3db184b2	0.08667888
54	0xbd684ec8	-0.056715757
55	0x3d262ef6	0.04057213
56	0xbd894c6d	-0.0670403
57	0x3aa02ab4	0.0012219758
58	0x3c7c05e3	0.015382263
59	0xbdcadc39	-0.099052854
60	0x3d730b16	0.059336744
61	0xbdceffb2	-0.10107364
62	0x3e03b411	0.12861659
63	0x3dba8acd	0.091085054
64	0xbdc384ae	-0.09546791
65	0x3c9ba1eb	0.018998107
66	0x3d36c070	0.044617116
67	0x3ad77c61	0.0016440266
68	0x3e03dd7f	0.12877463
69	0x3d276fc4	0.040878072
70	0xbdd1fbc3	-0.10253098
71	0xbca845b7	-0.020541055
72	0xbd468257	-0.048464146
73	0xbd9a117b	-0.075228654
74	0xbdcc8038	-0.09985393
75	0x3ccdb35b	0.025109937
76	0xbd959ddb	-0.07305499
77	0x3dbca2d7	0.09210747
78	0xbda23d91	-0.07921899
79	0xbc02724e	-0.007961823
80	0xbd876985	-0.06611923
81	0x3dc562bf	0.09637975
82	0x3bbffa52	0.005858698
83	0xbda44abd	-0.08022068
84	0xbdae2e5c	-0.08504936
85	0xbcc5d5e8	-0.02414985
86	0xbcf0bf7d	-0.029388184
87	0x3d5486a3	0.051886212
88	0x3cbbd6f7	0.022929652
89	0xbdd34c5e	-0.103173
90	0xbd5768d6	-0.052590214
91	0x3d5ee3ed	0.054416586
92	0x3d4b8500	0.049687386
93	0xbcc63842	-0.024196748
94	0x3d5b2fcd	0.053512383
95	0xbdadb3e8	-0.0848158
96	0x3dc6991c	0.09697172
97	0xbaa39aca	-0.0012482044
98	0xbe12764a	-0.14302936
99	0x3dfbbabe	0.122914776
100	0x3c538c05	0.012911801
101	0x3dbbe189	0.09173877
102	0x3c103fef	0.008804305
103	0xbddea36d	-0.10871015
104	0x3d25ef7a	0.040511586
105	0x3d7ac808	0.06122592
106	0x3dd1a2f4	0.10236159
107	0x3dadbc18	0.08483142
108	0x3dd6ce90	0.104886174
109	0xbcfdd814	-0.030986823
110	0xbdbaa4ad	-0.09113441
111	0xbda2b4c7	-0.07944637
112	0x3d09de83	0.03365947
113	0xbe03d9f9	-0.12876119
114	0x3e0b3610	0.13594842
115	0x3dd1a693	0.1023685
116	0xbda07d4a	-0.07836397
117	0x3d2973d0	0.041370213
118	0xbda25658	-0.07926625
119	0xbd962e53	-0.073330544
120	0xbdeb7df1	-0.11498631
121	0x3db6b77b	0.08921715
122	0xbdb93da4	-0.0904496
123	0xbd9d1075	-0.076691546
124	0x3ddd6ce2	0.108117834
125	0xbddaa848	-0.10676628
126	0x3dd01d94	0.101618916
127	0xbcea7270	-0.028619021
128	0x3db1fcc2	0.08690788
129	0x3ca05384	0.019571073
130	0x3e0a391c	0.13498348
131	0xbdb4e7a7	-0.08833247
132	0xbe0aae0c	-0.13542956
133	0xbd818c7e	-0.06325625
134	0xbd83cad5	-0.064351715
135	0xbcff986f	-0.031200616
136	0xbdd29d4b	-0.102839075
137	0x3db41c9b	0.087945186
138	0xbdb76dda	-0.089564994
139	0xbccdab61	-0.025106134
140	0xbccc300c	-0.024925254
141	0xbd983534	-0.07432023
142	0x3d92625c	0.07147667
143	0x3d77be52	0.060484238
144	0xbdb6bbce	-0.0892254
145	0x3d6fba4b	0.058527272
146	0x3c42c064	0.01188669
147	0x3d972ad2	0.07381214
148	0xbd6fd87e	-0.058556072
149	0x3cd8bbf4	0.02645681
150	0x3d09cd60	0.033643126
151	0xbd027f61	-0.03185976
152	0xbe087db7	-0.13329206
153	0xbd8a3279	-0.06747908
154	0xbce695e9	-0.028147655
155	0x3cbe42cb	0.023225209
156	0x3e0a8a17	0.1352924
157	0x3acca51d	0.0015613172
158	0x3d9b76c2	0.07591011
159	0xbdf6ebeb	-0.120567165
160	0x3cd56a51	0.026051672
161	0xbde9b3ee	-0.11411272
162	0xbde4e42a	-0.11176331
163	0xbd670fb9	-0.05641148
164	0xbd5a7d4d	-0.053342152
165	0x3d0ef59a	0.034902193
166	0x3cc61a62	0.024182502
167	0xbda1cd36	-0.07900469
168	0xbd82124f	-0.06351148
169	0x3d1f0e50	0.03883201
170	0xbda66141	-0.081240185
171	0x3de90dd6	0.11379592
172	0x3d540e7e	0.051771633
173	0x3d055757	0.032553997
174	0xbd023cf2	-0.031796403
175	0x3e0c44f3	0.13698177
176	0xbde3ab94	-0.1111671
177	0x3db0a489	0.086251326
178	0xbdf1d644	-0.11808446
179	0xbd278e15	-0.040906984
180	0xbda2e63f	-0.07954072
181	0x3daa2dec	0.0830954
182	0xbd57dfea	-0.052703775
183	0x3d603028	0.054733425
184	0x3d83dafb	0.064382516
185	0xbd99c454	-0.0750815
186	0x3e03329e	0.12812278
187	0xbd529a83	-0.051416885
188	0x3cf3abe7	0.029745055
189	0xb98cb6cb	-0.00026839072
190	0xbdea27b1	-0.11433352
191	0xbdd74e5c	-0.10512993
192	0x3c6de75d	0.014520493
193	0xbd59039d	-0.05298196
194	0xbdba92f5	-0.09110061
195	0xbbf37ad5	-0.007430414
196	0xbdae09d7	-0.084979706
197	0x3dd8bb83	0.1058264
198	0x3de914b7	0.11380904
199	0x3dd7b941	0.10533381
200	0x3d3ff829	0.046867523
201	0xbd114b31	-0.0354721
202	0x3d320045	0.04345729
203	0x3bca4db8	0.0061738156
204	0x3db055cf	0.08610117
205	0x3deffebd	0.11718509
206	0x3d96a9b9	0.07356591
207	0xbc0aa173	-0.008461344
208	0xbc8780e2	-0.016540948
209	0xbe040a04	-0.12894446
210	0xbb9c0eb7	-0.0047624963
211	0x3dd5c545	0.10438017
212	0x3dcb43d3	0.09925046
213	0x3b394b79	0.0028273745
214	0x3ab1555c	0.0013529467
215	0x3dae8a8e	0.08522521
216	0x3e02a060	0.1275649
217	0xbdd07044	-0.10177663
218	0x3dadfdd2	0.08495678
219	0xbdc22f99	-0.09481735
220	0xbb94ba83	-0.0045388355
221	0x3d5bc7c3	0.053657304
222	0x3d721349	0.059100423
223	0x3cd66713	0.026172196
224	0x3dba4062	0.09094311
225	0xbc8a15c6	-0.016856086
226	0x3ba3c267	0.00499754
227	0xbd8cee5e	-0.068814024
228	0x3e0b710c	0.13617343
229	0xbc83ffa4	-0.01611311
230	0xbd4be8ea	-0.04978267
231	0x3cabdd5e	0.02097958
232	0xbce31c03	-0.027723318
233	0xbdb1e7ab	-0.08686765
234	0x3d5c0e92	0.053724833
235	0xbdb6d8bb	-0.08928057
236	0xbcf36b38	-0.029714212
237	0xbd073c43	-0.033016454
238	0xbcb6fa60	-0.022336185
239	0x3d0f142f	0.034931358
240	0x3de199fd	0.11015699
241	0xbd87da4a	-0.06633432
242	0x3dc50fc0	0.09622145
243	0xbc075bc7	-0.0082616275
244	0x3d74913e	0.059708826
245	0xbe0a837c	-0.1352672
246	0xbde2889b	-0.11061212
247	0x3dd51f43	0.10406353
248	0xbd9b1db8	-0.07574028
249	0xbd8422df	-0.06451964
250	0xbd8634a2	-0.06553008
251	0xbd437e76	-0.047728024
252	0xbd7f703b	-0.06236289
253	0x3d53aa74	0.05167623
254	0x3b4e3beb	0.003146882
255	0xbdbc3a7c	-0.091908425

gru.bias_ih_l0 f4 [192]
0	0x3e07c755	0.13259633
1	0x3e0a9db5	0.13536723
2	0x3dbd683f	0.09248399
3	0xbc8ce32b	-0.017198166
4	0xba0223a3	-0.0004964417
5	0x3c021927	0.007940567
6	0x3d3d951f	0.04628479
7	0xbdd847ae	-0.10560547
8	0x3df487e0	0.119399786
9	0x3befdb5d	0.0073198513
10	0x3d82826b	0.063725315
11	0xbc0a3408	-0.008435257
12	0xbd34196c	-0.043969557
13	0xbd889ae1	-0.06670166
14	0xbcfc7f08	-0.030822292
15	0x3d905a59	0.070484824
16	0x3d03bd51	0.032162968
17	0xbd696ed6	-0.056990467
18	0xbdb7af05	-0.08968929
19	0x3dd1e3b6	0.102485105
20	0xbd88f9d6	-0.066882774
21	0xbd7a3ff3	-0.061096143
22	0x3e0a1c2b	0.13487308
23	0x3d4870f1	0.048935834
24	0xbdae3ca8	-0.08507663
25	0x3d92ac81	0.07161809
26	0xbb724841	-0.0036969336
27	0x3ddbc7f8	0.107315004
28	0x3d40af6c	0.047042295
29	0x3db79a39	0.089649625
30	0xbd9500f7	-0.07275575
31	0xbd86be39	-0.06579251
32	0xbde19df5	-0.11016456
33	0xbc5494b9	-0.012974911
34	0xbc225c36	-0.00990968
35	0xbd81c4ac	-0.0633634
36	0x3ddc2657	0.107495
37	0xbd9d1993	-0.076708935
38	0xbd6b7d62	-0.05749262
39	0x3db73f4a	0.08947618
40	0x3da4a65e	0.080395445
41	0xbd710fae	-0.058852844
42	0x3debc306	0.11511807
43	0x3d9b26b7	0.07575744
44	0xbc279971	-0.010229454
45	0xbb6d9db6	-0.0036257333
46	0x3a8dbbb4	0.0010813386
47	0xbd248bff	-0.040172573
48	0x3dfbdf58	0.12298459
49	0x3d4a5947	0.049401548
50	0x3cd75236	0.026284318
51	0x3e038dd7	0.12847076
52	0xbd8e2fa2	-0.06942679
53	0x3d4521e4	0.048128024
54	0xbd810ceb	-0.06301292
55	0xbdffffd1	-0.12499965
56	0x3cd02873	0.025409913
57	0xbd89b537	-0.06724017
58	0xbc7223b1	-0.014779017
59	0x3e01a604	0.12660986
60	0xbe09198e	-0.13388655
61	0xbd8e45c1	-0.06946898
62	0x3cc22e76	0.023703795
63	0xbcf6f96b	-0.030148229
64	0x3c6ed80f	0.01457788
65	0x3dd660e7	0.104677014
66	0xbdbeb1cb	-0.09311255
67	0x3d02c225	0.031923432
68	0xba3122e8	-0.00067572156
69	0x3dc23513	0.09482779
70	0x3d95794d	0.07298527
71	0x3d8cff0b	0.06884583
72	0x3dae2516	0.08503167
73	0xbe0d6ae5	-0.13810308
74	0xbce0bcb7	-0.027433736
75	0xbca1d31a	-0.019753981
76	0x3c21d8d1	0.009878353
77	0x3daced08	0.084436476
78	0xbd88cbec	-0.0667952
79	0xbd786b31	-0.0606491
80	0x3cd60ae7	0.026128246
81	0xbcd0dd9b	-0.025496295
82	0x3b992a4e	0.0046742326
83	0x3d797241	0.060899977
84	0x3d092b5e	0.033488624
85	0xbc28df33	-0.010307121
86	0x3cdd6b64	0.027028747
87	0x3d92f6fa	0.07176013
88	0x3d927aae	0.071523055
89	0xbc67f3d4	-0.014157254
90	0x3d846866	0.06465225
91	0x3d025b64	0.03182544
92	0x3dd378bd	0.103257634
93	0xbdbf0cc1	-0.093286045
94	0xbd834885	-0.064103164
95	0xbdd18a78	-0.10231489
96	0xbb9df15a	-0.004820031
97	0xbce660b6	-0.028122287
98	0x3c746c3c	0.014918383
99	0xbd9787c1	-0.0739894
100	0xbc9047b8	-0.017612323
101	0xbe03bc67	-0.12864839
102	0x3dbc1df8	0.091854036
103	0x3dc0a88a	0.09407146
104	0x3de309db	0.11085864
105	0x3cd8e26a	0.02647515
106	0x3c24f2ae	0.010067625
107	0xbc7379d2	-0.014860587
108	0xbd372e00	-0.044721603
109	0x3dc956ac	0.098309845
110	0xbd858196	-0.06518857
111	0xbdf20663	-0.118176244
112	0xbdda5a3e	-0.106617436
113	0x3db18cda	0.086694434
114	0x3d94594a	0.07243593
115	0xbc68abba	-0.014201099
116	0x3d975f3a	0.0739121
117	0x3d49514f	0.049149808
118	0x3d90d51e	0.07071899
119	0x3dc1b563	0.09458425
120	0x3d773994	0.060357645
121	0xbda236c6	-0.079206035
122	0xbcd540d3	-0.026031887
123	0xbc43d7d9	-0.011953318
124	0x3d8bc820	0.0682528
125	0x3ca32b42	0.019918088
126	0xbc573022	-0.013134034
127	0x3d8170e7	0.063203625
128	0x3cf107d3	0.029422676
129	0x3dd58d6e	0.10427366
130	0xbd86740b	-0.06565102
131	0xbe0a70de	-0.13519618
132	0x3db8ce3c	0.09023711
133	0x3d964118	0.073366344
134	0x3da09910	0.07841694
135	0x3dfb8f55	0.12283198
136	0x3cb66854	0.022266544
137	0x3ddba9f3	0.107257746
138	0xbdbe864c	-0.09302959
139	0x3deb68c7	0.11494594
140	0xbb7e344c	-0.0038788496
141	0x3de1ad95	0.11019436
142	0x3e044d31	0.12920071
143	0x3cd878e1	0.026424827
144	0x3d84bf01	0.064817436
145	0xbe144fa8	-0.14483511
146	0x3dbf09d5	0.09328047
147	0xbd1fd34d	-0.03901987
148	0xbdd013df	-0.1016004
149	0x3dcc1de7	0.09966641
150	0x3c394a66	0.011309242
151	0xbd6011d8	-0.054704517
152	0x3da8c8bb	0.08241411
153	0xbdcf71d2	-0.101291314
154	0xbde21670	-0.11039436
155	0x3d720661	0.059088115
156	0xbd06ef99	-0.032943342
157	0xbda591a5	-0.0808442
158	0x3db69ede	0.0891702
159	0x3e0b1696	0.13582835
160	0xbd9040ca	-0.070436075
161	0x3dd482d4	0.10376516
162	0xbd92328c	-0.07138547
163	0x3dd41267	0.103550725
164	0x3d6807cd	0.056648064
165	0x3d398908	0.0452967
166	0xbddf3df7	-0.10900491
167	0x3d56a2e2	0.05240143
168	0xbd8ba773	-0.06819048
169	0x3e0c23cd	0.13685532
170	0xbda9ec81	-0.08297063
171	0xbd411130	-0.047135532
172	0xbcef4e1f	-0.029212056
173	0xbcf5023a	-0.029908288
174	0x3c4cf76f	0.012510165
175	0xbdb938fc	-0.09044072
176	0x3d91b8a5	0.07115296
177	0xbc00780d	-0.007841122
178	0x3db2e714	0.08735481
179	0x3dd24010	0.10266125
180	0x3c397511	0.011319415
181	0xbdf4158b	-0.119181715
182	0xbdf76adf	-0.12080931
183	0xbe05f5e2	-0.13082078
184	0x3cbfdde3	0.023421234
185	0xbe0cdaea	-0.13755384
186	0xbd6b8f89	-0.057509933
187	0xbd5652d9	-0.052325103
188	0xbdce8847	-0.100845866
189	0xbda450cb	-0.080232225
190	0xbdfd6d49	-0.1237436
191	0x3ce21365	0.027597139

gru.bias_hh_l0 f4 [192]
0	0x3d513dcf	0.051084336
1	0x3d843859	0.0645606
2	0x3b5f809f	0.0034103764
3	0xbd9c1fed	-0.07623277
4	0x3d1756b3	0.036947917
5	0xbd94e163	-0.072695516
6	0x3c0e9bd1	0.008704142
7	0x3d54e6c5	0.05197789
8	0x3d4a3790	0.049369395
9	0xbe0bab37	-0.13639532
10	0x3da53d63	0.08068349
11	0xbcf93023	-0.030418461
12	0xbda26a87	-0.07930475
13	0xbdc0d372	-0.0941533
14	0x3d3a51e0	0.04548824
15	0xbcea9586	-0.028635751
16	0xbdd7f045	-0.10543875
17	0x3daf9594	0.08573452
18	0xbd8b690d	-0.06807146
19	0xbd8c3758	-0.068464935
20	0xbd1ca0af	-0.038239177
21	0x3dec3c78	0.11534971
22	0x3c954975	0.018223504
23	0x3e0e6e7c	0.13909334
24	0x39e0d2ce	0.0004288167
25	0xbd15b383	-0.03654815
26	0x3c019840	0.007909834
27	0x3da954de	0.0826814
28	0x3b08df41	0.0020885023
29	0xbd76dc21	-0.060268525
30	0xbdad2213	-0.08453765
31	0x3d96512c	0.07339701
32	0x3d4f6c29	0.05064026
33	0x3c4d0fc7	0.012515969
34	0x3d03e41b	0.03219996
35	0x3de980d8	0.11401528
36	0xbdc7f1a3	-0.097628854
37	0x3dd98f4f	0.10623037
38	0xbdbff234	-0.093723685
39	0x3ddb8618	0.10718936
40	0x3d797df7	0.060911145
41	0xbde5c4cf	-0.11219179
42	0xbd1e1154	-0.038590744
43	0xbdcc76a5	-0.09983567
44	0x3cfb4629	0.030673103
45	0xbdd96b1b	-0.10616132
46	0x3d2c6f04	0.04209806
47	0xbc894b5c	-0.016759567
48	0x3d2e4b67	0.042552378
49	0xbdcbf646	-0.09959082
50	0x3d4b018d	0.049562026
51	0x3d841444	0.06449178
52	0x3c1ea085	0.0096818255
53	0x3da95b55	0.08269373
54	0xbde9f867	-0.11424332
55	0xbe083b76	-0.13303933
56	0xbc74d772	-0.014943944
57	0x3d276995	0.040872175
58	0xbdf899a0	-0.12138677
59	0xbd8a548c	-0.06754407
60	0x3d369446	0.044575
61	0x3d67c1d4	0.056581333
62	0xbdc6c26c	-0.09705052
63	0xbd784001	-0.060607914
64	0x3e02c8c4	0.12771899
65	0xbdf1d60f	-0.118084066
66	0xbd4384eb	-0.047734182
67	0xbdba49c5	-0.09096102
68	0x3cbea955	0.023274103
69	0x3dc9c999	0.09852905
70	0x3d420ace	0.047373585
71	0x3b390bc6	0.0028235777
72	0x3c982b6e	0.018575396
73	0xbdd790d0	-0.10525668
74	0xbd2afacd	-0.04174309
75	0x3d22807e	0.03967332
76	0x3cc403dc	0.023927622
77	0x3c9b4061	0.018951597
78	0x3de0da4f	0.10979139
79	0xbd23e9cd	-0.04001789
80	0x3d2b12e5	0.041766066
81	0xbdaabd66	-0.08336906
82	0xbd1daec7	-0.03849676
83	0x3d2b3ae4	0.04180421
84	0x3de57b4a	0.11205156
85	0x3de196a8	0.110150635
86	0x3d21dc65	0.039516825
87	0xbd5314d0	-0.05153352
88	0xbda391a7	-0.07986765
89	0x3c0dac0d	0.008646977
90	0x3dc21282	0.09476186
91	0x3de6cf41	0.11269999
92	0xbca9a58f	-0.020708827
93	0xbdac4d99	-0.08413238
94	0xbd4c875c	-0.049933776
95	0xbd4cc904	-0.04999639
96	0x3de8fb89	0.113761015
97	0x3e044ad7	0.12919174
98	0xbd60cc85	-0.054882545
99	0xbdc5a6e5	-0.09650973
100	0xbdd138fe	-0.102159485
101	0xbd0564b9	-0.03256676
102	0xbdb858e6	-0.09001331
103	0x3d8b8efa	0.0681438
104	0x3c30419e	0.010757832
105	0x3d336bc2	0.043803938
106	0x3dbbce25	0.09170178
107	0xbd9fb005	-0.07797245
108	0xbd97b9f6	-0.07408516
109	0x3ca1072c	0.01965674
110	0x3c8f8db5	0.017523626
111	0x3d822d09	0.06356246
112	0x3db322fa	0.087469056
113	0xbd5b9478	-0.053608388
114	0xbd53f025	-0.05174269
115	0xbcd3b744	-0.025844224
116	0x3dd59977	0.10429662
117	0x3dbe0994	0.09279171
118	0xbc5a78ea	-0.013334492
119	0x3d988a5b	0.07448264
120	0xbe0adf2d	-0.13561697
121	0xbd06ba14	-0.0328923
122	0xbdbb50e4	-0.09146288
123	0xbde7dd35	-0.11321489
124	0xbdd68968	-0.10475427
125	0x3c58cfcf	0.013233139
126	0xbd93bbf8	-0.072135866
127	0x3dd2077f	0.10255336
128	0xbd2bdc01	-0.04195786
129	0x3dd55ce9	0.10418112
130	0x3d1a23a3	0.037631642
131	0xbd2839d1	-0.041070763
132	0x3d96c701	0.07362176
133	0x3e05d918	0.13071096
134	0xbb5e659f	-0.0033935083
135	0x3db8c5c5	0.090220965
136	0x3d03dc7d	0.032192696
137	0xbda4f95a	-0.080553725
138	0x3dbe79fe	0.09300612
139	0xbd644d77	-0.05573794
140	0xbdc08361	-0.094000585
141	0xbd6c1b8b	-0.057643455
142	0x3c7edf4c	0.015556168
143	0x3dc00fb7	0.09377997
144	0x3df16b5f	0.117880575
145	0x3ca84a22	0.020543162
146	0x3db4b073	0.088227175
147	0x3e07e7ed	0.13272066
148	0x3d87bf52	0.06628288
149	0x3e06cc4b	0.13163869
150	0x3ce236a9	0.027613955
151	0x3d0567a5	0.032569546
152	0xbbf32f01	-0.007421375
153	0x3ca97beb	0.020688972
154	0xbd9ab983	-0.07554915
155	0xbd8bfc1e	-0.06835197
156	0xbdda074f	-0.10645925
157	0xbdec78b3	-0.11546459
158	0x3d0417a3	0.032249104
159	0x3dc98afc	0.09840962
160	0x3c813961	0.01577443
161	0x3bddea7f	0.006772339
162	0x3dda821d	0.106693484
163	0x3e0c102c	0.13678044
164	0xbce7caa2	-0.028294865
165	0xbd8b0ebd	-0.067899205
166	0xbcb3bd10	-0.021940738
167	0x3d28219d	0.04104768
168	0x3dbac1a5	0.09118966
169	0x3e0b2702	0.13589099
170	0x3c564811	0.013078705
171	0x3dc51b18	0.09624308
172	0xbd9d4be4	-0.076804906
173	0xbe0de3a0	-0.13856363
174	0xbd79a1e7	-0.060945418
175	0x3d9b8d58	0.075953186
176	0x3d4cfcc4	0.050045744
177	0x3da99ae2	0.08281495
178	0xbd0d9d91	-0.034574095
179	0x3d982dab	0.074305855
180	0xbc0d0035	-0.008606006
181	0xbb45a875	-0.0030160223
182	0xbc128eb5	-0.008945157
183	0x3cd1a0a7	0.0255893
184	0x3c5ef20f	0.013607516
185	0xbcccc988	-0.024998441
186	0xbd00a80b	-0.03141026
187	0xbb2fc76e	-0.002682175
188	0xbd4c2077	-0.04983565
189	0xbdef34bb	-0.116799794
190	0x3d9b5c47	0.0758596
191	0xbda9dddd	-0.0829427

gru.weight_ih_l0_reverse f4 [192, 1]
0	0xbd2c61a7	-0.042085316
1	0x3d91f42d	0.07126651
2	0xbdad4706	-0.08460812
3	0xbc48c178	-0.012253158
4	0xbc3e39af	-0.0116104325
5	0xbdc82427	-0.097725205
6	0xbd6cd7e4	-0.057823077
7	0x3c96ca0a	0.018406887
8	0xbc635a49	-0.013876506
9	0x3cf3b97a	0.029751528
10	0x3cc08c86	0.023504507
11	0x3cd66cf8	0.026175007
12	0x3d97e05b	0.07415839
13	0xbd77dce4	-0.060513392
14	0x3dd3dce9	0.1034487
15	0x3d4fa510	0.050694525
16	0xbcb915d4	-0.022593416
17	0x3d3bc01c	0.045837507
18	0x3dd6948f	0.10477554
19	0x3b866192	0.0041009868
20	0x3cc8213d	0.024429912
21	0xbb64e3e7	-0.003492588
22	0xbdb2386a	-0.087021664
23	0x3d7a5d28	0.061123997
24	0xbdd81412	-0.10550703
25	0xbc7055db	-0.014668907
26	0x3dca5ee9	0.09881384
27	0x3d7686bc	0.060187086
28	0xbaa4de2b	-0.0012578418
29	0x3c5a530d	0.013325465
30	0xbdcdd117	-0.10049646
31	0xbdb35d1d	-0.08757994
32	0xbda6d68a	-0.08146389
33	0x3d4adb1d	0.04952537
34	0x3ca77b28	0.020444468
35	0x3d1bd9c2	0.038049467
36	0xbd0a49b5	-0.0337617
37	0x3d7bc1bf	0.061464068
38	0x3d0af385	0.033923645
39	0x3d87f7cc	0.066390604
40	0x3c1c4334	0.009537507
41	0x3da80a53	0.08205094
42	0xbd3203b8	-0.043460578
43	0xbdbde80a	-0.092727736
44	0x3d0ad991	0.033898894
45	0xbdd30bea	-0.10305007
46	0xbd9b8101	-0.07592965
47	0xbc8c39fe	-0.017117497
48	0xbc4b5e85	-0.012412672
49	0xbd99190d	-0.07475481
50	0x3c9e98f2	0.01936004
51	0x3cea808b	0.028625747
52	0x3dd481a2	0.10376288
53	0x3d0e25ca	0.034704007
54	0x3d78c256	0.06073221
55	0xbd2dd3da	-0.042438366
56	0x3d16c35f	0.036807414
57	0xbc5ec5b0	-0.013596937
58	0x3e044166	0.12915573
59	0x3d9c6505	0.076364554
60	0xbc8b12ab	-0.016976675
61	0x3e04ac18	0.12956274
62	0x3c131825	0.0089779245
63	0xbd97832f	-0.07398068
64	0x3d886c7e	0.06661318
65	0xbda2d62e	-0.07951008
66	0xbd56ccb1	-0.052441303
67	0xbce5a578	-0.028033003
68	0x3dd56bc4	0.10420945
69	0x3dc3ba0c	0.0955697
70	0x3d52d3a0	0.051471353
71	0x3cc1f9a9	0.023678618
72	0xbd7c5c73	-0.061611604
73	0xbd4affc4	-0.049560323
74	0x3cf7a42f	0.030229656
75	0xbdfddd9b	-0.123957835
76	0x3d146f57	0.036238994
77	0xbdb0e7a7	-0.08637934
78	0x3d5d6783	0.054053795
79	0xbd04b9c9	-0.03240374
80	0x3cd1c317	0.025605721
81	0x3db4158c	0.08793172
82	0x3cf81bf3	0.030286765
83	0x3ca3817a	0.0199592
84	0xbdcabd4b	-0.09899386
85	0xbdccfbff	-0.10009002
86	0x3d3658fa	0.04451845
87	0xbdb987aa	-0.09059079
88	0x3dcc77f6	0.09983818
89	0xbdc69b97	-0.09697645
90	0x3dd18bfb	0.10231777
91	0x3c16d156	0.009205183
92	0xbcfc8e00	-0.03082943
93	0xbd00280e	-0.0312882
94	0xbd53d52d	-0.051716972
95	0x3b83e538	0.0040251277
96	0xbd91b1d2	-0.07113995
97	0x3cf5e6b3	0.030017233
98	0x3d183193	0.037156653
99	0xbc81bbfb	-0.015836706
100	0xbdb80e14	-0.0898706
101	0x3ca5e988	0.020252958
102	0x3cf3b572	0.029749606
103	0x3d8fefaf	0.07028138
104	0x3cf0e56a	0.029406268
105	0xbde6fd71	-0.11278809
106	0x3cc0fdf7	0.0235586
107	0x3c947463	0.018121904
108	0xbd69437c	-0.056949124
109	0x3dcbbeca	0.099484995
110	0x3e046c3e	0.12931916
111	0xbd8b51a5	-0.06802682
112	0x3cd0b5c6	0.025477301
113	0xbdcaa7f2	-0.09895314
114	0xbd332c15	-0.04374321
115	0x3d49133a	0.0490906
116	0x3afd712e	0.0019336098
117	0xbba9fae9	-0.0051873815
118	0xbb8e4392	-0.004341551
119	0xbdde0005	-0.108398475
120	0x3cbc0cb4	0.022955276
121	0xbe0411ab	-0.12897365
122	0x3d225b70	0.039637983
123	0x3d91aeb3	0.07113399
124	0x3b712d78	0.0036800783
125	0xbd89e852	-0.06733765
126	0x3d106ae2	0.03525818
127	0x3d61a353	0.0550874
128	0x3d700515	0.058598597
129	0x3d9d5288	0.07681757
130	0xbc8ac3cf	-0.016939072
131	0xbd62045d	-0.055179942
132	0xbd852aaf	-0.06502282
133	0xbbef9f40	-0.0073126853
134	0x3dd094ef	0.10184657
135	0xbdecc509	-0.11561019
136	0x3b9de87e	0.004818975
137	0xbd3b5f56	-0.045745216
138	0x3d420fab	0.047378223
139	0x3dd36ca1	0.10323454
140	0x3d9e857f	0.07740306
141	0xbdae4a9b	-0.085103236
142	0xbdd8d662	-0.10587765
143	0x3e037f46	0.1284152
144	0x3c05261b	0.008126761
145	0xbbd0e8c1	-0.0063754027
146	0x3e0fcc30	0.14042735
147	0xbd9a99ad	-0.075488426
148	0xba2b4537	-0.0006533446
149	0xbe063c75	-0.13109
150	0xbd28dc74	-0.041225865
151	0x3d914775	0.070937075
152	0x3d93ef78	0.072234094
153	0x3d86ad51	0.06576026
154	0x3d043bfb	0.032283764
155	0xbdc592aa	-0.096471146
156	0x3c7c3d93	0.01539554
157	0x3e0a9e1e	0.1353688
158	0x3da78e97	0.08181494
159	0xbd8b26e5	-0.06794528
160	0xbd27cd35	-0.040967185
161	0xbd1bb1e8	-0.03801146
162	0x3deb6173	0.11493196
163	0x3d222f09	0.039595637
164	0x3db59200	0.08865738
165	0x3d46c9f2	0.048532434
166	0x3d51ef6a	0.051253714
167	0x3daff0b9	0.08590836
168	0x3b5d4ebd	0.0033768856
169	0x3d3ffe55	0.04687341
170	0x3bae1959	0.0053130803
171	0xbde3ef3f	-0.11129617
172	0xbdd2ae9c	-0.1028721
173	0x3b9d8e2c	0.004808208
174	0xbd616056	-0.055023514
175	0x3d9eb476	0.07749264
176	0xbc6c0bb4	-0.014407087
177	0x3c5f5817	0.013631842
178	0x3d302e5e	0.04301297
179	0x39a7a537	0.00031975817
180	0xbdecc084	-0.11560157
181	0x3de58d2a	0.112085655
182	0x3d6b159a	0.057393648
183	0x3dfb152b	0.12259897
184	0x3ca55b3e	0.02018511
185	0xbd2f9d34	-0.04287453
186	0xbceefe1f	-0.029173909
187	0xbdf34367	-0.1187809
188	0xbd381b46	-0.044947885
189	0xbd9499e4	-0.07255915
190	0xbb17918c	-0.0023127524
191	0xbdfdf6f6	-0.1240062

gru.weight_hh_l0_reverse f4 [192, 64]
0	0xbb6e366f	-0.0036348363
1	0xbe00c660	-0.12575674
2	0xbda7f6ff	-0.08201408
3	0x3d7c1d3e	0.061551325
4	0x3baf4a5c	0.0053494405
5	0xbdcf62d0	-0.10126269
6	0xbd331dae	-0.043729477
7	0x3cf992c6	0.030465495
8	0x3d208364	0.039187804
9	0x3dee71a8	0.11642772
10	0x3df6afb7	0.12045234
11	0x3def5a98	0.11687201
12	0x3ca48407	0.020082487
13	0xbd88790d	-0.066637136
14	0x3d6af85d	0.057365764
15	0xbb999d6d	-0.004687956
16	0x3e0317e7	0.12802087
17	0x3d2713b8	0.04079029
18	0x3bd13e4f	0.0063856016
19	0xbd433aa0	-0.04766333
20	0x3db8c553	0.090220116
21	0xbdb5bdda	-0.08874102
22	0xbc469ca2	-0.012122305
23	0x3d87e27a	0.06634994
24	0x3d7d50ae	0.06184452
25	0x3c8e0b0a	0.017339248
26	0x3dc46f51	0.095915444
27	0xbe02ccb5	-0.12773402
28	0xbddf4ca5	-0.10903291
29	0x3dacbb78	0.08434194
30	0x3d1b1752	0.037864037
31	0xbc5d7817	-0.013517401
32	0xbdd8ad06	-0.105798766
33	0x3b31002c	0.002700816
34	0xbd12c074	-0.03582807
35	0xbcd63b4b	-0.02615132
36	0xbd658699	-0.056036565
37	0x3dd10f72	0.10208024
38	0x3ddd17f7	0.107955866
39	0xbd91a90f	-0.071123235
40	0x3ddc7c49	0.10765893
41	0x3de12d5e	0.10994981
42	0x3d51294a	0.051064767
43	0xbc8ec840	-0.017429471
44	0x3d58fa59	0.052973125
45	0x3d713c40	0.05889535
46	0xbc0668d9	-0.008203709
47	0x3be1bf8e	0.00688929
48	0xbc79ffaa	-0.015258709
49	0x3cb667c1	0.02226627
50	0x3c860823	0.016361302
51	0x3ddfba57	0.109242134
52	0xbcf6d407	-0.0301304
53	0x3d0ffc82	0.03515292
54	0xbbae3c77	-0.0053172666
55	0xbd8ed79e	-0.069747195
56	0xbd311d33	-0.043240737
57	0xbc4d34b9	-0.012524777
58	0xbde73f22	-0.112913385
59	0xbdbfc771	-0.09364212
60	0xbcc165eb	-0.023608169
61	0x3db9d89c	0.09074518
62	0xbdda6c9c	-0.10665247
63	0x3deb41a3	0.114871286
64	0xbd1292f2	-0.03578467
65	0xbad2a510	-0.0016070921
66	0x3db562d5	0.08856741
67	0xbdc664f5	-0.09687225
68	0x3ba4556b	0.0050150654
69	0xbdde1bcb	-0.10845145
70	0xbc9e72e7	-0.0193419
71	0xbd59b13f	-0.05314755
72	0x3e00afcd	0.12567063
73	0x3d3fd0c4	0.046829954
74	0x3cff31fc	0.031151764
75	0x3c8e5c32	0.017377947
76	0x3d0c6ab5	0.03428145
77	0xbdbbde33	-0.091732405
78	0x3cf19292	0.029488835
79	0x3d45500d	0.048172045
80	0xbd7eeaa7	-0.0622355
81	0x3d385626	0.045004033
82	0xbcc3c44b	-0.02389731
83	0xbc563c47	-0.013075895
84	0x3cb864ac	0.022508942
85	0xbdfc79f1	-0.12327946
86	0xbdeb8417	-0.114998035
87	0xbdd79e9c	-0.10528299
88	0xbd66ac6d	-0.05631678
89	0xbd86c391	-0.0658027
90	0x3d6bf7ad	0.05760925
91	0xbd8ccd6d	-0.06875119
92	0x3d7c4463	0.061588656
93	0xbca05969	-0.019573884
94	0xbd7ddf48	-0.061980516
95	0xbdf61dc0	-0.12017393
96	0xbd27abbd	-0.040935267
97	0xbded1ccd	-0.11577759
98	0x3dd6c533	0.104868315
99	0xbce36aa2	-0.027760807
100	0xbdd00a51	-0.10158218
101	0x3df305af	0.118663184
102	0xbd83c46c	-0.06433949
103	0x3d015f30	0.03158492
104	0x3deead5d	0.1165416
105	0xbde9025f	-0.113774054
106	0x3d4c7892	0.049919672
107	0xbcd723d7	-0.026262207
108	0x3d50ec45	0.051006574
109	0x3ddcddec	0.10784516
110	0x3dd42c60	0.10360026
111	0x3b107f18	0.002204841
112	0xbdcfd4fb	-0.10148045
113	0x3dd94227	0.10608321
114	0x3da95655	0.0826842
115	0x3bd6bce4	0.0065532792
116	0xbd90e513	-0.070749424
117	0xbcbf47e6	-0.023349714
118	0xbddbf227	-0.10739546
119	0xbd718375	-0.058963258
120	0xbcdfb651	-0.027308615
121	0xbd8ed385	-0.06973938
122	0xbd623b7c	-0.05523251
123	0x3d98d740	0.07462931
124	0xbd681aae	-0.05666607
125	0x3df90419	0.12158985
126	0x3da2ef2b	0.07955774
127	0xbd434763	-0.0476755
128	0xbe137a0c	-0.14402026
129	0x3de0b486	0.10971932
130	0xbda7a10a	-0.08185013
131	0x3d0dbebf	0.034605738
132	0xbab2526c	-0.0013604886
133	0xbd278909	-0.04090217
134	0x3dd6ba84	0.10484794
135	0x3cd387ad	0.025821531
136	0x3d222f8e	0.039596133
137	0xbd88aec5	-0.0667396
138	0x3d6d52cb	0.057940286
139	0x3c82bb73	0.015958523
140	0x3c477d61	0.012175889
141	0x3d896643	0.06708958
142	0xbd9c3ca6	-0.07628755
143	0xbdf72e59	-0.12069387
144	0x3da4cdb7	0.080470495
145	0xbdb640aa	-0.088990524
146	0x3d6cd19a	0.05781708
147	0xbd3ee982	-0.04660941
148	0xbd8bae72	-0.06820382
149	0x3dfd6b4c	0.12373981
150	0xbd205632	-0.039144702
151	0xbdc0adc8	-0.09408146
152	0x3a159393	0.0005705889
153	0xbde87f28	-0.11352378
154	0xbd86e7da	-0.06587191
155	0xbd1e8708	-0.038702995
156	0xbd193ad6	-0.037409626
157	0x3da773de	0.08176397
158	0xbe04923a	-0.12946406
159	0x3df7d748	0.121016085
160	0xbcd20b6c	-0.025640212
161	0xbcd2c4fe	-0.025728699
162	0xbd2a2f5b	-0.041549068
163	0xbd167836	-0.036735736
164	0xbd662bc7	-0.056194093
165	0xbddd5abf	-0.10808324
166	0x3d74d674	0.05977483
167	0xbdd54e98	-0.10415381
168	0xbdde545b	-0.10855933
169	0xbdef4b0a	-0.116842344
170	0x3cc105b6	0.023562293
171	0xbd446f69	-0.04795781
172	0x3c8c9d9b	0.017164996
173	0xbd755f7c	-0.059905514
174	0xbc86fd97	-0.016478343
175	0xbe0b7efc	-0.1362266
176	0xbc128f6b	-0.008945326
177	0xbcb78755	-0.022403399
178	0x3e021b1e	0.12705657
179	0x3da2890a	0.079362944
180	0xbcd6765b	-0.026179483
181	0xbdf86353	-0.121283196
182	0x3d928733	0.071546935
183	0xbe1092b6	-0.14118466
184	0x3df73222	0.12070109
185	0xbdc48ae3	-0.09596803
186	0x3ca26ab0	0.019826263
187	0x3e08e841	0.13369848
188	0x3c98bb12	0.01864389
189	0x3dcca00d	0.09991465
190	0xbde7d301	-0.11319543
191	0xbda09127	-0.078401856
192	0xbd8df9c1	-0.069324024
193	0xbc810f8c	-0.015754484
194	0x3e079192	0.13239124
195	0x3dd6d46a	0.104897335
196	0xbcfd4cd7	-0.03092043
197	0x3db762cb	0.0895439
198	0xbd412892	-0.04715783
199	0xbba92d84	-0.0051628966
200	0x3d95d7a5	0.073165216
201	0xbbaa9a17	-0.005206357
202	0x3d0e859e	0.034795396
203	0x3d057462	0.032581694
204	0xbd60ab83	-0.054851066
205	0x3c5f6024	0.013633762
206	0x3dceb18a	0.10092457
207	0x3ddf9677	0.10917371
208	0xbd76dcfd	-0.060269345
209	0x3d3153f3	0.04329295
210	0xbcc87626	-0.0244704
211	0xbdc640c7	-0.09680324
212	0xbbf8129a	-0.007570577
213	0xbd0e7ce7	-0.034787085
214	0xbd9c4af9	-0.076314874
215	0xbd0f60e2	-0.035004504
216	0x3aa8181a	0.0012824566
217	0xbd4ea6b1	-0.050451938
218	0xbdbd9189	-0.09256274
219	0x3de7b7b4	0.113143355
220	0xbd329c1b	-0.043605905
221	0xbd8db829	-0.069198914
222	0xbd6d3adb	-0.057917457
223	0x3db5f082	0.08883764
224	0x3cc874b3	0.024469709
225	0xbd9e42da	-0.07727595
226	0xbd90312a	-0.07040627
227	0x3df3a071	0.11895836
228	0x3d7db783	0.06194259
229	0x3d8a9449	0.067665644
230	0x3d76f7de	0.06029498
231	0x3d8a977b	0.06767174
232	0xbdc8b870	-0.09800804
233	0x3dd83d61	0.10558582
234	0x3a99d75b	0.0011737155
235	0xbdd146bf	-0.10218572
236	0xbcd02d29	-0.025412159
237	0x3dec223b	0.115299664
238	0xbe015835	-0.12631305
239	0xbdb0b576	-0.08628361
240	0x3d6b587d	0.057457436
241	0xbc8a551a	-0.016886283
242	0xbdb46560	-0.08808398
243	0xbc33a06f	-0.010963543
244	0x3b901cd1	0.0043979664
245	0x3c978dc8	0.018500224
246	0xbc498a0d	-0.01230098
247	0x3d83d944	0.064379245
248	0xbe094157	-0.13403831
249	0x3d4f54be	0.050617926
250	0xbd5ebb8b	-0.054378074
251	0x3d4006cd	0.046881486
252	0xbd9f3a87	-0.07774835
253	0x3dcaec41	0.09908343
254	0xbc9101e0	-0.01770109
255	0x3cdb2ae2	0.026753847

gru.bias_ih_l0_reverse f4 [192]
0	0xbcc7a37f	-0.024369953
1	0xbc99f32d	-0.018792713
2	0x3d3ef670	0.04662174
3	0xbd45ad86	-0.048261188
4	0xbd4d123a	-0.05006621
5	0x3c77ed65	0.015132283
6	0x3ddb4cb1	0.10707987
7	0x3dbad8e2	0.09123398
8	0x3d82d392	0.0638801
9	0xbd3c73ce	-0.046008877
10	0xbd695d36	-0.05697366
11	0x3d7c2990	0.061563075
12	0x3bbbdf46	0.0057334034
13	0x3d907633	0.07053795
14	0xbd5b0775	-0.05347391
15	0xbd52fbdd	-0.051509727
16	0x3de41016	0.11135881
17	0xbdb952e7	-0.090490155
18	0x3e04cc96	0.12968668
19	0xbd17cf8b	-0.037063163
20	0xbdc61b28	-0.096731484
21	0xb81f63ae	-3.8001388e-05
22	0xbe0d8f7d	-0.13824268
23	0xbc65d0f9	-0.014026874
24	0x3dbf440a	0.09339149
25	0xbdc614cf	-0.09671938
26	0x3b0d7ba6	0.0021588593
27	0xbd18eeb2	-0.037337013
28	0xbdac0f2f	-0.084013335
29	0x3e041c80	0.12901497
30	0xbdf55832	-0.119797125
31	0xbbd6003d	-0.00653079
32	0xbd1642f6	-0.036684953
33	0xbd36748d	-0.044544745
34	0x3c10d7b3	0.008840489
35	0x3cc93acd	0.024564171
36	0xbd3208ff	-0.04346561
37	0x3d0f4c9a	0.034985162
38	0xbdd0b6a2	-0.101910844
39	0x3dcbfd50	0.09960425
40	0xbdd33e4d	-0.10314617
41	0x3d8be9c3	0.06831696
42	0x3d890e22	0.06692149
43	0x3cc776a4	0.024348564
44	0x3cf2271a	0.02955966
45	0xbb715cf0	-0.0036829077
46	0xbe0109a3	-0.12601332
47	0x3c6e3ce9	0.014540889
48	0x3c2a15cb	0.010381172
49	0xbdbddf52	-0.092711106
50	0x3b99947d	0.0046868906
51	0x3d354e08	0.04426387
52	0xbd96c5d0	-0.073619485
53	0x3d39c1fe	0.04535102
54	0x3df6d158	0.12051648
55	0x3d3f553a	0.046712138
56	0x3dc988c2	0.098405376
57	0xbd8d65fa	-0.06904216
58	0xba54bab9	-0.0008114982
59	0x3da92a93	0.082600735
60	0xbd3e610c	-0.04647927
61	0x3db5b348	0.08872086
62	0xbc7a46c6	-0.015275663
63	0xbd6331a5	-0.055467267
64	0xbd2eb0fa	-0.042649247
65	0xbd445e11	-0.04794127
66	0x3d351880	0.04421282
67	0x3d7f35fb	0.06230734
68	0xbdc4e11a	-0.09613247
69	0xbdeb7d01	-0.11498452
70	0x3d40ce20	0.047071576
71	0xbd1d5438	-0.038410395
72	0x3dd7fe3f	0.105465405
73	0x3c75b5db	0.014996971
74	0x3d1b0dc6	0.037854932
75	0x3c5dd260	0.013538927
76	0x3da2f4e4	0.079568654
77	0x3d4a16ba	0.04933808
78	0x3dfcd3b9	0.123450704
79	0xbc38d856	-0.011282047
80	0xbc9f9749	-0.019481318
81	0x3dc273ea	0.09494765
82	0x3d71c4d5	0.059025604
83	0x3c858404	0.016298302
84	0xbdbc5143	-0.09195187
85	0x3d8d06be	0.068860516
86	0xbdaa3a84	-0.08311942
87	0xbd4f1b5b	-0.050563198
88	0x3ca8a8df	0.020588337
89	0xbdcfa0c0	-0.101380825
90	0xbceef3b6	-0.029168945
91	0x3df192e4	0.11795595
92	0x3db080a9	0.0861829
93	0xbd3ee3a4	-0.046603814
94	0x3de1769b	0.1100895
95	0xbde63092	-0.11239733
96	0x3dbdfa27	0.092762284
97	0xbc4d9f93	-0.0125502525
98	0xbddb57b4	-0.107100874
99	0x3da2e2f1	0.07953442
100	0x3c26c978	0.01017987
101	0xbe043fbc	-0.12914938
102	0xbd6304c6	-0.055424474
103	0x3dc06b21	0.09395433
104	0xbdd99551	-0.10624183
105	0x3db17299	0.08664436
106	0xbd53d320	-0.051715016
107	0xbcfd2d15	-0.030905286
108	0xbda04350	-0.07825339
109	0x3db6be3a	0.089230016
110	0xbdc867ff	-0.09785461
111	0xbd8232b4	-0.06357327
112	0x3d45e9fe	0.048318855
113	0xbb41ef6e	-0.0029592174
114	0x3c9f7d30	0.019468874
115	0xbd152a38	-0.036417216
116	0x3d41ea5d	0.047342647
117	0x3ca9979e	0.02070218
118	0xbb0aed51	-0.002119858
119	0x3d6d3416	0.057911
120	0xbdd5a8ca	-0.104325846
121	0x3dc57626	0.09641676
122	0xbd8f2c88	-0.069909155
123	0xbe0dc476	-0.13844475
124	0x3d76cc8c	0.060253665
125	0x3dc57c6d	0.09642873
126	0xbdcd5346	-0.10025649
127	0x3dbda28c	0.09259519
128	0x3d3f850c	0.046757743
129	0xbd5ce2a0	-0.053927064
130	0x3d2a3520	0.04155457
131	0x3d3c72e6	0.046008013
132	0x3da314fc	0.07962987
133	0x3dc7aa1c	0.09749243
134	0x3d87e67c	0.06635758
135	0xbd514dd2	-0.051099606
136	0x3dbfacc5	0.09359125
137	0xb9e7c5dc	-0.0004420717
138	0xbc601aa8	-0.01367823
139	0xbc00037a	-0.007813329
140	0xbddb7643	-0.10715916
141	0xbd5e697b	-0.054299813
142	0x3d878f66	0.06619148
143	0x3e061367	0.13093339
144	0xbd007e28	-0.031370312
145	0xbd8a60c7	-0.0675674
146	0x3d00fe09	0.031492267
147	0x3b99382e	0.0046758866
148	0xbdd5248e	-0.10407363
149	0x3ae14ecd	0.0017189622
150	0xbe003851	-0.12521483
151	0xbd991529	-0.07474739
152	0xbddefde0	-0.108882666
153	0x3c4c9aff	0.012488126
154	0xbd846737	-0.06464999
155	0x3dc47a73	0.09593668
156	0xbd8a0434	-0.06739083
157	0x3cd5c98a	0.026097078
158	0x3dc0152f	0.093790404
159	0xbdd816c1	-0.10551215
160	0xbe0e951c	-0.13924068
161	0xbc97979e	-0.018504914
162	0x3d92bb69	0.07164652
163	0xbdc0e9a8	-0.094195664
164	0xbd4079c8	-0.04699114
165	0x3de6618f	0.112490766
166	0xbc210d25	-0.009829794
167	0x3dc68dd0	0.09695017
168	0x3dc9a5e0	0.09846091
169	0x3da184e0	0.07886672
170	0xbd83d2d7	-0.06436699
171	0x3d1dfad3	0.038569283
172	0x3dd92509	0.10602767
173	0xbd7f7972	-0.06237168
174	0x3dfc1577	0.123087816
175	0x3d6aed7e	0.057355396
176	0xbdb0174c	-0.085981935
177	0xbc23a54d	-0.009988141
178	0xbdf2f18e	-0.11862479
179	0x3d3094ad	0.04311054
180	0xbdba90db	-0.0910966
181	0x3de56dc9	0.112025805
182	0xbbd4cae9	-0.0064939153
183	0x3d34c6b6	0.044134818
184	0xbc3bc6ac	-0.011460941
185	0xbd337bf2	-0.043819375
186	0x3d0fbbef	0.035091337
187	0x3b9ac758	0.0047234707
188	0xbb2124df	-0.0024588627
189	0x3d5e0176	0.054200612
190	0x3d9f637e	0.077826485
191	0xbd829f47	-0.06378036

gru.bias_hh_l0_reverse f4 [192]
0	0x3d3cc776	0.04608866
1	0xbb159203	-0.0022822625
2	0x3d0099f7	0.031396832
3	0xbe069c78	-0.13145626
4	0xbd0f0867	-0.034920122
5	0x3dfb6e28	0.1227687
6	0xbd196225	-0.037447114
7	0x3d41bd43	0.047299635
8	0xbd45a9e6	-0.04825773
9	0x3de28eb9	0.110623784
10	0xbbb15e39	-0.0054128435
11	0x3ddb4f63	0.10708501
12	0x3cfc700a	0.030815143
13	0x3d5e5cf8	0.05428788
14	0x3dd10b1d	0.10207198
15	0x3c92aea1	0.017905535
16	0x3cc50b2e	0.024053182
17	0x3d289220	0.04115498
18	0x3cc7559a	0.02433281
19	0xbd6f5d80	-0.058438778
20	0x3d0c4983	0.034249794
21	0x3e00d54e	0.1258137
22	0x3dd3ac04	0.10335544
23	0x3d12e6dc	0.035864696
24	0x3c8ed396	0.017434876
25	0xbd086cc0	-0.033306837
26	0xbcddd624	-0.02707965
27	0xbbb6e7a3	-0.0055818125
28	0x3dde696d	0.10859952
29	0x3d127856	0.035759293
30	0x3c009803	0.007848742
31	0x3e111a1c	0.14170116
32	0x3dd5f14a	0.10446413
33	0xbdc9cff3	-0.09854116
34	0xbc1b9a77	-0.0094972765
35	0x3deff387	0.11716371
36	0x3d1b2735	0.037879188
37	0x3de43354	0.111426026
38	0xbc80fde5	-0.015746066
39	0x3e13c0e0	0.14429045
40	0xbe03dcf4	-0.12877256
41	0xbbb33432	-0.0054688687
42	0x3dda00a8	0.106446564
43	0xbd766626	-0.06015601
44	0x3df96265	0.121769704
45	0xbaa2bb47	-0.0012415432
46	0x3b64245e	0.0034811716
47	0xbdf2c21a	-0.11853428
48	0xbd09297d	-0.033486832
49	0x3dcf5e66	0.10125427
50	0xbd803ed0	-0.062619805
51	0x3d96df55	0.07366816
52	0xbe0d26c2	-0.13784316
53	0x3d82dd59	0.06389875
54	0x3c55b533	0.01304369
55	0x3b7390e7	0.0037165226
56	0x3d930ae8	0.071798146
57	0xbe093a99	-0.1340126
58	0xbdae8792	-0.08521952
59	0xbdc9b211	-0.098484166
60	0xbd04fa4b	-0.03246526
61	0xbceb9887	-0.028759254
62	0x3df6ae98	0.1204502
63	0x3c95db58	0.018293068
64	0xbdcecdc4	-0.100978404
65	0x3c26e3bb	0.010186131
66	0x3decfa2a	0.115711525
67	0xbd66d3f9	-0.056354497
68	0xbdd2a7be	-0.102859005
69	0x3dc741b1	0.097293265
70	0xbe068811	-0.13137843
71	0xbd137a68	-0.036005408
72	0x3ddf9d29	0.10918648
73	0xbde38e04	-0.11111072
74	0xba898ba1	-0.0010493883
75	0xbd5f9105	-0.05458166
76	0x3db0243d	0.08600662
77	0x3e086836	0.13321003
78	0x3d85923d	0.06522033
79	0xbb1e580b	-0.0024161364
80	0xbccb12db	-0.024789264
81	0x3c7f9c43	0.015601221
82	0x3bb9d13a	0.0056706937
83	0x3cd988bd	0.02655446
84	0x3debd203	0.11514666
85	0xbcb795b6	-0.022410255
86	0x3d31467e	0.043280117
87	0x3d5df4c4	0.054188505
88	0x3d60d674	0.05489202
89	0x3c94d385	0.018167267
90	0xbccf0c8e	-0.025274541
91	0xbd2dae14	-0.042402342
92	0xbd1acc74	-0.037792638
93	0xbdcf3f69	-0.101195164
94	0x3cbb2073	0.022842621
95	0x3cc05bfa	0.023481358
96	0xbc0a0aab	-0.008425395
97	0xbd288acb	-0.04114799
98	0x3d8c9ccc	0.06865844
99	0x3db03e0f	0.08605587
100	0x3de34413	0.110969685
101	0xbd5f5106	-0.05452063
102	0xbd21f77e	-0.039542668
103	0x3cd544a2	0.026033703
104	0x3dae71e1	0.085178144
105	0x3dca7379	0.09885306
106	0xbc4c33de	-0.012463538
107	0x3e00bef7	0.12572847
108	0xbc859d99	-0.0163105
109	0xbd17523f	-0.03694367
110	0x3ce9ed61	0.028555574
111	0x3d5c5fb9	0.053802226
112	0xbcbf72ef	-0.023370234
113	0xbdad6bd1	-0.0846783
114	0x3db656a1	0.08903242
115	0xbc8c68da	-0.01713984
116	0xbd928f37	-0.07156222
117	0xbd9b7752	-0.07591118
118	0xbb9681d9	-0.0045931158
119	0xbd273492	-0.04082162
120	0xbd3f90a3	-0.046768796
121	0x3dd964da	0.10614939
122	0x3d8a419c	0.06750795
123	0xbd7c2199	-0.06155548
124	0xbc98307a	-0.018577803
125	0xbdcb13e8	-0.09915906
126	0xbe06f475	-0.1317919
127	0xbc9777f2	-0.018489812
128	0xbdcb07a6	-0.09913568
129	0xbd2cff5a	-0.04223571
130	0xbd93a515	-0.07209221
131	0xbda3cf6c	-0.07998547
132	0xbd9b1d3a	-0.07573934
133	0x3decab1f	0.11556076
134	0x3ddb9424	0.10721615
135	0xbdf548d7	-0.11976784
136	0xbd703e25	-0.058653016
137	0xbe03a537	-0.12855993
138	0xbc8e5c4c	-0.017377995
139	0x3d3aa8cf	0.045571145
140	0xbbc66400	-0.0060544014
141	0x3d85e00e	0.06536876
142	0xbdef1d31	-0.1167549
143	0xbc8b7865	-0.017025182
144	0x3c37895a	0.011202181
145	0x3d323e08	0.04351619
146	0x3d728309	0.059206996
147	0xbd679421	-0.05653775
148	0xbdbf752e	-0.09348522
149	0xbdc0edf7	-0.09420388
150	0x3db7c685	0.089734115
151	0x3d510466	0.051029585
152	0xbdb9afb6	-0.09066717
153	0x3d4d5632	0.05013103
154	0x3d928611	0.071544774
155	0x3dcc4145	0.09973387
156	0xbde7ba4f	-0.113148324
157	0x3d8ea967	0.06965905
158	0xbcb0c8fc	-0.021580212
159	0xbe117f0f	-0.14208625
160	0x3db249c0	0.08705473
161	0xbd98aea2	-0.074551836
162	0x3d611469	0.054951105
163	0xbddca33c	-0.10773322
164	0x3deec5e4	0.116588384
165	0x3dc2e581	0.09516431
166	0x3d813e67	0.063107304
167	0x3dc0a834	0.09407082
168	0x3d91fa46	0.07127814
169	0x3d509522	0.050923474
170	0xbbb44e11	-0.0055024703
171	0xbd04f88b	-0.03246359
172	0xbdc275f8	-0.09495157
173	0x3db67f98	0.08911055
174	0xbdd5ae7c	-0.10433671
175	0xbd6947a3	-0.056953084
176	0x3d504dff	0.050855633
177	0x3e029994	0.12753898
178	0xbdd80a6f	-0.10548865
179	0x3da507b3	0.08058109
180	0xbdbf913d	-0.09353874
181	0xbd3daa67	-0.046305086
182	0xbe0687ec	-0.13137788
183	0x3dbc9a64	0.09209135
184	0x3d462db7	0.04838344
185	0x3cbe7346	0.023248326
186	0x3d9db995	0.077014126
187	0xbdf58e10	-0.11989987
188	0x3da81e20	0.08208871
189	0x3d8e4559	0.06946821
190	0x3df88595	0.12134854
191	0xbdbbadcd	-0.09164009
