checkpoints/glycosylation_agent.pt (torch, 35568 bytes, 3 tensors)

classifier.0.weight f4 [64, 128]
0.019907132 0.035950284 0.0035838354 -0.045631252 0.096361965 -0.1273264 0.04601267 -0.09934472
0.012586616 0.041615374 -0.03911773 0.06019706 -0.06948199 -0.07054007 -0.07247232 0.0033649025
0.031182427 0.09110028 -0.012405892 0.107759506 0.061254233 0.015646385 -0.0025173475 -0.09608624
0.05325219 -0.0048457133 0.014124764 0.19609775 -0.02935073 0.0061948206 -0.104280844 0.052163694
-0.041760124 -0.02421609 0.0025290258 0.07264541 -0.09363588 -0.06336932 0.123102784 0.043121543
0.0068296446 -0.034568835 -0.070990905 -0.10418241 0.12956747 0.008752566 -0.018271083 0.0020053217
-0.1481129 -0.07683219 -0.11180024 0.02015132 -0.0013304269 -0.06728057 0.12713192 -0.005283261
-0.03541132 0.11639663 0.013948387 0.06413127 0.017155863 -0.071049094 0.022755338 0.03486939
-0.10037775 -0.05384205 0.052244056 -0.059030686 0.016624015 -0.05113045 0.027548904 0.09336969
0.014351316 -0.12178889 -0.07120861 -0.01869925 -0.013886501 -0.053930227 -0.065349236 0.007309119
0.048853777 -0.061133545 0.071336806 -0.06937593 -0.09527255 -0.091337346 -0.047970388 -0.06692576
0.080088146 0.057683755 0.064601764 -0.090537906 0.045580838 0.071631625 -0.19976383 -0.07275534
0.051703684 -0.019238936 0.05201778 -0.032508697 -0.14287342 0.09392792 -0.03594868 0.0045021325
0.042391267 -0.014309966 -0.020883061 0.0010042685 0.043855175 -0.023779567 0.06631879 0.037641034
0.036788855 0.04337978 0.062708035 -0.012549964 -0.028806297 0.039389998 -0.020186344 0.13573925
0.014992748 0.041266974 -0.00836229 -0.10180809 -0.047874577 -0.13648596 -0.0122796185 -0.017732112
-0.19405547 -0.10367125 -0.029572025 -0.19279082 -0.10448293 -0.22986233 -0.00012076893 0.007837901
0.045258928 -0.20346662 0.11647959 -0.019405078 0.038648788 -0.101471335 -0.09403451 -0.0048985216
0.10201629 -0.011637109 0.018903902 0.1533257 0.22813953 0.1002655 0.00035470887 -0.038774323
0.09071069 0.027721874 0.11077377 0.10560222 0.047430765 0.13461249 -0.114608094 0.27100974
-0.17122811 -0.030282978 -0.11107724 0.19989225 0.0028632786 0.006394548 -0.0005029176 0.119947396
-0.059514664 -0.12971997 0.058065593 -0.13706294 0.06861372 0.005714951 0.06426719 -0.20214535
0.020093089 0.069640175 -0.078966536 -0.03338667 -0.07622963 -0.113258585 -0.014873349 -0.07235235
-0.06324893 0.007430366 -0.015031589 0.13352896 0.050665174 -0.073960006 -0.060912047 0.093097016
0.0066580046 0.02786492 0.058880564 0.03086643 0.14638712 -0.04596579 0.007819549 -0.036152795
-0.144162 -0.16537906 -0.17611155 0.0112341335 -0.27487925 0.13916485 0.014035235 0.0964091
0.06746949 -0.065944485 0.3621662 -0.0075449445 -0.12688819 -0.30117288 0.1105075 -0.013787518
-0.1673784 0.09408259 -0.045190983 -0.15297744 0.10640716 0.13824476 -0.09160415 0.09307212
-0.033230126 -0.07238562 -0.020705944 0.09412375 -0.1328461 0.0058775414 0.024521533 0.16511326
-0.03374398 -0.036631364 -0.15628426 0.08730901 -0.067866445 -0.123669125 0.1250182 0.026533613
-0.007805053 0.14460458 -0.055991713 0.039709255 0.097945645 -0.027245082 -0.052277517 0.019150423
0.064761706 0.058235362 -0.081216566 -0.011407557 -0.06946697 -0.14189294 0.09603101 0.1423387
00000000: 4814 a33c 9b40 133d c8de 6a3b d6e7 3abd
00000010: 6c59 c53d da61 02be c877 3c3d 3f75 cbbd
00000020: 1838 4e3c e274 2a3d ea39 20bd 3191 763d
00000030: 934c 8ebd 5077 90bd 5e6c 94bd b285 5c3b
00000040: 4a72 ff3c c992 ba3d 1542 4bbc 04b1 dc3d
00000050: b8e5 7a3d d92c 803c 15fa 24bb ddc8 c4bd
00000060: f81e 5a3d cac8 9ebb 8e6b 673c d9cd 483e
00000070: f170 f0bc ecfd ca3b 3291 d5bd 99a9 553d
00000080: aa0c 2bbd d260 c6bc 03be 253b 1ec7 943d
00000090: 2bc4 bfbd c6c7 81bd 501d fc3d 37a0 303d
000000a0: 36cb df3b 0d98 0dbd ae63 91bd 965d d5bd
000000b0: 56ad 043e ec66 0f3c 3dad 95bc b76b 033b
000000c0: e8aa 17be 325a 9dbd 86f7 e4bd 6214 a53c
000000d0: b861 aeba 65ca 89bd df2e 023e 351f adbb
000000e0: 760b 11bd 5b61 ee3d c687 643c 4157 833d
000000f0: 748a 8c3c 3082 91bd 6769 ba3c 35d3 0e3d
00000100: da92 cdbd 7b89 5cbd ddfd 553d 29ca 71bd
00000110: 162f 883c 2a6e 51bd 3dae e13c 9c38 bf3d
00000120: c821 6b3c 746c f9bd d2d5 91bd 2b2f 99bc
00000130: 3584 63bc f1e5 5cbd d2d5 85bd 5681 ef3b
00000140: e61a 483d 2b67 7abd 0819 923d f814 8ebd
00000150: 411e c3bd 130f bbbd 997c 44bd 5f10 89bd
00000160: 4105 a43d cd45 6c3d ee4d 843d f06b b9bd
00000170: f9b2 3a3d 9ab3 923d e48e 4cbe c000 95bd
00000180: 3ec7 533d f99a 9dbc 9810 553d d727 05bd
00000190: 694d 12be 485d c03d ec3e 13bd a086 933b
000001a0: 77a2 2d3d 5974 6abc f412 abbc a9a1 833a
000001b0: 7ca1 333d 5ecd c2bc 25d2 873d 7c2d 1a3d
000001c0: e9af 163d ffae 313d 126d 803d 5d9e 4dbc
000001d0: 2ffb ebbc 6857 213d d55d a5bc 3bff 0a3e
000001e0: 25a4 753c 8f07 293d fd01 09bc c380 d0bd
000001f0: 2218 44bd fac2 0bbe 7430 49bc ef42 91bc
00000200: 7ab6 46be 9851 d4bd 0841 f2bc f56a 45be
00000210: 25fb d5bd 0861 6bbe 5345 fdb8 8a6a 003c
00000220: 6d61 393d 8e59 50be da8c ee3d 66f7 9ebc
00000230: 314e 1e3d 34d0 cfbd 2a95 c0bd c783 a0bb
00000240: ebed d03d 93a9 3ebc 5bdc 9a3c 6a01 1d3e
00000250: 699d 693e 0058 cd3d 38f8 b939 d3d1 1ebd
00000260: 87c6 b93d fc18 e33c 5cdd e23d fa45 d83d
00000270: c346 423d dbd7 093e a6b7 eabd cac1 8a3e
00000280: 6c56 2fbe 0214 f8bc 777c e3bd 8eb0 4c3e
00000290: d8a5 3b3b 5b89 d13b 3bd6 03ba fba6 f53d
000002a0: a6c5 73bd 50d5 04be 30d6 6d3d 3a5a 0cbe
000002b0: 5a85 8c3d 7c44 bb3b 849e 833d 31ff 4ebe
000002c0: 439a a43c 829f 8e3d 35b9 a1bd 76c0 08bd
000002d0: 481e 9cbd 1ef4 e7bd 59af 73bc 782d 94bd
000002e0: a888 81bd 6d7a f33b 0e47 76bc d1bb 083e
000002f0: 4986 4f3d 5878 97bd e97e 79bd a6a9 be3d
00000300: 642b da3b f944 e43c bf2c 713d 98db fc3c
00000310: 81e6 153e a046 3cbd 911d 003c f414 14bd
00000320: 349f 13be 2159 29be 9656 34be 5f0f 383c
00000330: f9bc 8cbe 3b81 0e3e 0bf4 653c 2272 c53d
00000340: 722d 8a3d e70d 87bd d96d b93e 953b f7bb
00000350: faee 01be 5533 9abe c251 e23d 0be5 61bc
00000360: 3e65 2bbe 5fae c03d 2e1a 39bd 1ea6 1cbe
00000370: ffeb d93d 0990 0d3e f59a bbbd 989c be3d
00000380: 501c 08bd e93e 94bd 839f a9bc f4c3 c03d
00000390: cf08 08be 6498 c03b 62e1 c83c 7313 293e
000003a0: 2137 0abd c50a 16bd fb08 20be 11cf b23d
000003b0: 90fd 8abd 3d46 fdbd c504 003e 055d d93c
000003c0: 88c1 ffbb 3913 143e 9157 65bd 2ca6 223d
000003d0: ba97 c83d 1431 dfbc f320 56bd 59e1 9c3c
000003e0: c9a1 843d 3488 6e3d df54 a6bd c3e6 3abc
000003f0: b344 8ebd 624c 11be e8ab c43d 3cc1 113e

classifier.0.bias f4 [64]
0.10323306 -0.039143726 0.030836035 0.027253702 0.122824475 0.046131086 -0.09265728 0.07628232
-0.056402095 -0.016319307 0.01085144 -0.07428955 -0.05145074 0.014342777 -0.032221045 0.080063745
0.0805793 -0.028956197 0.055950344 0.026695305 -0.0033430664 0.04817398 0.044336703 0.047011353
0.09747823 -0.04905767 -0.020648196 0.099907845 -0.083717376 -0.07019014 0.014937653 -0.026095478
-0.056919884 0.018091965 0.07306212 0.046129417 -0.017279666 0.059048302 0.10731271 0.09415233
-0.064121455 -0.10492901 0.1018055 0.08295832 0.04197609 -0.10075895 0.022934616 -0.03911533
0.04005431 -0.014350067 0.06282358 -0.06932844 -0.10066205 0.05542971 -0.10316809 0.020393256
-0.036837958 0.04489497 0.0024276762 -0.040922705 0.063105494 -0.0041222684 -0.03954658 0.012213281
00000000: db6b d33d 2c55 20bd da9b fc3c 2843 df3c
00000010: 668b fb3d f3f3 3c3d 1ac3 bdbd e839 9c3d
00000020: e205 67bd 11b0 85bc 3dca 313c 1f25 98bd
00000030: 03be 52bd f8fd 6a3c 37fa 03bd 76f8 a33d
00000040: c306 a53d 8c35 edbc 302c 653d 1db0 da3c
00000050: 5917 5bbb 1452 453d 679a 353d fa8e 403d
00000060: aba2 c73d b2f0 48bd 6826 a9bc 7c9c cc3d
00000070: 0474 abbd d9bf 8fbd 0fbd 743c 2fc6 d5bc
00000080: d324 69bd 9a35 943c 98a1 953d 33f2 3c3d
00000090: 168e 8dbc a2dc 713d c4c6 db3d f0d2 c03d
000000a0: 1c52 83bd 05e5 d6bd 677f d03d 0de6 a93d
000000b0: 1fef 2b3d b55a cebd 60e1 bb3c 6537 20bd
000000c0: fd0f 243d 8b1c 6bbc a6a9 803d 12fc 8dbd
000000d0: e827 cebd 430a 633d cb49 d3bd c20f a73c
000000e0: 66e3 16bd cae3 373d a619 1f3b 919e 27bd
000000f0: 743d 813d 1814 87bb 98fb 21bd 371a 483c

classifier.3.weight f4 [1, 64]
-0.14235657 -0.109049626 -0.1423392 0.084362954 -0.06665407 0.014345795 0.16197512 0.08333907
-0.0828637 -0.14731693 0.002473353 0.08255855 0.0124663375 -0.13843979 0.058128163 -0.06970817
-0.06293223 -0.11402588 -0.09725748 -0.06874433 0.036011796 0.00043548516 -0.06801665 0.08238218
-0.12804377 0.018427877 0.07267194 -0.056263283 0.17798425 0.029970916 -0.12588464 -0.057461966
0.009923223 -0.11044126 -0.063226044 0.010551011 0.08921195 0.09569749 -0.06176347 -0.1276737
0.08226481 -0.010242195 -0.047230154 -0.06977394 0.033620678 0.033567555 -0.118202925 -0.00507194
-0.15706581 -0.105519995 0.07619594 0.027722593 0.0036154028 0.046592917 -0.008489834 -0.041885134
-0.1479798 0.03424527 -0.06302166 -0.15085097 0.077771634 -0.06292419 -0.14836358 -0.16703972
00000000: ecc5 11be 6955 dfbd 5ec1 11be 7cc6 ac3d
00000010: ee81 88bd a00a 6b3c cedc 253e adad aa3d
00000020: 72b4 a9bd 40da 16be fa17 223b 7514 a93d
00000030: 9c3f 4c3c 29c3 0dbe cc17 6e3d 28c3 8ebd
00000040: 9de2 80bd 6786 e9bd ee2e c7bd d4c9 8cbd
00000050: 1b81 133d d451 e439 504c 8bbd fdb7 a83d
00000060: e81d 03be 0ff6 963c 07d5 943d 5474 66bd
00000070: 8141 363e 9185 f53c e7e7 00be 3d5d 6bbd
00000080: 0495 223c 072f e2bd a87c 81bd 26de 2c3c
00000090: c1b4 b63d 0cfd c33d b1fb 7cbd e5bc 02be
000000a0: 747a a83d e1ce 27bc 6874 41bd a4e5 8ebd
000000b0: d6b5 093d 227e 093d 6014 f2bd 8432 a6bb
000000c0: dcd5 20be de1a d8bd 9e0c 9c3d 7e1a e33c
000000d0: 65f0 6c3b 37d8 3e3d f218 0bbc bf8f 2bbd
000000e0: 0488 17be c544 0c3d 8011 81bd ad78 1abe
000000f0: bc46 9f3d 66de 80bd 9fec 17be 760c 2bbe
