checkpoints/graph_agent.pt (torch, 36080 bytes, 4 tensors)

layers.0.bias f4 [64]
000000 00 00 00 00 00 00 00 00 00 00 00 00 00 00 00 00
       0.0 0.0 0.0 0.0
000010 0f 44 23 3c aa 0c 9c 3c 00 00 00 00 d9 7c 9e 3c
       0.009964957 0.019049007 0.0 0.019346641
000020 e7 35 6c 3c 00 00 00 00 3c c9 29 3c 00 00 00 00
       0.014417148 0.0 0.010362919 0.0
000030 d5 66 a0 3c 00 00 00 00 e9 ed a8 3c 92 c9 c4 bb
       0.019580284 0.0 0.020621257 -0.0060054744
000040 00 00 00 00 00 00 00 00 6f 73 a6 3c ba 7b 84 3c
       0.0 0.0 0.020318715 0.016172279
000050 99 58 90 3a 00 00 00 00 a6 58 a4 3c 75 d4 a1 3c
       0.0011012732 0.0 0.020061802 0.019754628
000060 34 a5 82 3c 00 00 00 00 c6 7f 82 3c 00 00 00 00
       0.015947916 0.0 0.015930068 0.0
000070 16 f9 9d 3c 00 00 00 00 d9 6c f6 ba c6 98 a5 3c
       0.019283812 0.0 -0.001880075 0.02021445
000080 00 00 00 00 a1 3a a1 3c 00 00 00 00 00 00 00 00
       0.0 0.019681277 0.0 0.0
000090 00 00 00 00 00 00 00 00 8c db a1 3c 00 00 00 00
       0.0 0.0 0.019758008 0.0
0000a0 4b 4a 7f bc 00 00 00 00 00 00 00 00 00 00 00 00
       -0.015581678 0.0 0.0 0.0
0000b0 00 00 00 00 f3 49 9c 3c 00 00 00 00 a0 52 a0 3c
       0.0 0.01907823 0.0 0.019570649
0000c0 00 00 00 00 00 00 00 00 00 00 00 00 d0 25 b4 3b
       0.0 0.0 0.0 0.0054976717
0000d0 97 ec a1 3c 00 00 00 00 1b cb 85 3c a9 9f a1 3c
       0.019766135 0.0 0.0163322 0.019729452
0000e0 00 00 00 00 6c a2 99 3c f2 71 56 3c 00 00 00 00
       0.0 0.018754207 0.01308869 0.0
0000f0 9b 8f a3 3c c2 e3 ae 3b 1c 4e 6f 3c 00 00 00 00
       0.019965937 0.0053372094 0.014606025 0.0

layers.0.lin.weight f4 [64, 1]
000000 01 e6 70 be cf c2 59 be a0 54 a1 bb 41 9b bd bc
       -0.2352524 -0.2126572 -0.004923418 -0.02314532
000010 0e 40 86 3e 52 ac f0 3d 0a 63 82 bd dc 3a 80 3e
       0.26220745 0.117516175 -0.063665465 0.25044906
000020 c6 15 0b 3d 1c 60 3f be c3 3f 80 3e d7 20 62 bd
       0.03395631 -0.18689007 0.25048646 -0.0552071
000030 9c 48 9d 3e 70 44 b8 bd 3e 1b 09 3e 71 5e 8e bb
       0.3071946 -0.089974284 0.13389298 -0.0043447544
000040 1e 19 58 be 4c e8 ee bd 75 f7 d7 3c a6 69 57 3e
       -0.21103331 -0.11665401 0.026363114 0.21036395
000050 84 9b 5b 3e ae 73 ae bb 2f 19 7e 3e 13 0c ee 3d
       0.21446043 -0.0053238487 0.24814294 0.11623397
000060 16 61 9c 3e 14 55 e7 bd 36 e5 18 3e 36 65 87 be
       0.3054282 -0.11295524 0.14931187 -0.26444405
000070 c2 d5 81 3e d7 87 93 bd aa 8a 75 3d 30 55 45 3e
       0.25358397 -0.07203644 0.059946693 0.19270778
000080 ac f3 39 bd cd 2d 7e 3e 38 86 4c bb fd 2d 8c bd
       -0.0453984 0.24822159 -0.003120793 -0.06844709
000090 28 01 88 be 0b 2b 93 bc a9 64 82 3e 92 86 4c be
       -0.26563382 -0.01796486 0.25467423 -0.1997321
0000a0 35 3e cd 3d 95 13 0e be 1e 26 3b be eb 54 2d be
       0.10021631 -0.13874657 -0.1827626 -0.16926925
0000b0 3a 71 5d be 52 3c 8d 3e d5 bc b9 bd ff dd 3b 3e
       -0.21625224 0.27585083 -0.0906922 0.18346404
0000c0 8b d9 4c be bf 33 10 be 33 79 6b be d9 ce d7 3d
       -0.20004861 -0.1408224 -0.22995453 0.105375
0000d0 e0 7b 9f 3e 59 ed 82 be 85 84 9d 3e 31 90 8a 3e
       0.31149197 -0.25571707 0.30765167 0.27063134
0000e0 0e a8 a0 bc 78 d5 6b 3e 76 97 ca 3d 68 92 31 be
       -0.019611385 0.2303065 0.0989217 -0.17341006
0000f0 6d 08 54 3e 4c 29 91 3e 98 13 85 3d f6 86 01 bc
       0.20706339 0.2835182 0.06497878 -0.007905712

layers.1.bias f4 [128]
000000 c4 77 9f bc 5b b1 9d bc 04 7a a3 bc d2 fa a0 3c
       -0.019466288 -0.019249609 -0.019955643 0.01965085
000010 26 46 a3 3c 8c 11 a2 3c 0d 06 a4 3c 98 80 a1 bc
       0.01993091 0.019783758 0.020022416 -0.019714639
000020 ef bd 76 3b bb a7 a3 3c 79 ed a1 bc 08 1d 21 bc
       0.003764983 0.019977441 -0.019766556 -0.009833582
000030 90 0b 5d 3c d3 ec a1 bc 32 68 3e bc 9a d0 21 3c
       0.013491526 -0.019766247 -0.011621522 0.009876395
000040 a6 9b 82 3c d2 b3 81 3c 07 3f 99 3c 81 5b a1 3c
       0.01594336 0.015832815 0.018706812 0.019696953
000050 0d fc a0 3c 21 5d a1 bb 16 d7 44 3b ac be 9a bc
       0.019651437 -0.004924432 0.0030035428 -0.018889748
000060 2d f9 7f bc 47 95 3f 3c 9a bc 1f 3c ff 8d 5c ba
       -0.015623373 0.011693305 0.009749556 -0.0008413493
000070 db 13 39 3c f0 89 11 bc ed a7 a1 bc fc 2b 9f 3c
       0.011296238 -0.0088829845 -0.019733394 0.019430153
000080 56 20 a0 bc 78 2e a5 3c f7 e7 88 bb 14 dd 89 3b
       -0.019546669 0.02016376 -0.004178043 0.004207263
000090 50 af 9f bc eb 8e a6 3c e2 6e 58 3c cc 48 a4 3c
       -0.019492775 0.02033182 0.01321003 0.020054244
0000a0 8b 81 84 3c a4 67 94 bc 7d ed 38 bc 3b b1 9e 3c
       0.016175052 -0.018115826 -0.01128709 0.01937162
0000b0 7d 47 a1 3c c5 f1 9f 3b d1 cd 9e 3c f5 8a 4e bc
       0.019687409 0.004881116 0.01938525 -0.012606372
0000c0 58 60 9f 3c d9 1b a5 bc 4f 5b 9c 3c c2 52 9d bc
       0.01945512 -0.02015488 0.019086508 -0.019204501
0000d0 fc 2a 9f 3c c1 40 99 bc e8 bc 23 bc 2f 67 86 3c
       0.019429676 -0.018707635 -0.009993769 0.016406624
0000e0 9d e6 9d bc 7e 1d 91 bc 78 db 3d bc 4f cd 68 bc
       -0.019275004 -0.017714258 -0.01158797 -0.014209106
0000f0 a0 8c 8a bb 1f 95 a2 bc 86 45 9e bc 2a c9 a0 3c
       -0.0042281896 -0.019846497 -0.01932026 0.019627172
000100 6e 78 a0 bc 99 bf 67 bc 5d 67 a5 3c 64 7a 9d 3c
       -0.019588675 -0.014144802 0.020190889 0.0192234
000110 e4 16 90 bc 44 11 a1 bb 13 f7 ab bb b2 50 7d bc
       -0.01758904 -0.0049153883 -0.0052479594 -0.015461134
000120 bf d3 b1 3b 50 ce a0 3c 76 9f a1 3c e6 25 69 bc
       0.0054268534 0.019629627 0.019729357 -0.014230227
000130 fc 63 91 3c 4a fd a2 3c 8d 22 8c ba c3 bc 15 bc
       0.017747872 0.019896168 -0.0010691449 -0.009139243
000140 84 e2 98 bc 42 d2 4e bc 7c 02 a6 3c e9 fa 2f 3c
       -0.018662699 -0.012623372 0.020264857 0.010740974
000150 1f 63 9f bc 78 18 9f bc 28 79 c4 3b fc 6b a2 bc
       -0.019456444 -0.019420847 0.0059958883 -0.019826882
000160 57 6f a5 bc 1c 33 39 bc 52 00 89 3c fc ad a4 bc
       -0.020194693 -0.011303689 0.016723786 -0.020102493
000170 8a 97 a4 3c 4a 52 43 3c d0 32 9d bc d9 a2 9f bc
       0.02009179 0.011921475 -0.019189268 -0.019486832
000180 24 a2 74 bc bc ae 9d 3c b4 52 c4 bb 07 cb 4a 3b
       -0.014931235 0.019248359 -0.0059913043 0.0030943768
000190 f6 b1 8a 3c d7 1a 87 3c 2c 41 fe 39 7c 9f 87 bb
       0.016930562 0.01649229 0.00048495212 -0.004138885
0001a0 08 01 80 3c f1 95 9c 3c 2f 0d 1d b9 d7 19 75 bc
       0.015625492 0.019114466 -0.00014977598 -0.014959774
0001b0 64 a0 a5 bc 0b 88 9f 3c 65 26 43 bc 21 54 a5 3c
       -0.020218082 0.01947405 -0.011911009 0.020181717
0001c0 d8 9e 2f bc ff 22 6f 3c 50 83 a2 3c fc 01 a2 bc
       -0.010719024 0.014595746 0.019838005 -0.019776337
0001d0 9e ac ae bb 91 d1 b0 bb 15 6a 88 3c d7 6d 69 bc
       -0.005330636 -0.005396076 0.016652146 -0.014247379
0001e0 6f c3 65 bb dd f7 58 3c ff 5b a2 bc 26 82 3b 3c
       -0.0035059114 0.013242689 -0.019819258 0.011444604
0001f0 0b e8 a4 bc c7 a9 8e bc 59 cd 9f bc d8 0f ee b9
       -0.020130178 -0.01741494 -0.019507097 -0.00045406702

layers.1.lin.weight f4 [128, 64]
000000 8d 10 e7 bd 93 7a d6 bc 2a 27 2b 3a 94 1a 29 3c
       -0.11282454 -0.026181495 0.0006528968 0.010321278
000010 da d2 fe bb 9c b1 a7 3c 77 86 0c be c3 b4 95 3c
       -0.0077766003 0.020470433 -0.1372317 0.01827467
000020 11 c6 30 bd 9f e0 fe 3d b0 8d b6 3d 96 ec fa bc
       -0.04315764 0.12445187 0.089137435 -0.030630391
000030 03 fd c0 3b 79 e8 33 3d 99 4c 39 bd d3 6e 94 bd
       0.0058895363 0.043922875 -0.045239065 -0.072477005
000040 06 ab f1 bd d5 2f 18 be bd bd a9 bc 15 e6 ad bd
       -0.11800198 -0.14861996 -0.020720357 -0.0849115
000050 b2 c8 df ba b8 3f 26 be 5b b4 0e be 7e ba 44 be
       -0.0017073362 -0.16235244 -0.13935988 -0.19211766
000060 0a d9 3f be 9d b0 11 3c 6b c8 f0 bd ab a6 9e 3c
       -0.18735138 0.008892206 -0.11756977 0.019366583
000070 29 72 ab 3d 11 f4 6b bc 54 14 ad 3b 4b 8d 24 be
       0.08371384 -0.014401452 0.0052819643 -0.16069524
000080 31 b9 10 3e 22 43 9d bd ab bb be bd 03 e7 18 be
       0.14133145 -0.0767882 -0.093131386 -0.14931874
000090 15 70 8e 3b f5 57 0b 3e b6 b8 97 bd 87 f8 28 bd
       0.0043468573 0.13607772 -0.07408278 -0.04125264
0000a0 f0 fa 25 be 43 4b b1 bd 39 f9 22 3e fa 13 2c bd
       -0.16209006 -0.08656933 0.15915383 -0.04201124
0000b0 08 a3 07 3e 4f 94 c5 bd f0 8c 91 3d 29 f2 23 3d
       0.13245785 -0.09647428 0.0710696 0.040025864
0000c0 ac a2 c7 bc a1 12 01 be d8 03 ca 3b da 82 3c 3d
       -0.02436956 -0.12604763 0.006165009 0.046023227
0000d0 14 35 7e bd 39 94 17 3e 22 73 bc bd c5 ab d8 3d
       -0.062062338 0.14802636 -0.09201647 0.105796374
0000e0 b8 6e 12 be bb 9c c1 3c 2d 5e d9 3d 97 6f 9e 3d
       -0.14300048 0.023634305 0.10613666 0.07736128
0000f0 f3 a2 55 3d 7a 11 08 3c 61 f5 28 be 08 b6 83 bd
       0.052157354 0.008304948 -0.16499855 -0.06431204
000100 3f 87 3b 3b da 13 44 3d f0 db 07 be fc d6 e9 3d
       0.0028614549 0.047870494 -0.13267493 0.11417958
000110 24 a2 0a 3e 2b 45 a6 bd a5 58 d4 bc 51 8e 39 3d
       0.13538414 -0.081186615 -0.025921175 0.04530174
000120 78 a9 16 bd d2 ca 26 3d 89 44 01 3e b9 5a c9 3d
       -0.03678271 0.04072077 0.126238 0.09831757
000130 e1 e5 0b be c9 ed db bc 80 b8 25 bd cc 4b 6f 3c
       -0.1366191 -0.026846783 -0.040459156 0.014605474
000140 76 84 8b 3d 6a 7d e1 bd b2 b9 1f be de 2e bc 3d
       0.06812374 -0.11010249 -0.15598181 0.09188627
000150 25 4f be 3d b7 bc ef bd 43 93 18 be b5 a7 f9 3c
       0.09292439 -0.117059164 -0.14899926 0.030475477
000160 b5 2c 12 be 40 e4 e8 bd 32 63 ad 3c 11 c8 63 bd
       -0.14274867 -0.1137166 0.021165464 -0.05561072
000170 10 00 01 be df de ca 3b 14 30 b8 3c 4e b9 02 3e
       -0.1259768 0.006191119 0.022483863 0.12766
000180 57 02 db bd 1f 2c 75 3c c3 e2 a8 3d 14 62 16 be
       -0.10693806 0.014964133 0.08246376 -0.14685851
000190 55 73 c4 3c 16 be 77 bd 0e d4 ab bd 1e 2d 28 3e
       0.023980776 -0.060484014 -0.083900556 0.16423461
0001a0 01 07 08 3d 24 2a 03 be b9 71 30 be 69 00 b7 bd
       0.033209804 -0.12809044 -0.17230882 -0.08935625
0001b0 79 75 c7 bd 6e af da 3d 8e 64 19 3c 1f 44 e0 bd
       -0.09739203 0.10677992 0.009362353 -0.10950493
0001c0 4e 0b 2e 3d d5 4a 12 3e 35 5c 2a be 25 21 d5 3d
       0.04249125 0.14286359 -0.16636737 0.104067124
0001d0 88 76 af 3d 40 6c 3a 3d 03 42 94 bd 83 a3 b6 bd
       0.0856753 0.04551339 -0.07239153 -0.08917906
0001e0 a2 ed 7c bd d5 23 a5 bd 11 51 c7 bd ab 0f 4a 3d
       -0.06175006 -0.08063475 -0.09732259 0.04933135
0001f0 28 72 93 3c 9a 36 1e 3e ce cd 5b bd 8a cb 99 3d
       0.01799877 0.15450516 -0.053663068 0.07509525
000200 2b 34 af bd 00 17 2c 3e 96 8d 1c 3e cc 03 2b be
       -0.08554872 0.16805649 0.15288386 -0.16700667
000210 54 3c 38 bc 73 70 f3 bd e5 9b ce 3d b2 f0 91 3d
       -0.011244852 -0.11886682 0.10088328 0.07125987
000220 0c d7 0c 3e ed ca c0 bd 0f f6 42 be 57 85 9f 3d
       0.13753909 -0.09413705 -0.19039176 0.077891044
000230 cd 40 14 be 3a e7 5a bd 03 9c cc bd 51 3f 25 be
       -0.14477845 -0.05344317 -0.099906944 -0.16137435
000240 7e 48 bf 3d 6a 10 cf bd cd 64 0d be 0f 45 75 bd
       0.09339999 -0.101105526 -0.13807984 -0.059880313
000250 bb 4e ed 3b 2f ae fa 3c 18 5f 17 bd de 3b 1a be
       0.0072420514 0.030600635 -0.036955923 -0.150619
000260 ce b9 1e bd 41 cb 30 bc 24 9f 21 be 97 05 f0 bd
       -0.038751416 -0.010790647 -0.15783364 -0.11719816
000270 98 39 3d be 6f 63 a5 ba 3f d3 18 3e fa 90 9f 3d
       -0.18479002 -0.0012618134 0.14924334 0.07791324
000280 e3 42 2c 3e 06 bc 96 3c 1b 45 11 3e 66 6d 01 3e
       0.1682239 0.018400203 0.14186518 0.12639388
000290 44 62 87 bd f8 17 1d 3d ab 1e 57 bd 10 d1 01 be
       -0.066105396 0.038352937 -0.05251948 -0.12677407
0002a0 43 d3 9d 3d 01 4c 28 3e e8 ac e8 bb c5 09 e7 3c
       0.077063106 0.16435243 -0.00710069 0.0282029
0002b0 e0 a4 08 3e 30 31 55 3d 0d a4 ac bd bb ac e0 bd
       0.13344145 0.052048862 -0.08429728 -0.10970446
0002c0 3e f3 ff 3d 03 f7 e1 bd a7 41 67 bd a7 d1 c0 bd
       0.12497567 -0.11033442 -0.056459095 -0.09414988
0002d0 22 7c 91 bc f0 fb 59 3d c0 b6 f7 bd 8f cc 26 be
       -0.017759386 0.053218782 -0.12095404 -0.1628897
0002e0 d0 a9 2a 3e 75 c0 e5 bd e8 af 8f bd b7 77 1a be
       0.16666341 -0.11218349 -0.07015973 -0.1508473
0002f0 f4 53 fa 3c 4f 53 b8 bd b9 71 d6 bd 32 72 ec bc
       0.03055761 -0.09000265 -0.104709096 -0.028863046
000300 2e 5b 1b 3e bd a2 04 be 7f bd 1d 3e 03 7e b0 bd
       0.15171501 -0.12952705 0.15404318 -0.08617785
000310 ae f1 00 be d9 5d a3 bd d7 f8 88 bd 66 3a 4b 3d
       -0.12592193 -0.079768844 -0.066880874 0.04961624
000320 c3 f0 4a bd 9e c4 d7 3d 26 b2 27 3e de 2e 26 3e
       -0.049546015 0.105355486 0.16376552 0.16228816
000330 85 ad f4 bd 41 6f c0 bd 0a 70 61 3d 25 fe 19 3e
       -0.11947159 -0.0939622 0.05503849 0.15038355
000340 27 27 23 be fd 1f 2a 3e fa 6f e6 3d 53 39 2d 3e
       -0.15932904 0.16613765 0.112518266 0.16916399
000350 9e 21 00 3e 2b c7 9a 3c a9 45 92 bc ad 19 e6 3c
       0.12512824 0.018893799 -0.017855482 0.028088415
000360 39 91 a0 3d 20 99 80 3d 9a 27 8a bd 6d e8 1a be
       0.07840199 0.06279206 -0.06745835 -0.15127726
000370 77 be d5 bd 39 ea 32 3d 04 76 d6 bd 82 b5 d3 bd
       -0.10436719 0.043680403 -0.104717284 -0.10337354
000380 da a7 16 3e 2d 8d e1 3d e7 ee f0 bd df 8a 19 bd
       0.14712468 0.11013255 -0.11764317 -0.037485953
000390 50 5c 9b 3d 25 d1 01 be 26 84 95 bd b3 26 af 3c
       0.075859666 -0.12677439 -0.07300596 0.021380758
0003a0 71 65 27 3e 61 6b 0a 3e 48 46 ca bd f2 c2 23 3a
       0.1634729 0.13517524 -0.09876686 0.00062470057
0003b0 31 7b db bc 20 06 bf 3d 35 97 1c 3e 69 60 db bd
       -0.02679214 0.0932734 0.15292056 -0.10711748
0003c0 10 cf 6d 3b 92 d3 bb 3c ac a9 0e be 22 b0 36 bd
       0.003628675 0.022928033 -0.13931912 -0.044601567
0003d0 64 bc 0d 3e 98 ad b5 bc 96 5c 4f 3d d1 4f 7f 3c
       0.13841397 -0.022177503 0.050625406 0.015582995
0003e0 e8 c0 2e 3e 20 d3 11 bd e4 2a 19 be 17 b5 24 3e
       0.17065775 -0.035601735 -0.14957768 0.16084705
0003f0 29 42 01 3e 46 e8 88 3d e5 a4 02 3e da 21 32 3e
       0.12622894 0.06684928 0.12758215 0.17395726
