checkpoints/hydroxylation_agent.pt (torch, 35568 bytes, 3 tensors)

classifier.0.weight f4 [64, 128]
-0.08293414 0.009339681 0.15758683 0.02866823 -0.05265156 0.221763 0.046501394 -0.06301083
-0.107833825 0.19123413 -0.044473894 0.009792311 -0.0015343827 -0.0017224253 0.07498002 -0.029400686
-0.024977542 0.032741964 0.068402156 0.087158464 -0.012274245 -0.018435614 -0.057838745 -0.10320438
-0.05967488 0.0048447168 -0.038624626 0.008931636 0.0071146498 -0.03805767 0.020648409 -0.09632494
-0.08294281 0.08264779 0.107561775 0.002748183 -0.095249236 0.057228774 0.05667883 -0.0185895
0.040634077 -0.0072877347 -0.05234523 0.06561663 0.04556898 0.08715217 0.085606396 -0.057429317
-0.019756919 -0.07069884 0.0038989645 -0.01533146 0.09229716 -0.038861744 0.1506272 0.037828296
-0.14445484 0.010719108 -0.005779989 0.04921313 0.041118823 -0.08034974 0.025807284 0.106944755
0.021191621 -0.11488339 0.07275546 -0.037811816 0.010838234 -0.012059976 0.10470342 0.021458348
-0.008953326 0.02207436 0.23381035 0.021750607 0.09218635 0.0975352 0.018421495 -0.068751186
0.025350522 -0.025251048 0.008790044 0.059085183 -0.097204365 -0.10609475 0.047997713 -0.014207886
-0.050123874 -0.09023138 0.10492389 -0.07199994 0.059163805 0.012563892 -0.13228478 -0.0773314
-0.038087033 0.09228518 -0.032344732 -0.06541036 -0.118330054 0.052485373 0.035349954 -0.12554663
0.050235122 -0.050005615 0.04934766 -0.0627981 0.024531117 0.046615247 0.031030217 0.12827705
-0.051284205 -0.06453379 0.07171748 -0.09093637 -0.02560606 0.045053657 0.026332669 0.045852944
-0.019141477 0.072972134 -0.045663442 0.05322713 -0.06354782 0.12138664 -0.115062356 0.05604255
-0.0915911 -0.116021916 0.044004835 -0.08078005 0.011353374 -0.046212368 0.055298623 0.022316461
-0.015629986 0.16723858 -0.013708045 0.07814208 0.08535747 -0.08987096 -0.07386116 0.07259874
-0.0030877898 0.07442777 0.13497713 0.13617146 0.10789144 0.11767095 0.0397799 -0.063485794
-0.08477486 -0.0035847472 0.009203423 0.09182334 0.07463951 0.044669114 0.017181009 0.005753181
-0.15644343 0.009512138 -0.044753317 0.064423375 0.024596373 0.02106924 0.11402731 -0.00262497
0.13982733 -0.06385218 0.048283037 -0.0123186195 0.16846265 0.006020065 -0.033196222 -0.150445
-0.07627278 -0.03666967 -0.026971268 0.049052812 0.021565318 -0.13770698 0.06610632 0.034638993
-0.001974403 0.09978419 0.125804 0.01812137 -0.028107127 -0.0030242342 0.06778287 0.0976197
0.0020136181 -0.13235402 0.014582136 -0.048736475 0.11202675 0.08840338 0.076591484 0.0067291013
-0.082824506 -0.058415063 0.1616679 -0.09435354 -0.0035087967 0.017716115 0.017826742 0.041090563
-0.06866527 -0.037963353 -0.031746525 -0.0019447451 -0.08021189 -0.08091763 0.0018501714 0.008082237
0.10437822 -0.0084063215 0.053053595 -0.11367324 -0.031436015 0.05442512 -0.23480232 -0.022971764
-0.06646278 -0.02635312 -0.09437255 -0.006157385 -0.17434391 0.01946173 0.003470917 0.067596234
0.065068714 0.027014136 -0.06371267 0.018394286 -0.10315129 -0.12255096 0.09752348 0.026275257
-0.09686629 -0.10685272 0.045677505 -0.14060865 -0.015564585 0.048702076 0.08863993 0.0133347185
-0.006150283 -0.05407572 -5.147553e-05 0.005536646 0.01280553 0.022363242 -0.004422615 0.028449308
00000000: 60d9 a9bd 7605 193c 715e 213e a3d9 ea3c
00000010: 2aa9 57bd d715 633e 3f78 3e3d d20b 81bd
00000020: fbd7 dcbd e1d2 433e 422a 36bd ee6f 203c
00000030: 571d c9ba 01c3 e1ba 208f 993d b5d9 f0bc
00000040: b49d ccbc 701c 063d 6e16 8c3d 2380 b23d
00000050: ea19 49bc 4906 97bc 52e8 6cbd d15c d3bd
00000060: a66d 74bd 6ec0 9e3b db34 1ebd ff55 123c
00000070: 0222 e93b 5ce2 1bbd da26 a93c 0346 c5bd
00000080: ecdd a9bd 3f43 a93d 5949 dc3d dc1a 343b
00000090: 0812 c3bd b868 6a3d 1028 683d 0249 98bc
000000a0: eb6f 263d f3cd eebb f467 56bd 0362 863d
000000b0: 8aa6 3a3d d67c b23d 6852 af3d 013b 6bbd
000000c0: 43d9 a1bc 8eca 90bd c585 7f3b ce30 7bbc
000000d0: 4b06 bd3d 7e2d 1fbd 043e 1a3e d8f1 1a3d
000000e0: f8eb 13be 339f 2f3c 1066 bdbb b593 493d
000000f0: 366c 283d 688e a4bd cc69 d33c da05 db3d
00000100: 0d9a ad3c fc47 ebbd d100 953d 90e0 1abd
00000110: d992 313c 3597 45bc bf6e d63d 6bc9 af3c
00000120: f9b0 12bc 4ad5 b43c fb6b 6f3e 542e b23c
00000130: 32cc bc3d 89c0 c73d ade8 963c 6ccd 8cbd
00000140: e6ab cf3c 49db cebc 1e04 103c 4e03 723d
00000150: 1513 c7bd 3448 d9bd 4099 443d 31c8 68bc
00000160: b14e 4dbd 3bcb b8bd 56e2 d63d b474 93bd
00000170: bf55 723d c8d8 4d3c a975 07be ed5f 9ebd
00000180: 2601 1cbd 0300 bd3d e97b 04bd def5 85bd
00000190: 0757 f2bd e7fa 563d 1dcb 103d 4c8f 00be
000001a0: 58c3 4d3d b0d2 4cbd c620 4a3d 4a9c 80bd
000001b0: 7bf5 c83c a1ef 3e3d 1533 fe3c 0f5b 033e
000001c0: 630f 52bd 4b2a 84bd 9de0 923d d93c babd
000001d0: cdc3 d1bc 2f8a 383d 9cb7 d73c 4cd0 3b3d
000001e0: 96ce 9cbc 6a72 953d 9709 3bbd b104 5a3d
000001f0: 5c25 82bd 8f99 f83d d0a5 ebbd df8c 653d
00000200: 1d94 bbbd e69c edbd 6a3e 343d 0370 a5bd
00000210: 8103 3a3c 2e49 3dbd cf80 623d 03d1 b63c
00000220: 750a 80bc 9740 2b3e b597 60bc f408 a03d
00000230: e6cf ae3d 440e b8bd 8544 97bd a6ae 943d
00000240: 845c 4abb 966d 983d 7237 0a3e 8870 0b3e
00000250: 30f6 dc3d 78fd f03d 40f0 223d d704 82bd
00000260: 719e adbd 14ee 6abb f4c9 163c e00d bc3d
00000270: 99dc 983d f6f6 363d 30bf 8c3c 2e85 bc3b
00000280: b532 20be ccd8 1b3c 414f 37bd 67f0 833d
00000290: 557e c93c 6699 ac3c 2687 e93d b007 2cbb
000002a0: e52e 0f3e efc4 82bd 6fc4 453d 09d4 49bc
000002b0: 7981 2c3e f743 c53b c3f8 07bd 410e 1abe
000002c0: e734 9cbd f032 16bd d9f2 dcbc 9aeb 483d
000002d0: c0a9 b03c 0f03 0dbe c062 873d 9ee1 0d3d
000002e0: fc64 01bb a75b cc3d c4d2 003e 4473 943c
000002f0: eb40 e6bc 3b32 46bb bfd1 8a3d d6ec c73d
00000300: e8f6 033b d087 07be e9e9 6e3c e69f 47bd
00000310: 486e e53d d50c b53d ffdb 9c3d cb7f dc3b
00000320: e59f a9bd a244 6fbd 458c 253e 6e3c c1bd
00000330: d7f3 65bb 6321 913c 6309 923c 944e 283d
00000340: 61a0 8cbd 767f 1bbd a508 02bd d1e6 feba
00000350: 2246 a4bd 24b8 a5bd 7381 f23a 5c6b 043c
00000360: 40c4 d53d abba 09bc ba4e 593d 84cd e8bd
00000370: 0dc3 00bd e0ec 5e3d 0570 70be 482f bcbc
00000380: a31d 88bd 80e2 d7bc 6546 c1bd e4c3 c9bb
00000390: 3687 32be 356e 9f3c 5378 633b e56f 8a3d
000003a0: bf42 853d c04c dd3c ca7b 82bd 9daf 963c
000003b0: fc40 d3bd fffb fabd 64ba c73d 353f d73c
000003c0: d561 c6bd 99d5 dabd 5618 3b3d b7fb 0fbe
000003d0: 9a02 7fbc d47b 473d da88 b53d dd79 5a3c
000003e0: 5088 c9bb 817e 5dbd 6ee7 57b8 c16c b53b
000003f0: 49ce 513c 1e33 b73c 95eb 90bb 860e e93c

classifier.0.bias f4 [64]
0.08752494 0.07576302 0.073384225 -0.066197716 -0.09386282 0.02240495 0.043955207 -0.065661594
0.088983804 -0.081155315 0.07188048 0.026595194 0.04292476 0.05687929 0.03324447 -0.015535868
-0.06991812 -0.10130841 0.058865566 0.06913035 -0.019521723 -0.08279672 0.07126853 -0.007137312
-0.03319238 0.077070385 0.06505186 -0.006043262 0.06466451 0.09722589 -0.0032382754 0.07564256
0.019788262 0.11237873 0.1148836 0.02774243 -0.093558006 0.009342383 -0.0873287 0.0012514504
-0.013658998 0.11566071 0.09423594 -0.001377754 0.003946099 0.09619108 0.06849044 -0.066684395
-0.03536952 -0.02146224 0.02269391 0.024538068 0.0047846423 -0.027090417 0.06329439 0.023355493
0.062147845 0.10445877 0.049323168 0.12571198 -0.010314339 0.08156871 0.0051418925 0.011441591
00000000: 4740 b33d a429 9b3d 784a 963d ab92 87bd
00000010: 263b c0bd 968a b73c 600a 343d 9679 86bd
00000020: 243d b63d c234 a6bd 1336 933d 2ade d93c
00000030: e0d1 2f3d 42fa 683d 5a2b 083d 278a 7ebc
00000040: 3b31 8fbd c97a cfbd 051d 713d 3794 8d3d
00000050: 05ec 9fbc 5491 a9bd 3cf5 913d 1de0 e9bb
00000060: bcf4 07bd 14d7 9d3d e939 853d 8e06 c6bb
00000070: d46e 843d 5e1e c73d 3f39 54bb 7dea 9a3d
00000080: fe1a a23c d226 e63d 1848 eb3d 1844 e33c
00000090: 579b bfbd cb10 193c 64d9 b2bd b507 a43a
000000a0: fdc9 5fbc 86df ec3d c6fe c03d c195 b4ba
000000b0: 474e 813b d4ff c43d b744 8c3d d491 88bd
000000c0: a1df 10bd 94d1 afbc 94e8 b93c 0f04 c93c
000000d0: 7dc8 9c3b b9ec ddbc 7da0 813d 0554 bf3c
000000e0: bd8e 7e3d 7bee d53d 1707 4a3d a4ba 003e
000000f0: 79fd 28bc 7f0d a73d 527d a83b 8375 3b3c

classifier.3.weight f4 [1, 64]
-0.04092404 -0.09799306 0.06212242 0.07138463 0.031171987 -0.05868323 -0.051495295 0.076367125
-0.14032637 0.17736694 -0.10084589 -0.11087689 -0.13428508 0.0036795447 0.034806743 -0.21459864
0.21681124 0.0740978 -0.097061925 -0.08995355 -0.121131524 0.18497019 0.0005883159 -0.06434547
-0.13372862 -0.16294813 0.031115659 -0.15986472 -0.043317925 -0.04407497 -0.14526905 0.04699251
0.10550156 -0.13756421 -0.044456396 -0.13541129 0.049485266 0.081986345 0.05277412 -0.15870996
-0.009554738 -0.15220764 -0.08484623 0.07009899 0.038083293 -0.1018146 -0.007547934 0.060447656
0.08674377 -0.07967663 -0.092976026 -0.10168878 -0.047330223 -0.097183645 -0.041345276 0.04565495
0.0043801973 -0.116229914 -0.08378087 -0.04886806 -0.013881024 -0.09402164 0.027457016 0.032120164
00000000: f79f 27bd 96b0 c8bd 1474 7e3d 1b32 923d
00000010: 655c ff3c d45d 70bd bbec 52bd 5e66 9c3d
00000020: b7b1 0fbe ae9f 353e 4a88 cebd 6c13 e3bd
00000030: 0782 09be 8424 713b 8491 0e3d bfbf 5bbe
00000040: c403 5e3e 96c0 973d 67c8 c6bd 9139 b8bd
00000050: ce13 f8bd d368 3d3e 3639 1a3a 8fc7 83bd
00000060: 28f0 08be e0db 26be 44e6 fe3c 94b3 23be
00000070: 236e 31bd f587 34bd 69c1 14be 387b 403d
00000080: 3411 d83d a2dd 0cbe e917 36bd 42a9 0abe
00000090: 10b1 4a3d 75e8 a73d ad29 583d dd84 22be
000000a0: 7a8b 1cbc 52dc 1bbe dcc3 adbd 0f90 8f3d
000000b0: 3afd 1b3d 2c84 d0bd a954 f7bb f697 773d
000000c0: b8a6 b13d 802d a3bd 376a bebd 3542 d0bd
000000d0: 56dd 41bd 3808 c7bd aa59 29bd af00 3b3d
000000e0: c287 8f3b f309 eebd 4e95 abbd e029 48bd
000000f0: 3c6d 63bc 6b8e c0bd 89ed e03c 6f90 033d
