checkpoints/integrator.pt (torch, 399080 bytes, 4 tensors)

attention_layer.0.weight f4 [128, 768]
0.015721701 -0.033761833 0.041073814 -0.0031187627 0.052410893 -0.006465838 0.027416365 -0.00762061
-0.031140381 0.012750459 0.01726477 0.012840877 -0.04509565 0.0034759475 0.033632208 0.005880647
0.014320432 -0.015349547 -0.0159516 0.000619344 -0.007077596 -0.04458629 -0.054608796 -0.045440733
-0.0006340708 0.048210677 0.0390528 0.009412894 0.039577913 -0.04369412 -0.004294923 -0.030705119
-0.048143163 0.0062288917 0.003077977 -0.0029192413 0.02725379 -0.016436294 0.021037713 0.023876205
0.03757332 -0.010646057 0.013224301 -0.0046344153 0.006290333 0.046365265 0.023626152 -0.0054948614
0.010659662 -0.038495857 -0.028097102 -0.05436544 -0.0043817298 -0.004300594 0.040217962 0.04448871
0.013215239 0.017700892 0.046178352 0.021251138 -0.0052157943 -0.009508497 0.0013567333 0.01339128
0.004523081 0.010565795 0.03571995 -0.05045713 0.01953192 0.024348594 -0.0126939835 0.014675256
0.03406547 0.049373847 -0.050112102 -0.03025084 -0.013865338 -0.013709099 -0.027741881 -0.034568895
-0.054617893 -0.027883466 0.037134316 -0.012516146 -0.0036248232 0.001035025 0.008230332 0.01908343
0.046313252 -0.038604483 0.03205825 -0.045617145 0.014501896 0.030785501 -0.018776253 0.004560053
0.0021794827 0.029486464 0.001689284 -0.017051186 0.015784265 0.019935822 -0.014189442 -0.040809263
0.025724761 -0.035517726 0.020846993 -0.041113935 -0.038748197 -0.014044716 0.027788863 -0.008379114
-0.04035306 -0.0055635506 0.05249803 -0.01103748 0.009220246 0.035183314 0.054412276 0.021996727
-0.00808217 0.039600357 -0.044140745 0.00888082 -0.04057529 -0.048405927 -0.01020377 -0.035539765
-0.019344581 -0.0072483835 0.028780375 0.03505953 0.021404175 -0.009363415 0.03978889 -0.026105786
-0.011063416 -0.012508566 -0.010986532 -0.053039845 -0.037761632 -0.018410653 0.006141437 -0.007962084
-0.0019714339 0.036048844 0.029280756 0.035136055 -0.0022328177 -0.011060195 -0.022094864 -0.026313143
-0.040212013 -0.027173989 -0.05238921 -0.008614013 0.023822822 0.0073815403 -0.033618554 0.02071908
-0.03701326 -0.0070011797 0.014701939 -0.0006149871 -0.0291643 -0.011817982 0.013524853 -0.022612017
-0.009614967 -0.0071088797 0.010330564 -0.0061720302 -0.011918737 0.027225887 0.036337458 0.0029680242
0.03491359 -0.0511025 0.042689074 -0.010444017 -0.0017965594 -0.022645209 -0.0052100886 -0.014387877
-0.02034421 0.00029046077 -0.012500106 0.02947071 -0.046560977 -0.024883483 -0.0009943616 -0.01735074
-0.016139418 -0.005060095 -0.008121858 -0.031007454 0.04408969 -0.00848156 0.016020436 0.0034252976
-0.007167548 -0.0051693814 -0.009057812 0.014639465 -0.044965316 0.009762838 0.016494272 -0.03894035
-0.03965419 0.0023066148 -0.015383353 -0.004711357 -0.025893267 -0.03770975 0.04165482 0.021384938
0.022155115 -0.039166126 0.031334165 -0.030632352 0.0035999427 0.029104186 -0.02272174 0.020031206
0.007760984 -0.020304425 -0.046066742 -0.0011397253 0.0070365896 0.0063988874 -0.043289397 -0.029483026
0.0043992847 0.013781713 -0.01030215 0.047394767 0.016407961 0.01650943 -0.015620897 0.03130122
-0.027521437 0.05429096 -0.0049812444 0.0066412324 0.027868135 0.0009683316 -0.022207314 -0.004643234
0.017119328 -0.04571074 -0.0344824 -0.033364963 0.030053344 0.04849628 0.007083636 -0.030814933
00000000: ccca 803c d949 0abd 043d 283d 2864 4cbb
00000010: ceac 563d 61df d3bb 4998 e03c 4fb6 f9bb
00000020: 1d1a ffbc 4de7 503c d96e 8d3c 8b62 523c
00000030: 37b6 38bd b9cc 633b edc1 093d 71b2 c03b
00000040: 3fa0 6a3c ab7c 7bbc eeac 82bc 795b 223a
00000050: 2eeb e7bb 1da0 36bd 79ad 5fbd 1020 3abd
00000060: c537 26ba 8f78 453d d4f5 1f3d 8a38 1a3c
00000070: 731c 223d 9bf8 32bd 6dbc 8cbb 4d89 fbbc
00000080: c431 45bd bb1b cc3b e3b7 493b be50 3fbb
00000090: 5743 df3c 68a5 86bc 4857 ac3c 0898 c33c
000000a0: 7be6 193d cd6c 2ebc bdaa 583c 4bdc 97bb
000000b0: 231f ce3b 81e9 3d3d a28b c13c 3d0e b4bb
000000c0: dda5 2e3c d5ad 1dbd e52b e6bc 4cae 5ebd
000000d0: 9d94 8fbb ffeb 8cbb 97bb 243d cb39 363d
000000e0: bb84 583c 7601 913c 8325 3d3d de16 ae3c
000000f0: 41e9 aabb 87c9 1bbc 6ad4 b13a 1967 5b3c
00000100: 5a36 943b 281c 2d3c 154f 123d 23ac 4ebd
00000110: 6801 a03c b476 c73c 6dfa 4fbc 7c70 703c
00000120: 3c88 0b3d 3b3c 4a3d 5942 4dbd 9cd0 f7bc
00000130: 712b 63bc 219c 60bc f142 e3bc 1d98 0dbd
00000140: 03b7 5fbd de6b e4bc 271a 183d 8510 4dbc
00000150: 718e 6dbb ada9 873a 84d8 063c da54 9c3c
00000160: f7b2 3d3d bc1f 1ebd 834f 033d 0bd9 3abd
00000170: 5c99 6d3c e031 fc3c a8d0 99bc 7f6c 953b
00000180: a7d5 0e3b 998d f13c f76a dd3a eeae 8bbc
00000190: 014e 813c 7350 a33c d57a 68bc 9d27 27bd
000001a0: bcbc d23c 097b 11bd 50c7 aa3c 1667 28bd
000001b0: 6eb6 1ebd cf1b 66bc 78a5 e33c 8d48 09bc
000001c0: 4049 25bd 724e b6bb 2d08 573d 8cd6 34bc
000001d0: 8410 173c 611c 103d 68df 5e3d 7b32 b43c
000001e0: 146b 04bc fc33 223d edcc 34bd dc80 113c
000001f0: 4632 26bd 4b45 46bd b72d 27bc 2592 11bd
00000200: 8778 9ebc d983 edbb d2c4 eb3c 959a 0f3d
00000210: cf57 af3c 0269 19bc adf9 223d cddb d5bc
00000220: 5443 35bc baf0 4cbc db00 34bc 4f40 59bd
00000230: f1ab 1abd f0d1 96bc 1c3e c93b 6773 02bc
00000240: 2c33 01bb f4a7 133d 32de ef3c d3ea 0f3d
00000250: 7754 12bb d235 35bc 4a00 b5bc a98e d7bc
00000260: 5ab5 24bd fc9b debc 1196 56bd ca21 0dbc
00000270: 1428 c33c d9e0 f13b 9cb3 09bd 0fbb a93c
00000280: 379b 17bd 276a e5bb 67e0 703c 1637 21ba
00000290: f8e9 eebc 36a0 41bc 5897 5d3c d63c b9bc
000002a0: 1888 1dbc 9bf1 e8bb 8741 293c be3e cabb
000002b0: ce46 43bc d308 df3c 96d6 143d 2f83 423b
000002c0: 8d01 0f3d db50 51bd bdda 2e3d 621d 2bbc
000002d0: 887a ebba 7282 b9bc 64b9 aabb 21bb 6bbc
000002e0: e7a8 a6bc fc48 9839 3fcd 4cbc 8f6c f13c
000002f0: b9b6 3ebd 72d8 cbbc 3d55 82ba 2423 8ebc
00000300: d036 84bc 27cf a5bb 8b11 05bc 5803 febc
00000310: 6497 343d 3ef6 0abc 4a3d 833c f57a 603b
00000320: c0dd eabb ea63 a9bb 3867 14bc 5eda 6f3c
00000330: 8d2d 38bd 4ff4 1f3c ff1e 873c eb7f 1fbd
00000340: 6f6c 22bd 932a 173b 760a 7cbc ba61 9abb
00000350: 1e1e d4bc 8a75 1abd 3f9e 2a3d 772f af3c
00000360: a57e b53c a96c 20bd 4158 003d b3f0 fabc
00000370: 04ed 6b3b e76b ee3c f122 babc 7c18 a43c
00000380: da4f fe3b 7755 a6bc 7bb0 3cbd d662 95ba
00000390: 3193 e63b c2ad d13b 3950 31bd 6386 f1bc
000003a0: e027 903b b2cc 613c 59ca 28bc 0421 423d
000003b0: fd69 863c c93e 873c caee 7fbc b535 003d
000003c0: a374 e1bc 3360 5e3d b539 a3bb b29e d93b
000003d0: b74b e43c a2d7 7d3a 1dec b5bc 4526 98bb
000003e0: d53d 8c3c 2f3b 3bbd 6b3d 0dbd b3a9 08bd
000003f0: 6e32 f63c 09a4 463d d81d e83b 996f fcbc

attention_layer.0.bias f4 [128]
0.04414541 -0.0088055525 0.017457189 0.023078501 0.020325834 0.026869163 0.0033960629 0.003071974
-0.005407893 0.0034313072 0.008549382 0.00461234 0.022689804 0.026710467 0.01366147 0.01929055
-0.0029859198 -0.005781117 -0.029777959 -0.007501796 0.0011151051 -0.0127599705 0.0033489845 -0.010895845
0.012731326 0.009592085 0.033460114 -0.000867418 0.0021502015 0.02348229 0.01233024 0.0038685035
-0.01905626 -0.04298613 0.026760934 0.010949515 0.024887407 -0.028554855 -0.0010032157 0.002676157
0.037622686 -0.030150417 0.0154282935 0.0028052367 -0.002361802 0.01667082 0.051432412 0.012407113
-0.013045957 0.017763384 -0.023333598 -0.032978766 -0.012374338 0.05377289 0.04265886 -0.019479586
0.003125746 0.012438239 -0.028431734 -0.024380898 -0.042565983 -0.02075938 0.021783829 -0.0059551685
-0.012334571 -0.04324187 -0.0060769203 -0.030427802 -0.015611395 0.005187986 0.03678437 0.05467894
0.013628665 0.018311443 -0.01868606 -0.011264703 0.028905742 0.010323173 0.018792378 0.019321486
-0.035979617 -0.035693392 0.045443114 0.03870971 -0.0065783397 -0.020723319 0.0106151765 0.015033404
-0.02920596 0.02500591 -0.0051400145 -0.016226117 -0.0027999643 -0.030130904 0.04904677 0.017227782
-0.004717804 0.011874112 -0.03283903 0.0007792125 0.015540267 0.012529401 0.022362242 -0.031577423
0.0040982096 -0.020686315 -0.0058784937 -0.003217877 -0.01870688 -0.010226467 0.043872323 -0.0026870067
-0.020433867 -0.01708142 0.004247108 0.04240957 -0.026592568 0.00928382 0.010024624 0.020887865
-0.0059891785 0.009325363 0.048499502 0.036163155 0.009657277 0.011512895 0.0149270715 0.01761021
00000000: d1d1 343d 2a45 10bc 6102 8f3c 200f bd3c
00000010: 5d82 a63c b81c dc3c 7b90 5e3b 2c53 493b
00000020: b234 b1bb c8df 603b b512 0c3c 1d23 973b
00000030: f8df b93c e9cf da3c 5cd4 5f3c 3707 9e3c
00000040: 6caf 43bb 866f bdbb e8f0 f3bc a0d1 f5bb
00000050: b828 923a 320f 51bc a37a 5b3b 7c84 32bc
00000060: 0d97 503c 1f28 1d3c 790d 093d 7063 63ba
00000070: 65ea 0c3b ee5d c03c c604 4a3c b886 7d3b
00000080: e01b 9cbc 3912 30bd bf39 db3c 9865 333c
00000090: ade0 cb3c dfeb e9bc 557e 83ba 7762 2f3b
000000a0: 3f1a 1a3d 02fe f6bc f4c6 7c3c 10d8 373b
000000b0: 76c8 1abb 3e91 883c cbaa 523d 3447 4b3c
000000c0: b6be 55bc 8484 913c 1a26 bfbc be14 07bd
000000d0: bcbd 4abc f640 5c3d 0fbb 2e3d a793 9fbc
000000e0: 51d9 4c3b c1c9 4b3c abe9 e8bc 73ba c7bc
000000f0: ab59 2ebd 930f aabc 0074 b23c 9323 c3bb
00000100: f116 4abc 631e 31bd e720 c7bb ba43 f9bc
00000110: f0c6 7fbc fbff a93b 35ab 163d 06f7 5f3d
00000120: c44a 5f3c e101 963c 8213 99bc 978f 38bc
00000130: bccb ec3c 8722 293c 79f2 993c 1848 9e3c
00000140: 5d5f 13bd 3c33 12bd 8f22 3a3d 138e 1e3d
00000150: 1d8f d7bb f3c3 a9bc 47eb 2d3c ab4e 763c
00000160: 5641 efbc 32d9 cc3c 916d a8bb a2ec 84bc
00000170: 9b7f 37bb 16d5 f6bc 44e5 483d 4721 8d3c
00000180: cf97 9abb a38b 423c 3882 06bd 1144 4c3a
00000190: 9b9c 7e3c 1e48 4d3c 0531 b73c 5457 01bd
000001a0: 464a 863b 5976 a9bc 61a0 c0bb 04e3 52bb
000001b0: 2c3f 99bc e98c 27bc 77b3 333d 7e18 30bb
000001c0: ed64 a7bc 56ee 8bbc 532b 8b3b a8b5 2d3d
000001d0: a8d8 d9bc 2a1b 183c 523e 243c 071d ab3c
000001e0: df40 c4bb 68c9 183c 6aa7 463d d11f 143d
000001f0: 8e39 1e3c 95a0 3c3c ad90 743c 4a43 903c

attention_layer.2.weight f4 [6, 128]
0.0852717 0.017679118 -0.07440047 -0.01626548 -0.012841416 0.07298367 -0.002961772 0.024198214
-0.04169929 -0.07477027 -0.025764206 0.0003301552 0.023960141 -0.053842638 0.047331143 -0.012324637
0.08201244 -0.023280043 -0.05398105 -0.008713956 0.046497297 0.096047126 -0.01861129 0.02758881
-0.0053337836 -0.0026662126 0.011846921 -0.040534742 0.024958642 -0.030563729 -0.04920081 -0.017353332
-0.0045514028 0.0064980118 0.07037653 -0.062045977 0.05933061 -0.010127444 0.09439542 -0.06682393
0.037798855 -0.022598943 -0.050761648 -0.04114381 0.04390352 0.08746747 0.06636641 -0.0008593958
-0.041419957 0.06302296 -0.067294136 -0.045363776 0.03608625 0.08142914 0.083629094 0.018692631
-0.07513326 0.031196496 -0.04509308 0.026148837 -0.040908046 0.03659552 -0.024883889 -0.02165845
0.014885327 -0.062681854 0.03242662 -0.037050713 -0.027091203 0.08428447 0.055277947 0.04153089
0.028354313 -0.06799712 0.087814875 0.06586043 0.099226736 0.02162539 0.009627666 0.04728614
-0.029628327 -0.0016637399 0.022657845 0.081558 0.08539647 -0.011943459 0.03197271 0.07044065
-0.058213376 0.012008533 0.03648135 0.07266946 -0.061980415 -0.0028282811 0.09764344 0.034338925
0.07323494 0.024058726 -0.07588304 -0.04479288 0.07590092 0.0130183 0.042374495 0.028503554
0.08283374 -0.024910193 0.078745164 0.09842066 0.040020697 -0.007726213 0.06825054 -0.06166798
-0.07462648 0.004534664 0.03521636 0.07834588 -0.051916797 0.037153784 0.027496306 -0.03190885
0.08374719 -0.001119122 0.09466856 0.10423597 0.053966075 -0.052123297 -0.019673979 -0.009669946
-0.08053597 0.0752072 -0.058271646 0.07346647 -0.030930717 -0.029538697 -0.005387213 -0.038209435
0.04591048 0.00371856 0.028773312 -0.030818794 -0.0017498501 0.001480279 0.035441373 -0.03220785
0.074651174 -0.035529986 0.066543125 0.08542792 -0.0025186168 -0.09163233 0.051757846 0.03282924
-0.0457663 -0.077174924 -0.015717408 0.060613085 -0.010441598 -0.042388316 0.0129337795 0.04248941
-0.005275018 0.002925205 -0.011931074 -0.06119252 -0.0018354482 -0.05136015 0.07432171 -0.040902175
-0.023229975 0.08112046 0.077832475 0.04348525 0.06936467 0.07324693 0.026689187 -0.017390853
-0.03902648 0.0072417352 0.030897856 0.028787557 -0.0735631 -0.042334467 -0.057453535 -0.013285363
-0.010798114 0.03988647 0.036092408 0.02586891 0.048255607 0.037852824 0.081467815 0.023961939
0.009539841 0.0717536 0.059257295 0.050722856 -0.015095095 -0.017089577 0.04282472 0.0023621581
-0.06264267 -0.009978516 -0.047057554 -0.050054897 0.06390844 -0.057584055 0.027994817 -0.027143696
-0.0055012116 0.032285918 0.059267987 0.003671202 -0.012401616 -0.06569461 0.043282732 -0.06363543
-0.06912654 0.063877 0.044552818 -0.03637997 -0.081968516 -0.070778556 0.0030854768 -0.06358164
0.00028100083 0.036297742 0.08269098 -0.011357248 0.04263292 0.07529488 0.005057573 -0.03775441
0.059204075 -0.0071728956 0.06998078 -0.0028394044 0.024829386 0.066679895 -0.062453024 -0.06276047
-0.015979875 0.003880392 -0.0024319582 0.03855259 0.0016197065 0.03644499 0.077065654 -0.044603966
0.045978367 0.04024545 -0.014416889 0.06522245 -0.07906318 -0.041473333 0.09001621 -0.043438774
00000000: eea2 ae3d ccd3 903c 465f 98bd 2f3f 85bc
00000010: cd64 52bc 7678 953d 4a1a 42bb 553b c63c
00000020: e0cc 2abd 2821 99bd 750f d3bc ae18 ad39
00000030: 0f48 c43c 198a 5cbd 4dde 413d 46ed 49bc
00000040: 23f6 a73d cab5 bebc 3c1b 5dbd fbc4 0ebc
00000050: f373 3e3d 5bb4 c43d b476 98bc ee01 e23c
00000060: 05c7 aebb a0bb 2ebb 9719 423c c207 26bd
00000070: 1176 cc3c c960 fabc ca86 49bd 9328 8ebc
00000080: ef23 95bb 46ed d43b 9221 903d ec23 7ebd
00000090: a704 733d 94ed 25bc 6352 c13d fcda 88bd
000000a0: f9d2 1a3d 6b21 b9bc 72eb 4fbd 6986 28bd
000000b0: 2dd4 333d 2522 b33d 1deb 873d 1349 61ba
000000c0: f9a7 29bd 2f12 813d 82d1 89bd 5ecf 39bd
000000d0: 2dcf 133d 52c4 a63d bb45 ab3d 4a21 993c
000000e0: 77df 99bd cb8f ff3c 85b3 38bd 1636 d63c
000000f0: 328f 27bd 2fe5 153d 4cd9 cbbc 106d b1bc
00000100: 96e1 733c 585f 80bd c7d1 043d 7dc2 17bd
00000110: 5fee ddbc 569d ac3d 216b 623d 4b1c 2a3d
00000120: 4e47 e83c 1342 8bbd 49d8 b33d d5e1 863d
00000130: 6337 cb3d bb27 b13c 5cbd 1d3c 1daf 413d
00000140: 1bb7 f2bc d911 daba f29c b93c e107 a73d
00000150: 58e4 ae3d 7fae 43bc d1f5 023d 3043 903d
00000160: 2671 6ebd 70bf 443c 786d 153d bad3 943d
00000170: 2ddf 7dbd af5a 39bb 49f9 c73d f9a6 0c3d
00000180: 33fc 953d ce16 c53c 9168 9bbd bd78 37bd
00000190: f171 9b3d b54a 553c e190 2d3d 4980 e93c
000001a0: bca4 a93d 7610 ccbc 2545 a13d c590 c93d
000001b0: beec 233d 2c2c fdbb f0c6 8b3d 9097 7cbd
000001c0: c5d5 98bd 8597 943b 083f 103d ce73 a03d
000001d0: b5a6 54bd 912e 183d ef3f e13c dbb2 02bd
000001e0: a683 ab3d 81af 92ba 97e1 c13d ab79 d53d
000001f0: 880b 5d3d 3d7f 55bd 532b a1bc b16e 1ebc
00000200: 0bf0 a4bd 3c06 9a3d 40ae 6ebd 9775 963d
00000210: 6a62 fdbc 23fb f1bc 3887 b0bb 7f81 1cbd
00000220: a10c 3c3d 16b3 733b 02b6 eb3c b277 fcbc
00000230: 3a5b e5ba ec05 c23a f92a 113d 61ec 03bd
00000240: b7e2 983d e487 11bd c347 883d d5f4 ae3d
00000250: 610f 25bb bba9 bbbd 0900 543d f477 063d
00000260: 7275 3bbd e30d 9ebd cbc1 80bc 6d45 783d
00000270: 3c13 2bbc 5f9f 2dbd 34e8 533c 6009 2e3d
00000280: 0fda acbb ccb4 3f3b 8d7a 43bc 02a5 7abd
00000290: 6c93 f0ba 055f 52bd fb35 983d 0a89 27bd
000002a0: ca4c bebc 7c22 a63d a266 9f3d 971d 323d
000002b0: 100f 8e3d 7d02 963d 48a3 da3c 4377 8ebc
000002c0: 3bda 1fbd 144c ed3b 801d fd3c e2d3 eb3c
000002d0: 40a8 96bd e866 2dbd 6654 6bbd daaa 59bc
000002e0: 93ea 30bc ff5f 233d a2d5 133d 09eb d33c
000002f0: aca7 453d 900b 1b3d 99d8 a63d d44b c43c
00000300: fe4c 1c3c 8df3 923d c7b7 723d c5c2 4f3d
00000310: 6b51 77bc 71ff 8bbc f968 2f3d 70ce 1a3b
00000320: cd4a 80bd ee7c 23bc 6cbf 40bd 5d06 4dbd
00000330: 6ee2 823d 42dd 6bbd 6355 e53c 755c debc
00000340: 8243 b4bb 3d3e 043d fdc2 723d 8d98 703b
00000350: 2630 4bbc e58a 86bd 3c49 313d 4b53 82bd
00000360: 3792 8dbd f2d1 823d 047d 363d 2a03 15bd
00000370: 1cdf a7bd 59f4 90bd b635 4a3b 1737 82bd
00000380: 4b53 9339 f1ac 143d e359 a93d c013 3abc
00000390: db9f 2e3d 3434 9a3d ffb9 a53b 5ea4 1abd
000003a0: f97f 723d 9c0a ebbb 1552 8f3d 4d15 3abb
000003b0: ff66 cb3c 788f 883d bece 7fbd 9088 80bd
000003c0: 3ae8 82bc 2d4e 7e3b 7d61 1fbb 52e9 1d3d
000003d0: 554c d43a 5847 153d 99d4 9d3d a6b2 36bd
000003e0: d053 3c3d 6ad8 243d d134 6cbc 5993 853d
000003f0: e0eb a1bd f1df 29bd 6b5a b83d dbec 31bd

attention_layer.2.bias f4 [6]
0.010396268 -0.08735963 -0.06483956 -0.0042456808 -0.07839894 0.048545867
00000000: 1c55 2a3c 9be9 b2bd 9aca 84bd 5a1f 8bbb
00000010: a08f a0bd 08d8 463d
