checkpoints/methylation_agent.pt (torch, 35552 bytes, 3 tensors)

classifier.0.weight f4 [64, 128]
000000 86 5a d2 3b 34 5e 79 bb 2a d7 93 bd 01 92 67 bd
       0.0064194826 -0.0038050534 -0.07218774 -0.056535725
000010 17 38 92 3d e4 df ff bc 92 5d b5 bd c6 c5 43 bd
       0.071396045 -0.031234689 -0.08855738 -0.047796033
000020 49 cd e4 3c fb 5b 00 bd e9 09 6a bd fe 42 08 bd
       0.027929919 -0.03133772 -0.057138357 -0.033267014
000030 7a cf 5a 3c b2 82 70 bb 85 7a 67 bc 39 9d 2d 3d
       0.01335513 -0.0036698994 -0.014128332 0.042386267
000040 8d 10 2c 3a a2 b5 9e bd c5 4b 23 3d 78 fe 87 bd
       0.00065637456 -0.077494875 0.03986718 -0.06640333
000050 07 39 4c 3c 81 43 bd 3c 82 1a 01 bd 72 d5 1c bc
       0.012464768 0.023103477 -0.03151942 -0.009572374
000060 6a e7 b8 bc db 8c 98 bd 00 a6 6c bd 86 73 dc 3c
       -0.022571284 -0.07448741 -0.057775497 0.026910555
000070 7a cf 97 bd a9 7b 8f 3d 20 61 5e bd a1 ed 9d bc
       -0.0741262 0.07006008 -0.054291844 -0.01927835
000080 01 23 3a 3c c9 0d 27 bd 7b e2 02 3d 51 c1 10 bc
       0.011360885 -0.04078463 0.03195427 -0.008835153
000090 6d 69 ac 3d f5 65 c7 3d 7c 2b 74 bd 79 68 18 bd
       0.08418546 0.09736244 -0.059611782 -0.037209008
0000a0 ee 4b 56 3c ab ae 82 bc 4b 51 28 3d dd e5 38 3d
       0.0130796265 -0.015952429 0.041093152 0.04514109
0000b0 70 2a 4f 3d 9f 6c 89 bd c7 a8 d4 bd 5d b7 a2 3d
       0.05057758 -0.06710171 -0.10383754 0.0794513
0000c0 5c 22 e8 3c 53 ca 7c bd 6f 9f b2 bd 63 c5 69 bc
       0.028336696 -0.06171639 -0.08721816 -0.014268252
0000d0 53 56 76 bd c1 39 7d bc cc e7 2f bd 74 31 b2 bd
       -0.06014092 -0.015455664 -0.042945668 -0.08700839
0000e0 33 33 54 bd 20 b1 68 3b 9f 5f 5a 3d 76 d5 55 bd
       -0.05180664 0.0035505965 0.053313848 -0.052205525
0000f0 17 ea 35 bd f0 41 6c 3d ed 79 0d 3c 9b 39 ad ba
       -0.0444127 0.05768007 0.008635026 -0.001321602
000100 b4 36 42 bc e1 38 e8 3c f6 58 b5 bc 65 38 08 bd
       -0.011853863 0.028347434 -0.022137146 -0.033256907
000110 d6 90 82 3d bb 58 a3 3b b5 4e 1e 3d bb 93 70 3d
       0.063752815 0.0049849427 0.03864928 0.058734637
000120 14 c1 6d bc 62 b6 87 bd 09 fc 26 3d be 3e 53 3d
       -0.014511365 -0.06626584 0.040767703 0.051573507
000130 3f 31 60 3c 32 d7 3b bc 00 93 f6 3c 38 88 fc bc
       0.013683616 -0.011464881 0.030099392 -0.030826673
000140 99 49 99 3d a1 8e b2 3c 3b e2 dd 3a c4 4a 1e 3d
       0.07484741 0.021796526 0.0016928384 0.03864552
000150 8d 78 6f bd 01 d1 d1 3d c7 0e c6 bc 23 4c aa 3c
       -0.058464576 0.102449425 -0.024176968 0.020788258
000160 d5 be b7 3c 57 0b e9 3c 03 c8 3a 3d d7 40 2a 3c
       0.022429863 0.02844779 0.045600902 0.010391436
000170 df 1c 48 3d 19 48 96 bd 67 c5 80 bd 51 cb 27 3c
       0.04885566 -0.0733797 -0.062876515 0.0102413455
000180 4f 66 41 3d 6d 56 8e bd 25 33 61 bd 15 63 10 3a
       0.04721671 -0.06950078 -0.054980416 0.00055079284
000190 ed e9 8b 3d 5f 5e 5a 3d c9 34 c3 bc 79 73 75 3d
       0.06831727 0.053312656 -0.02382888 0.059924576
0001a0 02 05 b1 3c 62 f5 69 3c 28 86 e2 bb 8b 54 32 3d
       0.021608833 0.014279695 -0.0069129653 0.043537658
0001b0 0e 66 bf 3c 51 01 a9 3c c8 ff 89 bd ca 4f 2b bd
       0.023364093 0.02063051 -0.067382395 -0.04182414
0001c0 2e 93 68 3d 5d 30 52 bd af c0 91 3d 67 ae a0 bb
       0.056780986 -0.051315654 0.071168296 -0.004903603
0001d0 2b ff ab 3b 63 3a 5c 3d b9 5b 8c 3b af 97 87 bd
       0.0052489243 0.05376662 0.004283395 -0.06620728
0001e0 60 27 c4 bd 52 3e 4a 3d 2d 5b f1 3c 49 86 26 3d
       -0.09577823 0.04937584 0.029462421 0.040655408
0001f0 4a 45 ca 3d 0a 47 bd bd 0b ea 6d 3d bf cd 1a 3b
       0.09876497 -0.09242065 0.05808453 0.002362117
000200 50 7a 63 3d 0b b4 6e 3d 58 7c 9b bc 84 33 77 3c
       0.05553657 0.05827717 -0.01898019 0.015087966
000210 ed a7 34 bd 1e bf b7 3c 5d e7 56 3d 65 bc bf 3d
       -0.04410546 0.022429999 0.05246674 0.09362105
000220 d3 e0 4a 3d f7 e6 55 bd c6 3c 39 3c 03 c3 56 bd
       0.049530815 -0.05222222 0.011305993 -0.05243207
000230 9a 74 ec 38 f8 bc e9 38 7e b1 ad 3d 42 24 3a bd
       0.00011275076 0.00011145504 0.084811196 -0.045444734
000240 b6 a2 57 bd d8 15 a4 bd 35 3e 33 bd af a3 93 3b
       -0.052645408 -0.08011979 -0.043760497 0.0045055966
000250 08 3e 22 3d ba 50 87 3d a7 d1 53 3d 9a 72 ef 3c
       0.03960994 0.06607194 0.051713612 0.029229451
000260 93 bb b6 3c 16 fa 72 bd 5c 0b aa 3c 21 42 56 bc
       0.02230624 -0.05932053 0.02075737 -0.01307729
000270 2b 95 ee bc 42 45 6a bd 7d 41 b1 3d 0f 98 93 bd
       -0.029123863 -0.057194956 0.08655069 -0.07206737
000280 5e 45 a7 3c d8 ee 94 bc f6 3e 2a 3d d3 d2 2c bd
       0.020418819 -0.018180296 0.04156395 -0.042193245
000290 62 80 8d 3d 89 b5 fc bc 08 f4 39 3d 3c 21 22 bd
       0.06909253 -0.030848281 0.045398742 -0.039582476
0002a0 e3 fb f2 bc cf cb 28 3d e0 37 a1 ba 51 43 1e bd
       -0.029661125 0.041209992 -0.0012299977 -0.038638417
0002b0 61 ec 72 3d 4d 2b 52 3d fc f3 f2 bc 10 a2 3b 3d
       0.05930746 0.051310826 -0.029657356 0.04580885
0002c0 23 3f 51 3d 38 03 8b 3d 4e 1e 4f 3c f9 73 b8 bc
       0.051085602 0.06787723 0.012641503 -0.022516238
0002d0 af 8b 91 bc 51 25 73 3d df 2b 19 bc 1b 05 15 3d
       -0.017766802 0.05936176 -0.009348839 0.036381822
0002e0 b6 cb 6d bd d3 5e 68 bb 73 c4 85 3d 70 97 64 3d
       -0.058055602 -0.003545691 0.0653161 0.055808485
0002f0 d2 93 ca 3c 5a bf 9a 3d c2 c6 20 3d d7 b7 97 bd
       0.02472869 0.07556029 0.03925205 -0.074081115
000300 a9 08 2a 3b 7e 56 30 bd ca cd 92 bd 3c fe c6 3d
       0.0025945103 -0.043051235 -0.071681574 0.0971646
000310 23 93 80 3d 33 f8 57 3b 4b 2b 17 bc d2 63 d8 3c
       0.06278064 0.0032954335 -0.00922663 0.026414786
000320 f6 90 a4 3c a6 aa 4b 3d a4 a6 c2 bd 36 b5 2e bd
       0.020088654 0.04972329 -0.095044404 -0.042653285
000330 38 fc 9a bd 88 0b aa bc cb 57 21 3d 0b eb ff 3c
       -0.07567638 -0.020757452 0.039390367 0.031240007
000340 bb 08 33 bd e7 22 30 3d 40 9b 5f bc 45 20 c7 bd
       -0.043709498 0.043002035 -0.013647854 -0.09722952
000350 99 74 c3 3d a3 2d ef 3c 47 dc 7a 3c 2f ba ec bc
       0.095437236 0.029196566 0.015311307 -0.028897373
000360 e1 38 95 3c 5e 54 5a 3d 1c 60 c1 bd 76 4c 82 bd
       0.018215599 0.053303115 -0.094421595 -0.0636224
000370 d7 b6 2e 3c e7 6c 4e bc a7 24 78 bd 22 24 a5 3d
       0.01066371 -0.0125992065 -0.06058183 0.080635324
000380 0b 78 6c bc 11 7f 89 bd 31 93 ad 3b c4 88 d8 3b
       -0.014432917 -0.06713689 0.0052970876 0.0066081006
000390 3f c6 1d 3d ae bc 32 3d 31 43 8b 3c 97 7c f5 3c
       0.03851914 0.04363697 0.016999813 0.029966636
0003a0 16 cd f3 3c d2 9c 88 bd 64 31 39 3d 10 8c 36 bd
       0.029760879 -0.06670536 0.04521312 -0.044567168
0003b0 4a 3d a3 3d 23 d3 aa 3c 5c 9a d9 3c fe 6e b2 3b
       0.07970674 0.020852631 0.026562862 0.00544536
0003c0 3b 51 0c bc ef 17 62 bd cd 26 51 3d 1f 45 4b 3c
       -0.008564289 -0.055198606 0.051062394 0.0124066165
0003d0 21 e9 75 bd 58 2a a2 3d 54 17 0b bd 43 0c 18 3c
       -0.060036782 0.07918233 -0.033957794 0.009280267
0003e0 3b 6f 54 3c 78 73 8d bd 0e 36 2d 3d c0 80 53 3d
       0.012965973 -0.069067895 0.04228788 0.051636457
0003f0 14 de 5e bd 5e 1d 12 bd c1 24 8c 3b 30 cf 04 3c
       -0.05441101 -0.035672538 0.0042768423 0.008106038

classifier.0.bias f4 [64]
000000 d0 a4 10 bc 7b fb 87 bd 74 96 9d bc 45 3b a1 3d
       -0.008828357 -0.06639763 -0.01923678 0.07872633
000010 fe f0 92 bd 36 03 a2 bd f5 9a ae bd 92 9f 99 3d
       -0.07174872 -0.07910769 -0.085256495 0.07501139
000020 5a 28 2a bd 30 6f 69 ba 29 8a a2 bc 75 6a 66 3d
       -0.04154239 -0.0008904813 -0.01984127 0.05625387
000030 43 0b 42 3d ba 88 4a bd e0 7e 68 bd 9f 4f 33 bd
       0.04737402 -0.0494468 -0.056761622 -0.043777104
000040 62 ad 64 3b de a3 81 3c f9 fe 19 bd ed 13 07 bd
       0.0034893383 0.015825208 -0.037596676 -0.032977987
000050 e5 d4 41 3d 0b bf c8 3d df 2e 70 3d 08 24 59 3d
       0.047322173 0.098020636 0.05863845 0.053012878
000060 ce a1 f8 3c c9 81 49 3d ab 3a 93 3d d8 f1 3a bd
       0.030350592 0.04919604 0.071889244 -0.045640796
000070 9e ac 22 3d c9 af 99 bc b9 b9 bf 3d 91 2b 06 bd
       0.0397154 -0.018760579 0.09361596 -0.032756392
000080 e8 3f 49 3d c0 d6 d9 bc e3 ee 21 bc d4 11 03 bc
       0.04913321 -0.026591659 -0.009883615 -0.007999856
000090 d3 62 c1 3d c0 2f 2c bd e6 8b 75 bd 40 ea 9d 3d
       0.09442677 -0.042037725 -0.05994787 0.07710695
0000a0 af f8 07 bc 1e 1e 0f 3d f3 6c 56 3d 40 15 4d bd
       -0.008299037 0.03494083 0.052349996 -0.050069094
0000b0 8a bb d8 3d b8 7f 3b 3c 63 e1 85 bd 7b 6a 0a bb
       0.10582645 0.011444025 -0.0653713 -0.0021120596
0000c0 f9 67 b3 bc c2 19 36 bd bc ed 08 3d 08 72 7d 3d
       -0.021900164 -0.04445816 0.033429846 0.061876327
0000d0 3a c8 a4 bd 28 7b 29 bd 5a a3 6e bd 63 98 2f bd
       -0.08046003 -0.041377217 -0.058261253 -0.042869937
0000e0 3a a0 87 bd 0b 4b c1 3d 1c 09 56 bd 44 2b a9 bd
       -0.06622358 0.094381414 -0.05225478 -0.082602054
0000f0 3c 47 97 3d 3e e8 be 3d 28 69 69 bd 44 6e d1 bd
       0.07386634 0.093216404 -0.05698505 -0.102261096

classifier.3.weight f4 [1, 64]
000000 19 9b d0 3d 63 4f 46 3c 86 72 81 3d 7a ad 7e bd
       0.101858325 0.012103888 0.06320672 -0.06217716
000010 bc 57 3c 3d b1 8c 95 bc a8 69 3a 3d 73 15 d7 bd
       0.045982108 -0.018255563 0.045510918 -0.10502138
000020 5d 4d 8f 3d ee ce f7 3d 0c 2c 22 be 59 9f 25 be
       0.06997178 0.121000156 -0.15837115 -0.16174068
000030 4f 7c ea bd f7 ef 13 be 7f 0b d7 3d 37 4d 0e 3c
       -0.11449491 -0.14447008 0.105002396 0.008685402
000040 0e bb 1c 3c 10 8c e7 bd 70 7a a6 bd a6 b7 8b 3d
       0.009566082 -0.11306012 -0.08128822 0.068221375
000050 31 c1 ec 3c e8 c3 0f be 1e f1 f1 bd 6d c4 c5 bd
       0.028900715 -0.14039576 -0.118135676 -0.09656606
000060 33 95 39 3d 82 c5 1c bd d9 cc 8e bd 8d 14 98 bd
       0.045308303 -0.038274296 -0.06972665 -0.07425795
000070 c7 f6 81 bd f3 6e 2e be 2a f0 d4 bd 79 cf 44 3d
       -0.06345897 -0.17034511 -0.1039737 0.048049424
000080 b6 9a ac bd 0c 7a f9 bd fc b5 a2 3d 45 ab d7 bd
       -0.08427946 -0.12181482 0.07944867 -0.10530714
000090 b5 f8 0f be e4 d7 d0 bd f3 19 b5 bb 18 f9 83 bd
       -0.14059718 -0.10197428 -0.005526775 -0.06443995
0000a0 a2 40 a2 bd 79 43 c3 bd 02 1c 54 3e 80 a8 49 bc
       -0.07922484 -0.09534354 0.20713809 -0.01230824
0000b0 a0 2f f6 bd bd d3 42 bd 93 17 b3 be 8b 6c 4b bd
       -0.120208025 -0.04756521 -0.34978923 -0.04966406
0000c0 71 ec 15 3d ee 65 db bc e5 94 2e be f0 72 9f bd
       0.03660244 -0.026782002 -0.17048986 -0.077855945
0000d0 12 3d 36 3c 32 0e 11 bd 9e 9a 9e 3c 51 f8 5a 3d
       0.011122959 -0.03541393 0.019360837 0.05345947
0000e0 62 06 65 3d 3b 4d 22 be 95 c6 b0 3d 49 57 82 3d
       0.05591429 -0.15849774 0.086316265 0.063643046
0000f0 8c d3 07 bd 88 a4 b1 bd 9a 13 3d be 35 2a 78 3d
       -0.03316073 -0.0867396 -0.18464509 0.060587127
