checkpoints/myristoylation_agent.pt (torch, 35576 bytes, 3 tensors)

classifier.0.weight f4 [64, 128]
0	0x3c3f18bd	0.011663613
1	0x3d00bd6e	0.031430654
2	0x3c917f54	0.01776091
3	0x3d69f0e6	0.057114504
4	0x3da7d7bd	0.08195446
5	0x3dd03ede	0.10168241
6	0x3df08e17	0.117458515
7	0xbdc8a899	-0.097977825
8	0x3d8f3317	0.069921665
9	0x3d9b8481	0.075936325
10	0xbe0cc5c2	-0.13747314
11	0xbcc20963	-0.023686117
12	0x3d63523f	0.055498358
13	0xbc867048	-0.016410962
14	0x3d8871b4	0.06662312
15	0x3c787d14	0.01516654
16	0xbd5e3f42	-0.054259546
17	0x3d8a0fb3	0.06741276
18	0x3dcc7def	0.099849574
19	0xbce7e4c8	-0.028307334
20	0x3e25c79b	0.16189425
21	0xbdc7e237	-0.09759944
22	0xbd667cc0	-0.056271315
23	0xbd6aeeb2	-0.057356544
24	0xbdc2784c	-0.09495601
25	0x3c5c1890	0.0134335905
26	0x3d6241b9	0.05523846
27	0x3e543a42	0.20725349
28	0xbcd71187	-0.026253475
29	0xbce4d5d3	-0.02793399
30	0x3c5666fa	0.013086075
31	0x3e2b32fa	0.16718665
32	0xbdd071df	-0.10177969
33	0xbdb7d693	-0.08976474
34	0xbd98ca9c	-0.0746052
35	0x3d972f3a	0.073820546
36	0xbb8723e6	-0.0041241525
37	0x3dadb328	0.08481437
38	0xbc121233	-0.008915472
39	0x3d95aa7a	0.073079064
40	0xbd00e6a6	-0.031469963
41	0x3d139c46	0.036037706
42	0xbdc9c688	-0.0985232
43	0xbdde3943	-0.108507656
44	0x3da793d4	0.08182493
45	0x3c0602e8	0.008179404
46	0x3db201d4	0.08691755
47	0xbd5e805e	-0.05432164
48	0x3dbf6876	0.09346096
49	0x3d973fbb	0.073852025
50	0x3dc45f8d	0.09588537
51	0x3d138216	0.03601273
52	0x3dd0ea49	0.10200936
53	0xbd9b409a	-0.07580681
54	0x3dd2a195	0.102847256
55	0x3dbf5e41	0.093441494
56	0xbd98d143	-0.074617885
57	0x3daa37fb	0.08311459
58	0xbc7cff36	-0.015441706
59	0x3ba77bbb	0.0051111854
60	0x3d6de306	0.058077835
61	0xbe0656df	-0.13119076
62	0x3bb3e15e	0.0054895123
63	0x3d741e20	0.059599042
64	0x3d514679	0.0510926
65	0xbdd5685e	-0.10420297
66	0x3d9c6cf5	0.076379694
67	0xbddd94ec	-0.1081942
68	0xbe1d2f4b	-0.15350072
69	0x3d5c6915	0.05381115
70	0x3d10e487	0.03537419
71	0x3d0f4229	0.034975205
72	0x3da78f7f	0.081816666
73	0x3d9eef89	0.077605315
74	0x3da4e2fc	0.08051106
75	0x3c9fb8b9	0.019497262
76	0xbb08b044	-0.0020857016
77	0xbdac1278	-0.0840196
78	0xbdb1ae92	-0.08675875
79	0xbd0f534c	-0.034991547
80	0xbcdeedf4	-0.027213074
81	0xbda39e28	-0.0798915
82	0x3d98b3ef	0.074561946
83	0xbc93d96b	-0.018048009
84	0xbdd6d8fa	-0.10490604
85	0xbd84a6a3	-0.06477096
86	0x3e084ef6	0.13311371
87	0xbd5c000a	-0.053710975
88	0x3d7d8c99	0.061901662
89	0xbcfe0d49	-0.031012194
90	0xbc97a44e	-0.018510964
91	0x3d7926e6	0.060828112
92	0xbc3a230a	-0.011360893
93	0x3b3aac8a	0.002848419
94	0xbd4a74e6	-0.04942789
95	0xbc73fa9d	-0.014891294
96	0xbbb68532	-0.0055700773
97	0x3c076f56	0.008266291
98	0xbe049507	-0.12947474
99	0x3d71d753	0.05904324
100	0xbc8d4d75	-0.017248848
101	0x3d36f832	0.04467029
102	0xbd8e0c85	-0.06935982
103	0xbc1bc1dd	-0.00950667
104	0xbcca3a76	-0.02468608
105	0x3c7d6baf	0.015467568
106	0xbdb4dff0	-0.08831775
107	0x3c31c541	0.010850252
108	0xbdad885c	-0.08473274
109	0x3d8a48e2	0.067521825
110	0x3da513f7	0.080604486
111	0xbcaaab76	-0.020833712
112	0xbc12fc7b	-0.008971329
113	0x3d82e7cf	0.0639187
114	0x3de8b9a8	0.11363536
115	0xbd29ac6c	-0.0414242
116	0x3e039e99	0.12853469
117	0xbda64ff1	-0.08120716
118	0x3ddb48ba	0.10707231
119	0xbd4b7eb3	-0.049681377
120	0xbcb691b1	-0.022286268
121	0x3d7354f3	0.059407186
122	0xbd236f00	-0.03990078
123	0xbd0e2dcc	-0.034711644
124	0x3c581638	0.013188891
125	0xbdff3791	-0.1246177
126	0xbda810e1	-0.082063444
127	0xbdf561ce	-0.119815454
128	0x3aca830c	0.0015450432
129	0x3d232298	0.039827913
130	0x3dc49da9	0.09600384
131	0x3d8d6e5d	0.06905816
132	0x3ca6c7f6	0.02035902
133	0xbcd7f410	-0.026361495
134	0xbcaf85da	-0.02142613
135	0xbdac0132	-0.083986655
136	0x3d5966e4	0.05307664
137	0x3cf98d57	0.030462904
138	0x3bdd55b3	0.006754601
139	0x3d997fa2	0.07495047
140	0x3c008eca	0.007846544
141	0xbd80a747	-0.062819056
142	0xbd963594	-0.07334438
143	0xbcffc7ac	-0.03122314
144	0x3daa78e9	0.08323843
145	0xbd2090b7	-0.03920051
146	0xbc3146a9	-0.010820069
147	0xbcc9481b	-0.024570515
148	0x3e1c2595	0.15248711
149	0xbd2ae6ec	-0.04172413
150	0xbc10b0b4	-0.008831192
151	0xbdf3fb60	-0.1191318
152	0xbd9d61bb	-0.07684656
153	0xbd3e72c5	-0.04649617
154	0x3daacdf2	0.08340062
155	0x3d9809aa	0.07423718
156	0xbd704cfe	-0.058667175
157	0xbd8870df	-0.066621535
158	0xbc4a1325	-0.012333666
159	0x3c3426e0	0.010995597
160	0xbdbf48e9	-0.093400784
161	0xbd906c19	-0.07051868
162	0x3d66aaf4	0.056315377
163	0xbc8c6b7a	-0.017141093
164	0xbe0310f3	-0.12799434
165	0x3ae4dd97	0.0017461058
166	0x3d1422a6	0.036165856
167	0x3d2c55cb	0.042074006
168	0xbcac3821	-0.021022858
169	0x3d2ac94f	0.04169589
170	0xbdb51312	-0.08841528
171	0xbe11e9c9	-0.14249338
172	0x3d6124dd	0.054966796
173	0x3dbad3d0	0.09122431
174	0x3db2b1ec	0.08725342
175	0x3d1a2cb9	0.037640307
176	0x3c9c96ae	0.019114818
177	0x3b8ed69b	0.004359079
178	0x3d2c375a	0.042044975
179	0x3bf5e64d	0.0075042606
180	0x3dc049c5	0.093890704
181	0x3cf9e5c9	0.030505078
182	0xbc728f2a	-0.014804641
183	0xbcfb3aa0	-0.030667603
184	0xbe13396b	-0.14377372
185	0xbbeba3dd	-0.007191165
186	0x3acfab61	0.0015843922
187	0xbcc76bf7	-0.024343474
188	0xbd44b165	-0.04802074
189	0xbdb7ecfd	-0.08980749
190	0x3d6a7618	0.05724153
191	0xbc841fa8	-0.016128376
192	0xbdddf854	-0.108383805
193	0x3c9118a0	0.017711937
194	0xbd5afac9	-0.053461824
195	0xbdc13708	-0.094343245
196	0xbc30bcc6	-0.010787195
197	0xbd13ce8b	-0.036085647
198	0x3d9d2961	0.07673908
199	0xbde42fc3	-0.11141922
200	0x3d4265c9	0.04746035
201	0x3dd7e3ee	0.10541521
202	0x3bf02abc	0.007329313
203	0xbde62f3c	-0.11239478
204	0x3dd32cc4	0.10311273
205	0xbd4fe6e4	-0.050757304
206	0xbdcb772a	-0.09934838
207	0xbcf31dd7	-0.029677315
208	0xbd94f6f7	-0.07273667
209	0x3c76d7a8	0.015066065
210	0x3d53ea67	0.051737215
211	0x3dd40c94	0.103539616
212	0xbd60422f	-0.054750618
213	0xbe084291	-0.13306643
214	0x3d8d8764	0.06910589
215	0xbae25471	-0.0017267597
216	0xbdb21938	-0.08696216
217	0x3b9fc0da	0.0048752846
218	0x3d6c2774	0.057654813
219	0xbc97da2c	-0.01853665
220	0x3d6da1d7	0.05801567
221	0x3d17ed96	0.037091814
222	0xbd02c7ef	-0.031928953
223	0x3d4c317c	0.04985188
224	0xbdbf9b30	-0.093557715
225	0x3df44cdf	0.119287245
226	0xbd99f881	-0.075181015
227	0xbd733f0b	-0.059386294
228	0xbe072fe4	-0.13201863
229	0x3d8d8eb0	0.06911981
230	0xbe01f28b	-0.12690179
231	0xbc9d7e30	-0.01922521
232	0x3d55c921	0.052193765
233	0xbca08b7f	-0.019597767
234	0xbdc3d379	-0.095618196
235	0xbcdfa024	-0.02729804
236	0xbd4c5997	-0.049890127
237	0x3ca32bf5	0.019918421
238	0x3e0ff2b9	0.14057435
239	0xbc965798	-0.018352315
240	0xbd033e54	-0.032041863
241	0x3d3948e3	0.045235526
242	0x3caa20c7	0.020767583
243	0x3dc4b073	0.096039675
244	0xbcfdbd8d	-0.030974174
245	0xbe18c14a	-0.14917484
246	0x3da7080b	0.08155831
247	0x3d7826a5	0.06058373
248	0x3c50fe6e	0.012755973
249	0x3dbd6d9f	0.09249424
250	0xbd26da11	-0.040735308
251	0xbd3258a9	-0.043541584
252	0xbe2725ac	-0.16322964
253	0xbdd74660	-0.1051147
254	0xbaeef3b4	-0.0018230588
255	0xbde90938	-0.113787115

classifier.0.bias f4 [64]
0	0x3b0efc65	0.002181792
1	0x3e01faaa	0.12693277
2	0xbbbaac51	-0.0056968112
3	0xbdae3934	-0.085070044
4	0xbd9027b9	-0.070388265
5	0xbd802abf	-0.06258153
6	0x3d7b0aad	0.061289478
7	0x3c870100	0.016479969
8	0x3d4c91c7	0.04994371
9	0xbdbd5d45	-0.092463054
10	0xbd9c7562	-0.076395765
11	0x3c64cab5	0.013964345
12	0xbd1ce152	-0.03830082
13	0x3de2c1fd	0.110721566
14	0xbd8da003	-0.069152854
15	0x3dc11723	0.09428241
16	0xbd9f14cd	-0.07767639
17	0x3daf30b5	0.08554212
18	0xbdc6b28c	-0.09702024
19	0xbcfd3360	-0.030908287
20	0xbd776e95	-0.060408194
21	0xbcc0a74c	-0.023517273
22	0xbdd032f9	-0.10165972
23	0xbde40155	-0.111330666
24	0xbc2fce6a	-0.010730365
25	0x3d4a6298	0.049410433
26	0xbda52510	-0.0806371
27	0xbcfb1c91	-0.03065327
28	0x3d11e960	0.035622954
29	0x3d54d474	0.051960424
30	0x3b7c13b6	0.0038463897
31	0x3d893ae4	0.067006856
32	0x3dafd7a2	0.085860506
33	0x3d1c1aab	0.03811137
34	0x3d6535de	0.055959575
35	0x3cdb890f	0.026798753
36	0x3d982c54	0.0743033
37	0xbdb3eb39	-0.087850995
38	0x3d909d2e	0.0706123
39	0xbd2e42a2	-0.042544015
40	0xbd5fc875	-0.05463453
41	0xbb7d4e7f	-0.0038651524
42	0xbc1865f3	-0.00930165
43	0x3dd21e71	0.102597125
44	0xbcacaf7b	-0.02107977
45	0x3c1dcd74	0.009631503
46	0xbd055dc2	-0.032560118
47	0x3d7f5add	0.062342513
48	0xbd322f6f	-0.043502267
49	0x3c31a5e6	0.010842776
50	0xbd4e75b6	-0.050405227
51	0x3cd91946	0.02650131
52	0x3b9ab264	0.004720973
53	0x3d507eaa	0.050902046
54	0xbdaafc39	-0.08348889
55	0x3e04d019	0.12970008
56	0x3d1a2d0a	0.03764061
57	0xbbccf020	-0.006254211
58	0x3cabcc44	0.020971425
59	0xbd8d5323	-0.06900623
60	0x3d662e46	0.056196474
61	0x3da2f79e	0.079573855
62	0x3d0a9985	0.033837814
63	0xbc5e4353	-0.013565856

classifier.3.weight f4 [1, 64]
0	0xbe160c49	-0.14653124
1	0xbd348b87	-0.044078376
2	0x3dc7b83b	0.09751936
3	0x3d33a8dd	0.043862212
4	0xbdfbec75	-0.1230096
5	0x3cc221ac	0.023697697
6	0xbdbfd863	-0.09367444
7	0xbd641727	-0.055686142
8	0xbe0ab1b4	-0.13544351
9	0x3dd86b18	0.105673015
10	0x3d3d409d	0.0462042
11	0x3e06aee1	0.13152649
12	0xbe0f3539	-0.13985147
13	0xbd9cf9fe	-0.0766487
14	0x3e00bcb4	0.12571985
15	0xbe188ee1	-0.14898254
16	0x3d9ed6c3	0.07755806
17	0xbd848370	-0.06470382
18	0x3cd3933a	0.025827039
19	0x3dd5c186	0.10437302
20	0x3e037674	0.12838155
21	0xbe11aa1a	-0.14225045
22	0x3b6ee79d	0.003645397
23	0x3d5554e1	0.0520829
24	0x3da3dafc	0.08000752
25	0x3dfecb66	0.12441139
26	0x3d9d21ec	0.07672486
27	0xbb191050	-0.002335567
28	0x3d057945	0.032586355
29	0xbe11d8d4	-0.1424287
30	0xbd933ff1	-0.0718993
31	0xbd0f69e6	-0.035013102
32	0xbd0b0edc	-0.033949718
33	0xbe28fcd4	-0.16502696
34	0xbdfad681	-0.122479446
35	0xbdbb3919	-0.0914175
36	0xbe2c2e24	-0.16814476
37	0xbd15d003	-0.03657533
38	0xbdd4bea0	-0.10387921
39	0x3d835e56	0.064144775
40	0xba1131d9	-0.0005538739
41	0x3dd58635	0.104259886
42	0xbdfbcf7e	-0.12295435
43	0xbdbe2fe5	-0.09286479
44	0xbc0a6a6a	-0.008448223
45	0x3de2deac	0.110776275
46	0xbe0a2464	-0.13490444
47	0x3cea57d8	0.02860634
48	0xbd8b9736	-0.068159506
49	0x3ca01e4c	0.019545697
50	0xbdbd137a	-0.092322305
51	0xbd85319a	-0.06503601
52	0xbda2fdff	-0.07958602
53	0x3d54d422	0.051960118
54	0x3c6ca790	0.014444247
55	0xbda87681	-0.08225728
56	0xbe1ede55	-0.155145
57	0xbce9eae3	-0.028554386
58	0xbd9d5036	-0.07681315
59	0x3d8e35a1	0.06943823
60	0xbde00b12	-0.109396115
61	0xbd5900c1	-0.052979235
62	0x3db8af0e	0.09017764
63	0xbb3a87a1	-0.0028462189
