checkpoints/network_agent.pt (torch, 66432 bytes, 4 tensors)

positional_encoding f4 [100, 64]
-0.05150309 1.7069974 -1.0409949 0.92750996 0.620136 0.47812605 0.037540846 0.099530175
1.4277261 0.5264956 -1.1167443 -1.1169068 0.60357165 0.6455783 -0.95937246 0.65187174
1.1938019 0.71057755 -1.2636223 1.3164614 0.6692545 0.5740578 0.72940826 1.1648996
0.09375937 -0.14714357 0.38551867 0.6048146 1.8188484 1.3758085 -0.5664548 0.10269238
2.283659 1.7758582 -0.16198042 1.0156544 1.0734346 -1.171355 0.64837456 0.4560112
0.14428772 -0.019870566 -1.7050773 -0.8408036 0.19378121 0.9200939 1.1856375 -0.025416367
-0.08861145 1.5804827 0.32708812 1.208541 -0.89928263 0.812768 0.7156394 0.39696547
0.87357306 -0.9158407 0.65710336 1.5483714 -0.90687484 1.0561787 0.17429784 -2.032199
0.68817186 0.040481776 0.76766616 -0.3253096 0.83425957 1.1297363 -0.40775412 2.0723503
1.2563205 -1.3378285 -0.19606791 -0.84642935 -0.6534743 0.4708664 0.32459116 0.53377324
-0.26737916 0.12677175 -0.41370943 0.88868135 -1.1486516 1.4517256 -0.47867063 2.16693
-0.5709929 0.1456784 0.12660928 -1.7992418 -0.043267135 1.467195 -0.6727463 -0.061527908
-0.2660888 -1.5463436 -0.9085278 0.3193635 -0.11835063 -0.39614823 0.59497166 0.10687719
0.9342101 0.65123016 0.9376926 1.5263048 -1.4427395 -0.2525255 -0.28455395 1.1339611
-0.6575858 1.0528879 0.22510809 0.5147843 -0.10260092 -0.83094907 -0.030376825 -1.3662468
0.14714803 -0.58189946 -0.8235705 -1.1052972 1.4398619 1.0677239 -0.64547336 0.254634
1.1800492 -1.7420619 -0.484888 -1.3548869 -0.6506658 0.22929218 1.1047509 -0.44473603
1.6310846 -0.8500854 -0.5259901 -1.3020347 1.4695865 1.0514253 -0.99354756 0.34987593
-0.9555348 1.2766333 0.27852702 0.0046386076 0.23193741 0.060296267 -1.3035893 -1.3535056
-0.110622466 0.18878143 -1.5936481 0.66008013 -1.8157072 0.23804672 0.27750513 1.3787692
0.9780821 0.86227787 -0.063310266 1.4764682 0.15774967 -0.68692935 -0.18338417 -0.9587663
-1.4190254 -0.22764286 0.2564062 0.020020697 -0.14371577 0.096322894 0.9661891 0.9072094
0.340516 -1.4906027 0.26283666 -1.8810527 1.5490056 -2.306765 1.274995 -0.12729049
1.1849444 1.8121002 1.4801096 0.22432041 0.14071871 -0.19558337 -0.042599916 0.119470574
-1.1254776 -0.8714489 0.7803447 0.67480403 -1.0634308 0.31723863 0.36678225 0.38736942
-1.3831987 -0.3517845 -0.18337508 -0.69396484 -0.3053029 -0.72660846 0.98166203 -1.0429367
-1.0833704 -0.7379166 0.1060575 -1.8908663 -1.0560068 -0.056854133 0.12934297 -0.48149785
-0.16943088 0.733297 -0.06520874 0.6185547 0.89919794 -0.8565509 0.8155645 -2.362436
-1.2791221 -2.2728074 1.1639401 -0.18113913 -0.9319049 0.97274727 -0.65429497 -0.86522716
0.9757193 1.0760036 -0.16861449 0.643691 0.712547 -1.2389522 0.6482457 -1.3137472
-0.15206236 -1.0903045 -2.4228342 0.35802034 -0.77122235 1.0176482 0.38948786 1.9977387
-0.336541 -0.25379267 0.0600708 0.18151763 -0.059379496 -0.5446998 0.55876034 -1.4774413
00000000: e7f4 52bd e47e da3f 523f 85bf 4b71 6d3f
00000010: 3cc1 1e3f f0cc f43e 6ec4 193d 7ad6 cb3d
00000020: bbbf b63f 6ac8 063f 7af1 8ebf cdf6 8ebf
00000030: ac83 1a3f 9f44 253f 6f99 75bf 11e1 263f
00000040: 80ce 983f 69e8 353f 60be a1bf cf81 a83f
00000050: 4354 2b3f 74f5 123f 80ba 3a3f 6e1b 953f
00000060: ea04 c03d ceac 16be b462 c53e 21d5 1a3f
00000070: 06d0 e83f 7e1a b03f 2f03 11bf 6250 d23d
00000080: 7827 1240 524f e33f 32de 25be f700 823f
00000090: 4e66 893f f6ee 95bf e0fb 253f 4d7a e93e
000000a0: 29c0 133e 99c7 a2bc f93f dabf e83e 57bf
000000b0: 956e 463e 468b 6b3f f8c2 973f fc35 d0bc
000000c0: eb79 b5bd 424d ca3f 1878 a73e 79b1 9a3f
000000d0: 6337 66bf 9011 503f 2534 373f 0f3f cb3e
000000e0: 7ca2 5f3f 8974 6abf ed37 283f 0931 c63f
000000f0: f328 68bf dd30 873f 227b 323e 8c0f 02c0
00000100: 082c 303f 38d0 253d c585 443f fb8e a6be
00000110: 0992 553f 339b 903f 26c5 d0be 63a1 0440
00000120: 1ccf a03f f73d abbf 07c6 48be 98af 58bf
00000130: 174a 27bf 6715 f13e d030 a63e 5da5 083f
00000140: ece5 88be 74d0 013e b9d1 d3be 9f80 633f
00000150: 0407 93bf 25d2 b93f 5114 f5be fbae 0a40
00000160: 972c 12bf b82c 153e dda5 013e 8e4d e6bf
00000170: e138 31bd 0ccd bb3f 1a39 2cbf b004 7cbd
00000180: cb3c 88be 96ee c5bf 4795 68bf 9d83 a33e
00000190: d161 f2bd f1d3 cabe 1050 183f 6ee2 da3d
000001a0: 6528 6f3f 05b7 263f 9f0c 703f f55d c33f
000001b0: b0ab b8bf 064b 81be 0eb1 91be a325 913f
000001c0: 8b57 28bf 08c5 863f bc82 663e e7c8 033f
000001d0: 6e20 d2bd 14b9 54bf d2d8 f8bc 2de1 aebf
000001e0: f9ad 163e 5df7 14bf 84d5 52bf 617a 8dbf
000001f0: 654d b83f 2dab 883f be3d 25bf 635f 823e
00000200: da0b 973f e2fb debf 3d43 f8be ef6c adbf
00000210: 0992 26bf 92cb 6a3e 7a68 8d3f 71b4 e3be
00000220: 61c7 d03f 329f 59bf 4aa7 06bf 13a9 a6bf
00000230: 691b bc3f 1b95 863f 2259 7ebf f022 b33e
00000240: ee9d 74bf b868 a33f 189b 8e3e 76ff 973b
00000250: 0081 6d3e 38f9 763d 04dc a6bf ac3f adbf
00000260: 088e e2bd eb4f 413e a9fc cbbf 03fb 283f
00000270: 1869 e8bf 85c2 733e 2715 8e3e 827b b03f
00000280: 9763 7a3f 3ebe 5c3f d0a8 81bd e9fc bc3f
00000290: 2189 213e 9ada 2fbf 0fc9 3bbe b571 75bf
000002a0: a0a2 b5bf 361b 69be ac47 833e 7202 a43c
000002b0: 3a2a 13be f044 c53d 2b58 773f e03e 683f
000002c0: 1d58 ae3e 12cc bebf 8792 863e 56c6 f0bf
000002d0: d145 c63f 0aa2 13c0 0933 a33f 7058 02be
000002e0: 42ac 973f e6f2 e73f 3b74 bd3f 40b4 653e
000002f0: 9118 103e 0247 48be 407d 2ebd fdac f43d
00000300: a60f 90bf 4617 5fbf acc4 473f f5bf 2c3f
00000310: 801e 88bf 1a6d a23e e2ca bb3e 4955 c63e
00000320: a80c b1bf 191d b4be adc6 3bbe aea7 31bf
00000330: a950 9cbe 0303 3abf 344e 7b3f f37e 85bf
00000340: e2ab 8abf 1ae8 3cbf ad34 d93d e807 f2bf
00000350: 3b2b 87bf e1df 68bd 7c72 043e e386 f6be
00000360: 4a7f 2dbe 5ab9 3b3f 298c 85bd 9a59 1e3f
00000370: d631 663f eb46 5bbf d6c8 503f 2732 17c0
00000380: 46ba a3bf ad75 11c0 fdfb 943f 897c 39be
00000390: 5291 6ebf f705 793f e07f 27bf 877f 5dbf
000003a0: bdc8 793f 7cba 893f 47a9 2cbe efc8 243f
000003b0: 7b69 363f fc95 9ebf 6ef3 253f de28 a8bf
000003c0: 3cb6 1bbe 198f 8bbf b70f 1bc0 714e b73e
000003d0: d46e 45bf 4c42 823f f46a c73e e7b5 ff3f
000003e0: 1a4f acbe 1df1 81be cd0c 763d c2df 393e
000003f0: ea37 73bd 7271 0bbf eb0a 0f3f cc1c bdbf

pathway_embedding.weight f4 [21, 64]
0.0 0.0 0.0 0.0 0.0 0.0 0.0 0.0
0.0 0.0 0.0 0.0 0.0 0.0 0.0 0.0
0.0 0.0 0.0 0.0 0.0 0.0 0.0 0.0
0.0 0.0 0.0 0.0 0.0 0.0 0.0 0.0
0.0 0.0 0.0 0.0 0.0 0.0 0.0 0.0
0.0 0.0 0.0 0.0 0.0 0.0 0.0 0.0
0.0 0.0 0.0 0.0 0.0 0.0 0.0 0.0
0.0 0.0 0.0 0.0 0.0 0.0 0.0 0.0
-0.5328283 1.9209872 -0.07496588 0.118225805 0.91162723 -0.7398255 1.4054006 0.63417
0.12910102 -1.7707803 -2.6758454 0.49770612 -1.0358483 -0.0073743914 0.41905174 -1.2810872
-0.85381436 0.44654587 -0.25991878 0.009802445 -0.56238526 -2.0606017 -0.73818576 0.57668984
-0.635086 2.4673026 0.64844173 -0.46575356 0.25701797 -1.8907502 -1.2703422 1.0622549
0.20724407 -0.2140303 0.8289838 1.0707911 0.47812623 -0.88430494 -0.8835105 2.1482694
-0.5251768 -1.0976789 1.5101486 -0.41584238 -1.0499018 0.009744677 2.6955774 -1.1410424
-0.09381368 0.49656248 -0.14648134 -0.25900698 0.67784184 -1.3154858 -0.8559347 0.14358528
0.32583126 0.15484756 0.5644718 0.9652123 -0.20371775 1.1319433 -1.5912634 0.1589406
1.0964155 -0.46170667 -1.9738082 0.36468023 -0.5043632 -0.033698376 1.7781122 -0.1312559
0.1582559 0.5785421 0.52270615 0.2156657 -0.06488826 0.19618428 -1.9171245 0.64315075
0.66192186 -1.9187846 1.1634988 -0.9668049 -1.5355077 -1.109963 0.65205127 -0.34494564
1.1238079 0.050997302 0.5274164 0.9076608 1.0114328 -0.5944382 0.090090424 0.21204855
-2.0038548 -0.4723494 -0.05659861 0.76171625 0.9594029 -0.25614128 1.4740477 1.099243
0.04410575 0.48227403 1.1483272 -1.0793717 1.9048707 -1.0337245 0.239934 0.6001016
-0.856381 0.781473 0.5762234 -0.330458 1.1458255 -0.69793093 -0.49016374 -1.0840465
-0.29901272 -0.6821772 -0.6106547 -0.30229086 1.0677047 0.007286015 -0.7737696 1.2716411
0.20020883 0.25683007 0.31203422 -0.774706 -0.21510865 1.0250988 -1.4129583 0.91866934
0.87770164 -0.10729114 1.7463217 -1.0058671 -0.091882475 -0.9904183 1.9332521 -0.8589828
-1.1153172 0.40665275 -1.4849623 0.8471931 0.17426379 1.1021435 -1.1692587 1.4464518
0.21838042 0.15397324 0.5657637 1.4883767 1.2027256 -1.371684 0.7678762 0.012373959
-0.9253726 -0.97947955 -0.66778475 1.5474641 -0.03287066 -1.7149136 -1.1383224 0.42635664
-1.6925479 -0.6152453 -0.6336984 -0.28760657 -1.007034 0.21000203 0.6699829 0.3071153
-0.28484064 -1.29405 -0.10674668 -1.822033 0.1776819 -3.6991446 -0.9447278 0.6336405
0.006335718 0.50811386 0.32754 -0.34012756 -0.7880933 -1.0136447 1.0751479 -0.5312235
00000000: 0000 0000 0000 0000 0000 0000 0000 0000
00000010: 0000 0000 0000 0000 0000 0000 0000 0000
00000020: 0000 0000 0000 0000 0000 0000 0000 0000
00000030: 0000 0000 0000 0000 0000 0000 0000 0000
00000040: 0000 0000 0000 0000 0000 0000 0000 0000
00000050: 0000 0000 0000 0000 0000 0000 0000 0000
00000060: 0000 0000 0000 0000 0000 0000 0000 0000
00000070: 0000 0000 0000 0000 0000 0000 0000 0000
00000080: 0000 0000 0000 0000 0000 0000 0000 0000
00000090: 0000 0000 0000 0000 0000 0000 0000 0000
000000a0: 0000 0000 0000 0000 0000 0000 0000 0000
000000b0: 0000 0000 0000 0000 0000 0000 0000 0000
000000c0: 0000 0000 0000 0000 0000 0000 0000 0000
000000d0: 0000 0000 0000 0000 0000 0000 0000 0000
000000e0: 0000 0000 0000 0000 0000 0000 0000 0000
000000f0: 0000 0000 0000 0000 0000 0000 0000 0000
00000100: 6f67 08bf e9e2 f53f b687 99bd 5f20 f23d
00000110: 6760 693f 3465 3dbf 2be4 b33f f758 223f
00000120: 0f33 043e eea8 e2bf 0d41 2bc0 56d3 fe3e
00000130: ad96 84bf e1a4 f1bb f38d d63e aafa a3bf
00000140: 9493 5abf a9a1 e43e 1314 85be 6f9a 203c
00000150: 7bf8 0fbf e6e0 03c0 bef9 3cbf f2a1 133f
00000160: ff94 22bf 49e8 1d40 4700 263f 4077 eebe
00000170: dc97 833e 1a04 f2bf 939a a2bf f8f7 873f
00000180: ca37 543e c22a 5bbe 4838 543f af0f 893f
00000190: f6cc f43e cf61 62bf be2d 62bf 3f7d 0940
000001a0: fd71 06bf be80 8cbf 8d4c c13f 4be9 d4be
000001b0: 2f63 86bf 23a8 1f3c 5784 2c40 ad0d 92bf
000001c0: 6321 c0bd 703d fe3e 34ff 15be 909c 84be
000001d0: 0b87 2d3f d761 a8bf 891e 5bbf 0508 133e
000001e0: 5bd3 a63e 5c90 1e3e 3981 103f 2718 773f
000001f0: 639b 50be 85e3 903f 85ae cbbf 53c1 223e
00000200: 5857 8c3f d164 ecbe bfa5 fcbf 5eb7 ba3e
00000210: f21d 01bf 4f07 0abd 2e99 e33f f267 06be
00000220: d60d 223e 561b 143f 12d0 053f 78d7 5c3e
00000230: 23e4 84bd 88e4 483e 5664 f5bf 87a5 243f
00000240: b673 293f bc9a f5bf 87ed 943f 8780 77bf
00000250: 848b c4bf 4513 8ebf d5ec 263f b79c b0be
00000260: f0d8 8f3f 8ce2 503d c304 073f 755c 683f
00000270: a176 813f 1a2d 18bf 5481 b83d 4123 593e
00000280: 283f 00c0 c8d7 f1be f2d3 67bd d6ff 423f
00000290: 6e9b 753f f324 83be 98ad bc3f ffb3 8c3f
000002a0: 3ba8 343d 9fec f63e 63fc 923f da28 8abf
000002b0: ced2 f33f 1651 84bf 42b1 753e 42a0 193f
000002c0: c93b 5bbf 9d0e 483f 6083 133f ca31 a9be
000002d0: 69aa 923f 9aab 32bf bef6 fabe 09c2 8abf
000002e0: 3218 99be 2aa3 2ebf de53 1cbf dec5 9abe
000002f0: 8caa 883f 86bf ee3b c415 46bf 23c5 a23f
00000300: 8b03 4d3e 3b7f 833e f3c2 9f3e 2253 46bf
00000310: 7145 5cbe 7036 833f d1db b4bf ea2d 6b3f
00000320: 0eb1 603f 75bb dbbd 7887 df3f 41c0 80bf
00000330: e12c bcbd 0e8c 7dbf ce74 f73f 4ce6 5bbf
00000340: b7c2 8ebf ca34 d03e 3f13 bebf a6e1 583f
00000350: 3572 323e 0a13 8d3f 45aa 95bf 5525 b93f
00000360: 1e9f 5f3e 29ab 1d3e e4d5 103f 2183 be3f
00000370: eaf2 993f 5793 afbf 8993 443f 25bc 4a3c
00000380: 38e5 6cbf 2cbf 7abf f1f3 2abf 4e13 c63f
00000390: 63a3 06bd 4a82 dbbf 8cb4 91bf 6b4b da3e
000003a0: 69a5 d8bf b780 1dbf 0f3a 22bf 2b41 93be
000003b0: 7de6 80bf c60a 573e 0084 2b3f 373e 9d3e
000003c0: a2d6 91be 6ea3 a5bf 019e dabd 6138 e9bf
000003d0: 3ef2 353e c9be 6cc0 aed9 71bf 4436 223f
000003e0: db9b cf3b c013 023f 53b3 a73e 3325 aebe
000003f0: 7cc0 49bf 1cbf 81bf 729e 893f 43fe 07bf

proj.weight f4 [128, 64]
-0.10122885 -0.07775658 0.023959354 0.09537369 0.0116203725 -0.12275334 -0.11961907 0.07918529
-0.08697173 0.11035697 0.06624994 -0.086062804 0.10826062 -0.04416056 0.057897 0.020611808
-0.07984547 -0.056600824 -0.099297345 0.058022514 0.057332993 0.12384619 -0.07805836 0.0037993938
0.04490286 0.011549637 -0.08979523 -0.095639214 -0.0808942 -0.0645366 0.032802284 -0.11298868
-0.0010904074 0.06499696 -0.08640705 -0.030114517 -0.023294166 0.103734285 0.08322097 0.02075705
-0.08990182 -0.009221181 -0.077411264 0.026381388 0.099014044 -0.09799954 0.098593384 0.03518969
0.006666273 0.015679628 0.08317444 0.016221255 0.020734549 0.08744891 -0.055819556 -0.08883518
0.0662794 -0.014985099 -0.023053601 0.08835372 0.025743037 -0.025561005 0.07123521 0.03599876
0.06852321 -0.040725067 0.08983056 -0.03170015 0.029932633 0.081621185 -0.043337837 -0.10229178
0.11432783 -0.12068376 -0.06289466 -0.080932334 0.099703014 0.10729532 -0.1168859 -0.12261592
-0.108579695 0.09348698 -0.120767534 -0.05864939 -0.0985928 -0.10226457 0.043773055 0.08446708
0.04378523 -0.033049986 0.010988414 0.015991986 0.080270275 -0.06376624 -0.07039732 0.009915933
0.10049625 -0.040009886 0.032466024 0.10639353 0.060418576 -0.010920659 -0.04923825 0.03690034
0.022817373 -0.0018520504 -0.072438404 0.021307975 -0.06608154 -0.09497061 -0.0538747 -0.11040215
-0.093465135 0.058010176 0.04026285 -0.016899392 -0.03237173 0.039377704 -0.10764593 0.09865621
-0.07300478 -0.11620109 0.097651884 -0.015324995 -0.050016537 0.12380922 0.011598676 -0.10972284
0.08696681 -0.049036205 -0.04807216 0.036627293 -0.047951996 -0.023598298 0.105678424 -0.06951368
-0.083383545 -0.0907971 -0.08075151 0.085672215 0.0466197 0.020371124 0.109087676 0.076630145
0.07353887 0.021891013 -0.12218824 -0.043813974 -0.097827464 0.0116544515 -0.09759015 0.03410527
0.108723044 -0.10330959 -0.0570374 0.11697362 0.11692645 -0.009469628 0.08087514 -0.05444117
0.078003064 -0.07532394 0.023454726 0.0068796724 -0.07947254 0.10673593 0.04373309 -0.08475739
-0.11019184 0.05017124 -0.120531306 0.11553745 -0.03928548 0.08888258 -0.016753659 0.04339163
0.082932234 -0.0979175 0.06360476 0.029245421 0.01946187 -0.028986305 -0.05807437 0.11516884
-0.06800677 0.027471483 -0.07242319 -0.08036043 0.07238191 -0.124745876 0.08781934 0.10508415
-0.111994565 -0.11845656 0.02054602 0.07787326 0.09113383 -0.04774505 0.072124675 -0.03306386
0.027396843 -0.09109999 -0.0437807 -0.06939207 -0.0080899 0.06828003 0.09800118 0.007381782
0.0147078335 -0.08307126 -0.005698547 0.007927135 0.019473463 -0.050660223 -0.07702695 -0.0067468137
0.10151011 0.0065235794 -0.012813911 -0.030544743 -0.034037635 0.0062902123 -0.100712836 -0.110282704
0.010908216 0.080333784 -0.086209595 -0.122330815 -0.02523014 0.03749354 -0.108689785 0.09994291
-0.008348286 -0.06374924 0.05737409 -0.018499985 -0.029541865 -0.10704672 0.046780616 0.09422542
-0.026115641 0.053245276 0.035318792 0.110609815 0.038500205 -0.11294304 -0.014743134 0.050516024
0.10033201 -0.064437866 -0.01907608 0.013258785 0.07850307 0.03926316 -0.00635238 -0.12003578
00000000: 1251 cfbd d83e 9fbd 6846 c43c 4853 c33d
00000010: 6063 3e3c 1a66 fbbd d8fa f4bd e62b a23d
00000020: 3c1e b2bd d602 e23d 0cae 873d b241 b0bd
00000030: beb7 dd3d b4e1 34bd 6825 6d3d 18da a83c
00000040: 0686 a3bd 44d6 67bd 685c cbbd 04a9 6d3d
00000050: 00d6 6a3d 12a3 fd3d 10dd 9fbd 40ff 783b
00000060: 10ec 373d b03a 3d3c 90e6 b7bd 7ede c3bd
00000070: dcab a5bd c42b 84bd b05b 063d 9c66 e7bd
00000080: 00ec 8eba 201d 853d 2ef6 b0bd b8b2 f6bc
00000090: 68d3 bebc a472 d43d c26f aa3d b00a aa3c
000000a0: 721e b8bd 7014 17bc cc89 9ebd c81d d83c
000000b0: e0c7 ca3d fcb3 c8bd 54eb c93d 1023 103d
000000c0: c070 da3b 9072 803c 5c57 aa3d 70e2 843c
000000d0: 80db a93c 6a18 b33d 0ca3 64bd 38ef b5bd
000000e0: 7ebd 873d 1084 75bc e8da bcbc ccf2 b43d
000000f0: 10e3 d23c 5065 d1bc c4e3 913d 7073 133d
00000100: e655 8c3d 54cf 26bd 16f9 b73d 04d8 01bd
00000110: 4835 f53c 0229 a73d 0483 31bd 5a7e d1bd
00000120: b624 ea3d 0c29 f7bd eace 80bd dabf a5bd
00000130: 1831 cc3d a6bd db3d e061 efbd 0e1e fbbd
00000140: 085f debd 1a76 bf3d f854 f7bd 583a 70bd
00000150: 06eb c9bd 1670 d1bd 604b 333d 14fd ac3d
00000160: 2458 333d 6c5f 07bd c008 343c a001 833c
00000170: be64 a43d e097 82bd 782c 90bd 7076 223c
00000180: fad0 cd3d 68e1 23bd 18fb 043d dae4 d93d
00000190: 7879 773d 90ec 32bc 0cae 49bd d024 173d
000001a0: 80eb ba3c 80c0 f2ba 965a 94bd 108e ae3c
000001b0: c255 87bd f47f c2bd b8ab 5cbd 861a e2bd
000001c0: a66a bfbd 149c 6d3d a8ea 243d 9870 8abc
000001d0: 3898 04bd 844a 213d 7875 dcbd 440c ca3d
000001e0: 8883 95bd d6fa edbd b6fd c73d b015 7bbc
000001f0: 24de 4cbd b08f fd3d 6008 3e3c 5eb6 e0bd
00000200: a81b b23d 30da 48bd 50e7 44bd 8006 163d
00000210: 5069 44bd 3851 c1bc ee6d d83d 305d 8ebd
00000220: fec4 aabd d4f3 b9bd 0c61 a5bd ea74 af3d
00000230: 4cf4 3e3d 58e1 a63c 5c69 df3d 44f0 9c3d
00000240: 8c9b 963d c854 b33c d43d fabd 4876 33bd
00000250: c459 c8bd 50f2 3e3c 58dd c7bd f8b1 0b3d
00000260: 30aa de3d fa93 d3bd 0ca0 69bd de8f ef3d
00000270: 2277 ef3d 8026 1bbc dea1 a53d b4fd 5ebd
00000280: 12c0 9f3d 7043 9abd 2024 c03c e06e e13b
00000290: 80c2 a2bd 5e98 da3d 7821 333d 4895 adbd
000002a0: 42ac e1bd 5c80 4d3d 1ed9 f6bd e69e ec3d
000002b0: d0e9 20bd 1208 b63d f83e 89bc 6cbb 313d
000002c0: 60d8 a93d f888 c8bd 3643 823d 1894 ef3c
000002d0: 806e 9f3c b074 edbc 64df 6dbd a4dd eb3d
000002e0: 2247 8bbd e00b e13c 9c52 94bd 0294 a4bd
000002f0: f83c 943d c47a ffbd a0da b33d 5c36 d73d
00000300: 685d e5bd 5a99 f2bd 2050 a83c 047c 9f3d
00000310: 60a4 ba3d 5090 43bd 1ab6 933d f86d 07bd
00000320: 586f e03c a292 babd 6453 33bd 6e1d 8ebd
00000330: 808b 04bc 66d6 8b3d d8b4 c83d e0e2 f13b
00000340: 20f9 703c 4421 aabd e0ba babb d0e0 013c
00000350: d086 9f3c 1881 4fbd 4ec0 9dbd 6014 ddbb
00000360: 88e4 cf3d c0c3 d53b 70f1 51bc f838 fabc
00000370: 0c6b 0bbd 201e ce3b 8842 cebd e6db e1bd
00000380: 60b8 323c 0a86 a43d a88e b0bd 9488 fabd
00000390: 70af cebc d492 193d c098 debd deae cc3d
000003a0: 40c7 08bc f68e 82bd 1801 6b3d 488d 97bc
000003b0: c801 f2bc 503b dbbd 089d 3f3d 42f9 c03d
000003c0: 78f0 d5bc b817 5a3d 70aa 103d 6687 e23d
000003d0: 64b2 1d3d ae4e e7bd 308d 71bc e4e9 4e3d
000003e0: de7a cd3d 00f8 83bd 7045 9cbc 603b 593c
000003f0: 38c6 a03d 68d2 203d a027 d0bb 52d5 f5bd

proj.bias f4 [128]
-0.07096042 -0.07545555 -0.01614067 -0.08028674 -0.011495352 -0.021095827 -0.098561525 0.05137284
-0.052805215 -0.023428142 0.06730643 -0.023117378 0.09128223 -0.051511243 0.067275554 -0.09910929
0.07274169 0.09254867 -0.06739724 -0.11705093 0.036951974 0.08572833 0.053659603 -0.030549183
-0.08480653 0.09360501 0.086204454 0.053070754 0.10140751 -0.11803661 0.026866809 0.06970927
0.024497837 0.02347131 0.07508619 0.029961228 0.10493207 0.1021772 -0.008478269 -0.10939099
-0.005866602 0.10524917 -0.06415765 0.11749384 -0.12013674 -0.057751298 -0.03862053 0.08009744
-0.0052907467 0.023361787 0.070553795 -0.036489382 -0.062202483 0.08903979 -0.04982978 0.12407088
0.12183282 0.069625586 -0.10836117 0.06967044 0.063790455 0.097441226 -0.017914653 -0.017935663
-0.05192834 0.06117733 -0.115667105 0.106760204 0.020687237 0.06022139 0.10392882 0.08011249
-0.0805417 -0.013156459 0.11078325 0.020806894 -0.1148943 -0.051578864 -0.04387641 0.09597832
-0.05443126 -0.011325434 -0.11022611 0.009890243 -0.04842557 -0.063637346 0.1081949 0.07527837
-0.06892015 -0.003669098 0.09872018 0.06183973 0.07781321 0.06183596 -0.03539516 0.12196013
-0.06064208 -0.06115119 0.095519155 -0.120345026 0.06857957 -0.10002047 -0.016171098 0.05445282
-0.06456153 0.058116823 -0.06085421 -0.016372591 0.074226275 0.0027003586 -0.08704497 0.093249455
-0.10059163 0.095089465 0.02480577 0.09087008 0.018894523 0.001058951 -0.078746974 -0.10173577
-0.030298814 0.09872711 -0.10720219 0.05369398 0.05854632 0.006984979 -0.05792159 0.022542998
00000000: b253 91bd 7088 9abd 7039 84bc 606d a4bd
00000010: 0057 3cbc 28d1 acbc a0da c9bd 546c 523d
00000020: 484a 58bd 60ec bfbc f4d7 893d a860 bdbc
00000030: 2ef2 ba3d 74fd 52bd c4c7 893d d0f9 cabd
00000040: 98f9 943d 288a bd3d 9007 8abd 66b8 efbd
00000050: f45a 173d 5692 af3d 2cca 5b3d 4842 fabc
00000060: 0caf adbd fcb3 bf3d f68b b03d b860 593d
00000070: beae cf3d 2ebd f1bd c817 dc3c bcc3 8e3d
00000080: b0af c83c e846 c03c cac6 993d 4071 f53c
00000090: a0e6 d63d 4842 d13d 70e8 0abc 6208 e0bd
000000a0: a03c c0bb e08c d73d 1665 83bd 9ca0 f03d
000000b0: 400a f6bd a08c 6cbd 9030 1ebd 200a a43d
000000c0: 005e adbb 3861 bf3c 827e 903d e475 15bd
000000d0: 08c8 7ebd 7e5a b63d 501a 4cbd e018 fe3d
000000e0: 7c83 f93d dc97 8e3d 76ec ddbd 60af 8e3d
000000f0: 92a4 823d 448f c73d c0c1 92bc d0ed 92bc
00000100: d0b2 54bd 1495 7a3d e0e2 ecbd 18a5 da3d
00000110: 4878 a93c b4aa 763d a2d8 d43d 0412 a43d
00000120: 0cf3 a4bd 308e 57bc 54e2 e23d 3873 aa3c
00000130: b44d ebbd 5c44 53bd c0b7 33bd 4890 c43d
00000140: 50f3 5ebd 508e 39bc 3abe e1bd b00a 223c
00000150: e459 46bd 4c54 82bd 4a95 dd3d 8c2b 9a3d
00000160: 0226 8dbd 4075 70bb ce2d ca3d a84b 7d3d
00000170: 885c 9f3d b447 7d3d 84fa 10bd 3cc6 f93d
00000180: d463 78bd ac79 7abd 8c9f c33d 7477 f6bd
00000190: 7273 8c3d 88d7 ccbd 4079 84bc ec09 5f3d
000001a0: d638 84bd e80b 6e3d 4442 79bd d01f 86bc
000001b0: f203 983d 80f8 303b a244 b2bd 92f9 be3d
000001c0: fc02 cebd 44be c23d 7835 cb3c 181a ba3d
000001d0: b0c8 9a3c 80cc 8a3a 1846 a1bd d85a d0bd
000001e0: 3835 f8bc 7031 ca3d d28c dbbd 38ee 5b3d
000001f0: 44ce 6f3d 40e2 e43b 303f 6dbd 18ac b83c
