checkpoints/nitration_agent.pt (torch, 35536 bytes, 3 tensors)

classifier.0.weight f4 [64, 128]
0	0xbd12a8ce	-0.035805516
1	0xbce66e6f	-0.02812883
2	0xbd97733b	-0.07395025
3	0xbb280842	-0.0025639688
4	0x3c11a34a	0.008889029
5	0xbd89d554	-0.06730142
6	0x3b9f663b	0.0048644817
7	0xbd482e59	-0.048872326
8	0x3d6f0213	0.058351588
9	0xbda25155	-0.07925669
10	0xbd56c4e4	-0.052433863
11	0x3b905c2e	0.00440552
12	0x3d838be6	0.06423168
13	0x3cd07d81	0.02545047
14	0xbd1ceb51	-0.038310353
15	0x3cfcbae8	0.030850843
16	0xbbca2a10	-0.006169565
17	0xbd831163	-0.06399801
18	0xbc436584	-0.011926059
19	0x3d8611ec	0.06546387
20	0xbcdb92ea	-0.026803453
21	0x3d823a11	0.063587315
22	0x3a7c35f7	0.00096210785
23	0x3db1a964	0.08674887
24	0xbd8b803c	-0.06811568
25	0xbd2a28d0	-0.041542828
26	0xbd47aa6c	-0.04874651
27	0x3b2457b3	0.0025076687
28	0xbd8074e5	-0.06272296
29	0xbcc5452d	-0.024080837
30	0x3c0ae00a	0.008476267
31	0x3c9066b0	0.01762709
32	0xbd83ab6f	-0.06429183
33	0xbd177ef3	-0.036986303
34	0x3d8b003f	0.06787156
35	0xbcac3f81	-0.021026375
36	0x3c70c853	0.0146961985
37	0x3c6d3028	0.014476813
38	0x3d19e4a4	0.037571564
39	0x3d25317b	0.04033039
40	0xbce910e5	-0.028450439
41	0xbce6f562	-0.02819318
42	0xbb196cef	-0.0023410877
43	0x3ca1f320	0.019769251
44	0x3cf5d405	0.030008325
45	0xbd2736e6	-0.04082384
46	0xbda15ab7	-0.078786306
47	0x3dcd0fc0	0.1001277
48	0xbb6546c6	-0.0034984811
49	0xbc6b9a76	-0.014380088
50	0xbdb49198	-0.08816832
51	0x3c8e95c1	0.017405393
52	0x3cd77471	0.02630064
53	0x39db8568	0.0004187033
54	0xbd061297	-0.032732572
55	0xbd7b5861	-0.06136358
56	0x3d347e35	0.044065673
57	0xbda75e99	-0.0817234
58	0x3b5cbdbe	0.003368243
59	0xbbe750dd	-0.0070592
60	0xbd2e9d6f	-0.04263061
61	0x3cc3984e	0.023876335
62	0x3cea7e56	0.028624695
63	0x3d2f4f73	0.042800378
64	0x3b6f4a84	0.003651292
65	0x3da2637e	0.07929133
66	0xbd50287b	-0.050819855
67	0x3da7ec5a	0.08199377
68	0x3d1d5b94	0.038417414
69	0xbb23377f	-0.0024904904
70	0xbc7eaacd	-0.015543652
71	0x3bae7036	0.005323435
72	0xbd8fdbb3	-0.07024326
73	0x3d63829d	0.055544484
74	0x3d3620db	0.044464927
75	0xbc977bad	-0.01849159
76	0x3d6b5f36	0.057463847
77	0x3ce842aa	0.0283521
78	0xbd836011	-0.064148076
79	0x3d7e04b8	0.06201622
80	0x3d19e4e5	0.037571806
81	0x3ca85d0c	0.02055218
82	0xbde200e1	-0.11035324
83	0x3d14387e	0.036186688
84	0xbba1b136	-0.0049344553
85	0x3d409b2b	0.04702298
86	0xbd52bb5e	-0.05144822
87	0x3d6b4d99	0.05744705
88	0xbd084edc	-0.03327833
89	0x3d311433	0.043232154
90	0x3d56854b	0.05237321
91	0xbd89a093	-0.0672008
92	0xbdb80e80	-0.08987141
93	0x3d35926a	0.044329084
94	0xbd2391aa	-0.039933838
95	0xbc27cd03	-0.01024175
96	0x3bba03ce	0.005676723
97	0xba8e5e1d	-0.0010861788
98	0x3d10d21b	0.035356622
99	0xbda6c442	-0.08142902
100	0xbd4400ab	-0.0478522
101	0xbdaf0357	-0.08545559
102	0x3d9eae83	0.07748129
103	0x3d8fa515	0.07013909
104	0x3d709e84	0.058744922
105	0xbd6ecccb	-0.058300775
106	0x3d80603d	0.06268356
107	0xbdabf0e7	-0.08395558
108	0x3d80f50a	0.062967375
109	0xbc6b8023	-0.014373812
110	0xbd36728c	-0.044542834
111	0x3d6f9db8	0.05850002
112	0x3d919e04	0.07110217
113	0x3cbe79c6	0.023251425
114	0xbdb9a3b3	-0.09064426
115	0x3d8af635	0.067852415
116	0x3ccf0cd3	0.02527467
117	0xbd86f460	-0.065895796
118	0x3ccc7003	0.024955755
119	0x3dae250e	0.08503161
120	0xbda4924b	-0.08035716
121	0xbc9229f7	-0.017842276
122	0x3dc6593f	0.09684991
123	0xbd491c3d	-0.049099196
124	0xbd5462b8	-0.051851958
125	0xbd77784d	-0.060417462
126	0xbd898261	-0.06714321
127	0x3dc4d50f	0.0961095
128	0xbe0cda63	-0.13755183
129	0xbd93e266	-0.072209165
130	0xbd540751	-0.05176479
131	0xbc835906	-0.01603366
132	0x3d8a95e0	0.06766868
133	0xbd8f159f	-0.06986546
134	0x3dace929	0.08442909
135	0xbdaa775e	-0.08323549
136	0xbda4dcbd	-0.08049915
137	0xbdc50d57	-0.09621685
138	0xba4c6d0e	-0.0007798233
139	0x3dbf75e2	0.09348656
140	0x3c0a4f2f	0.00844173
141	0xbe105c9e	-0.1409783
142	0x3e088546	0.1333209
143	0x3ce9b828	0.028530195
144	0x3d4f31ba	0.050584532
145	0xbd06fd06	-0.032956146
146	0x3d8b1f7a	0.06793113
147	0x3d82ea78	0.063923776
148	0x3d5e5651	0.054281536
149	0x3c97ea06	0.018544208
150	0xbd23c4e7	-0.039982703
151	0xbd10d4ed	-0.03535931
152	0xbca48d2b	-0.020086845
153	0x3e1025c6	0.1407691
154	0xbda08f26	-0.078398034
155	0x3da151ac	0.07876906
156	0x3d97e37e	0.074164376
157	0x3d32d7e7	0.04366293
158	0xbd9c62c2	-0.07636024
159	0x3e269ebb	0.16271488
160	0xbe3182e1	-0.17335083
161	0x3d66b23b	0.056322318
162	0xbd083341	-0.033252005
163	0x3c5e69ba	0.013575012
164	0xbde4718f	-0.11154472
165	0xbcb35652	-0.021891747
166	0xbc4dc5a8	-0.012559332
167	0x3d7ee8cb	0.062233727
168	0x3e09a34e	0.13441202
169	0xbdbd4e0d	-0.09243403
170	0xbd86c443	-0.06580403
171	0xbc76f582	-0.015073182
172	0xbdcb005c	-0.09912178
173	0x3a1a1c3e	0.0005878842
174	0x3d840d95	0.06447903
175	0xbda8116f	-0.0820645
176	0xbdbb4d16	-0.09145562
177	0xbdeecb98	-0.11659926
178	0x3d33fe1c	0.04394351
179	0xbcce5962	-0.025189105
180	0x3da43512	0.08017935
181	0xbc48aea5	-0.01224867
182	0xbccd9134	-0.025093652
183	0xbd13c925	-0.0360805
184	0xbd990a87	-0.07472711
185	0xbc7d4b41	-0.015459836
186	0xbdebe1dc	-0.11517689
187	0x3e1fcca9	0.15605415
188	0xbe28ac8f	-0.16472076
189	0xbdee532d	-0.11636958
190	0x3b0e6219	0.0021725951
191	0xbcda0afe	-0.02661657
192	0xbd2adb05	-0.04171278
193	0xbd5348b7	-0.05158302
194	0x3cf530f0	0.029930562
195	0x3b86df3e	0.004115968
196	0xbd80135f	-0.06253695
197	0x3df10158	0.117678344
198	0x3d29f527	0.04149356
199	0xbd21d019	-0.039505098
200	0xbdba10c4	-0.09085229
201	0x3de1433b	0.10999151
202	0x3d8ca365	0.068671025
203	0xbb288ba7	-0.0025718005
204	0xbe7bc8bd	-0.24588294
205	0x3df79714	0.12089363
206	0x3d17482f	0.036934074
207	0xbd34df5b	-0.04415832
208	0x38ace8ee	8.244986e-05
209	0x3d487612	0.048940726
210	0x3e07d809	0.13266005
211	0x3bd274d6	0.0064226193
212	0xbd39ae88	-0.04533246
213	0xbd901a66	-0.07036285
214	0x3de67c84	0.11254218
215	0xbccd1764	-0.025035568
216	0xbcdc8f49	-0.026923792
217	0xbdc18878	-0.094498575
218	0x3cb81d3f	0.022474883
219	0xbd98a887	-0.07454019
220	0x3dac4fe8	0.084136784
221	0x3dd7a184	0.105288535
222	0xbc85c3f4	-0.01632879
223	0xbd2d8002	-0.042358406
224	0xbc9bae1a	-0.019003917
225	0x3ca3cf83	0.01999641
226	0xbdab017c	-0.083498925
227	0x3bd5560b	0.0065105013
228	0x3c89f28f	0.016839294
229	0x3dc939d1	0.09825481
230	0xbe274503	-0.1633492
231	0xbd865edb	-0.06561061
232	0x3e1e65b4	0.15468484
233	0xbc68b434	-0.01420312
234	0xbdf22bd2	-0.11824764
235	0x3cccfb40	0.02502215
236	0xbdb2b102	-0.08725168
237	0xbdb6f81d	-0.089340426
238	0xbd47b076	-0.04875227
239	0x3e3be8ef	0.18350576
240	0x3c93b060	0.018028438
241	0xbe19ec4c	-0.15031546
242	0x3ca02cd1	0.01955262
243	0xbd844682	-0.06458761
244	0x3e1657a8	0.14681876
245	0xbe126617	-0.14296757
246	0xbba7c298	-0.005119633
247	0xbd72a171	-0.059235994
248	0x3cb9e4d5	0.022692123
249	0xbcf32ea1	-0.02968532
250	0xbdaf01da	-0.08545275
251	0xbd161bd3	-0.03664763
252	0x3c8575e8	0.016291574
253	0xbc93ca84	-0.018040903
254	0x3c37ff10	0.011230245
255	0xbd9e2b41	-0.07723094

classifier.0.bias f4 [64]
0	0xbb1d3c53	-0.0023992255
1	0x3d2f324b	0.042772572
2	0x3ca871c6	0.020562064
3	0x3b529971	0.0032134915
4	0xbc0a111d	-0.008426932
5	0xbd3b15ea	-0.045675196
6	0x3db2be91	0.08727754
7	0x3d904e52	0.070461884
8	0x3dafd133	0.085848235
9	0x3cd982e7	0.026551677
10	0xbd94d517	-0.07267206
11	0x3ce842a8	0.028352097
12	0x3dbc5bbc	0.091971844
13	0x3ce0fe45	0.027464995
14	0xbdb1f51b	-0.08689328
15	0xbca517d2	-0.02015296
16	0xbc8e3465	-0.017358968
17	0x3d7a650c	0.061131522
18	0x3bf11fbf	0.0073585208
19	0x3da75ce3	0.081720136
20	0xbd9c4b09	-0.07631499
21	0xbd0d1470	-0.03444332
22	0x3d50f30f	0.05101305
23	0x3dc0bc40	0.09410906
24	0xbd9ad1ae	-0.075595245
25	0xbd077e91	-0.033079688
26	0x3d45deaf	0.04830807
27	0xbcde1601	-0.027110102
28	0xbd1c6efd	-0.038191784
29	0xbc8d4c9a	-0.01724844
30	0xbdc06ebc	-0.09396121
31	0xbdb6ad42	-0.08919765
32	0xbb6208b7	-0.0034490058
33	0x3e0f14a8	0.13972723
34	0xbcc3aa90	-0.023885041
35	0xbdca1317	-0.09866922
36	0x3def5bd9	0.116874404
37	0x3c884a66	0.016637038
38	0xbcf280da	-0.029602457
39	0xbdd69e16	-0.10479371
40	0x3d240ec0	0.04005313
41	0x3d78e719	0.060767267
42	0xbc841ade	-0.016126093
43	0x3aa25c1a	0.0012387068
44	0xbd9d1c06	-0.07671361
45	0xbbe9f821	-0.007140175
46	0x3d35a620	0.044347882
47	0x3dc7206f	0.09722983
48	0xbc4f70fc	-0.012661215
49	0x3d09b1f5	0.03361698
50	0x3dd475d6	0.10374038
51	0x3e15a165	0.14612348
52	0x3926f73e	0.00015923099
53	0xbc534f21	-0.012897284
54	0x3dce6450	0.10077727
55	0x3d6ecf0e	0.05830293
56	0x3d666611	0.05624968
57	0x3c997dad	0.018736685
58	0x3d630a2b	0.05542962
59	0xbb216d90	-0.0024631955
60	0xbd26df54	-0.040740326
61	0x3d32ea84	0.043680683
62	0xbba87d62	-0.0051419
63	0xbacca7ae	-0.0015613937

classifier.3.weight f4 [1, 64]
0	0x3dcbbca1	0.099480875
1	0xbdd65f4c	-0.10467395
2	0x3c3dcdb2	0.011584686
3	0xbc565ae4	-0.013083193
4	0xbe276e86	-0.16350755
5	0xbe07a188	-0.13245213
6	0xbdcbc5f9	-0.0994987
7	0x3dcf8fd2	0.101348534
8	0xbe0b0a55	-0.1357816
9	0xbe278698	-0.16359937
10	0x3e5726ee	0.21010944
11	0x3b5cbb09	0.0033680818
12	0xbd8dfbcd	-0.06932793
13	0x3d65f9b2	0.05614633
14	0x3d1294a0	0.03578627
15	0xbde131d4	-0.10995832
16	0x3d7c77c7	0.061637666
17	0x3caab76f	0.020839421
18	0x3d90623d	0.070499875
19	0xbdd429d2	-0.10359539
20	0x3d79a272	0.060945936
21	0xbd8b5574	-0.06803408
22	0xbe962679	-0.29326227
23	0xbe1b77e5	-0.15182455
24	0x3d79d30a	0.06099228
25	0xbe13bbfa	-0.14427176
26	0xbe10b329	-0.14130844
27	0xbdd57f6c	-0.104246944
28	0xbdab98fe	-0.0837879
29	0x3ddadbde	0.106864676
30	0x3c4536ce	0.012036992
31	0x3d98519a	0.07437439
32	0x3da1b87e	0.07896517
33	0xbd879329	-0.066198654
34	0x3c521f75	0.012824883
35	0x3d941910	0.07231343
36	0xbe211e2e	-0.15734169
37	0xbe44ece1	-0.19230987
38	0x3d7646e3	0.060126197
39	0x3cf6f994	0.030148305
40	0xbdbe04f2	-0.09278287
41	0x3cf73962	0.03017873
42	0xbd9d0130	-0.07666242
43	0x3cad443f	0.021150706
44	0x3ad8949c	0.0016523781
45	0xbe0e07b6	-0.13870129
46	0xbe1ad81d	-0.15121503
47	0xbd408437	-0.04700109
48	0x3cb9113a	0.022591222
49	0x3d9e1fc5	0.07720903
50	0xbd9def14	-0.07711616
51	0xbdbc52e8	-0.091955006
52	0x3d950011	0.07275403
53	0xbdfda47c	-0.123848885
54	0xbd8dbb33	-0.06920471
55	0x3bda125c	0.0066550206
56	0x3d63054e	0.05542498
57	0xbe126467	-0.14296113
58	0xbdf9d189	-0.12198169
59	0xbe0c59cc	-0.1370613
60	0x3dd5f42b	0.10446962
61	0xbdae6afe	-0.08516501
62	0x3c5ddc51	0.013541297
63	0x3dd13b89	0.102164336
