checkpoints/palmitoylation_agent.pt (torch, 35576 bytes, 3 tensors)

classifier.0.weight f4 [64, 128]
0	0x3da976de	0.08274625
1	0x3cd7698b	0.026295444
2	0xbdb5cccf	-0.08876955
3	0x3cf24cdb	0.029577663
4	0x3cc04c0b	0.02347376
5	0xbbaf3e3b	-0.0053479946
6	0x3c230f98	0.009952448
7	0x3c9c3aa3	0.019070929
8	0x3cae755b	0.021296194
9	0x3d91c66a	0.071179226
10	0xbd3d9138	-0.04628107
11	0xbd465374	-0.04841943
12	0xbcee9417	-0.02912335
13	0x3d6b89d9	0.05750451
14	0xbb97446a	-0.00461631
15	0x3da688e9	0.08131582
16	0xbc34d9f5	-0.011038293
17	0x3d7bc129	0.06146351
18	0xbd91dec5	-0.07122568
19	0x3cb9a263	0.02266044
20	0x3d450bf3	0.0481071
21	0xbc646ba4	-0.013941679
22	0xbd19cdd3	-0.037549805
23	0x3d22af7a	0.03971813
24	0x3c2f1113	0.010685223
25	0x3d37ae94	0.044844225
26	0x3d0843ea	0.033267893
27	0x3c6059e4	0.013693307
28	0xbd86a6e4	-0.065748006
29	0xbd30fb3b	-0.043208342
30	0x3ddceaa5	0.107869424
31	0x3d6a2fe9	0.057174597
32	0xbd32b5f1	-0.043630544
33	0x3b84f7ee	0.004057876
34	0x3d05af47	0.03263786
35	0x3d40bc3c	0.047054514
36	0x3dd722f7	0.10504716
37	0xbc9ee27a	-0.019395102
38	0x3cc6af8d	0.024253631
39	0x3c3fa5d6	0.011697253
40	0x3d76d3b4	0.06026049
41	0xbd3821ee	-0.044954233
42	0x3cd3120a	0.025765438
43	0x3d4310e0	0.047623515
44	0x3d1880aa	0.03723208
45	0xbdd96d95	-0.10616604
46	0xbb9d06cc	-0.00479207
47	0xbd88a4ed	-0.06672082
48	0xbd2b50b5	-0.041825015
49	0x3d81048e	0.06299697
50	0x3d537fa9	0.051635418
51	0x3d7e1cbf	0.062039133
52	0xbdcc7394	-0.09982982
53	0xbd3107bf	-0.043220278
54	0xbd469485	-0.048481483
55	0x3b02fb71	0.0019986297
56	0x3d65ed7e	0.056134693
57	0x3b913171	0.0044309427
58	0xbd8ec741	-0.069715984
59	0xbc00809e	-0.007843165
60	0xbb7b086e	-0.0038304585
61	0xbc6532d7	-0.013989172
62	0x3db21a35	0.08696405
63	0x3cdf8b51	0.02728811
64	0x3d03fe07	0.03222468
65	0x3db41bfa	0.087943986
66	0xbd967ca5	-0.07347993
67	0xbc89de79	-0.016829716
68	0x3d5c8989	0.0538421
69	0xbced6bb4	-0.02898202
70	0xbca438c8	-0.020046607
71	0x3da842f2	0.08215894
72	0x3c22867a	0.009919757
73	0x3d721e62	0.059111007
74	0xbdcd8713	-0.10035529
75	0x3c71c70e	0.014756931
76	0xbca872bc	-0.020562522
77	0x3d6ea07b	0.058258515
78	0x3caf35da	0.021387983
79	0x3db24cca	0.087060526
80	0xbcade108	-0.021225467
81	0xbd1ffe58	-0.03906092
82	0xbd867451	-0.06565154
83	0x3d1147f8	0.035469025
84	0x3d9dc5d3	0.077037476
85	0xbd0a42c8	-0.033755094
86	0x3c24156b	0.010014872
87	0xbd8f4788	-0.069960654
88	0xbd995d9d	-0.074885584
89	0xbd3f3bc3	-0.046687853
90	0xbd535c79	-0.05160186
91	0x3da1369c	0.07871744
92	0xbd2b51ea	-0.041826166
93	0x3c9d223f	0.019181369
94	0x3cbbb888	0.02291514
95	0x3d36a8f0	0.044594705
96	0x3cd8bd10	0.02645734
97	0x3d8cc11f	0.068727724
98	0x3d7e95a8	0.062154442
99	0xbd120ffa	-0.035659768
100	0x3c897552	0.016779575
101	0xbda2ea59	-0.079548545
102	0x3da2e547	0.079538874
103	0x3cc8876b	0.024478635
104	0x3d71d2b6	0.05903884
105	0x3d7c7950	0.06163913
106	0x3bed19a3	0.007235722
107	0x3d982a4f	0.07429945
108	0x3c49f3d9	0.012326204
109	0x3d0e0b77	0.034678902
110	0xbdd159d6	-0.10222213
111	0xbd843e7c	-0.064572304
112	0x3d92591a	0.07145901
113	0xbd82e5dc	-0.063914984
114	0xbd7f8300	-0.06238079
115	0xbd8581c8	-0.065188944
116	0x3d530e13	0.051527094
117	0x3d095ebd	0.033537615
118	0xbd93ba50	-0.07213271
119	0xba7944c9	-0.0009508846
120	0xbb9e1a90	-0.004824944
121	0xbc36c94e	-0.011156393
122	0xbd3cdda7	-0.04610982
123	0x3db6bc71	0.08922661
124	0xbd84fba1	-0.06493307
125	0xbd5291e0	-0.05140865
126	0xbd6ba791	-0.05753285
127	0x3dd38d97	0.103297405
128	0xbd05a59f	-0.03262865
129	0xbceedab5	-0.029157022
130	0x3c66b6fb	0.014081712
131	0xbcc81310	-0.024423152
132	0xbdc721d8	-0.09723252
133	0xbd2737f1	-0.040824834
134	0xbc08b76e	-0.008344514
135	0xbd3f36ae	-0.046683006
136	0xbd2d6ed8	-0.042342037
137	0x3d3f819f	0.046754476
138	0x3d4782fc	0.0487089
139	0xbd1ee60a	-0.0387936
140	0xbb19fa67	-0.0023495199
141	0x3cb16ca1	0.021658244
142	0xbd1f1990	-0.038842738
143	0x3d0234f3	0.031788778
144	0xbd711616	-0.058858953
145	0xbc39765a	-0.011319721
146	0x3ba724e9	0.0051008356
147	0xbd42eeb7	-0.047590937
148	0xbd21a88d	-0.039467383
149	0xbdb0a425	-0.08625058
150	0xbcfdfc21	-0.031004013
151	0x3d425961	0.04744852
152	0xbd45ac29	-0.048259888
153	0xbda3a84f	-0.07991087
154	0x3d0b071d	0.03394233
155	0xbddd4eb5	-0.10806028
156	0x3d7829d9	0.060586784
157	0x3d1fbe39	0.03899977
158	0x3d2533a1	0.04033244
159	0xbd2779c1	-0.040887598
160	0x3c6259bd	0.013815341
161	0xbd5412c2	-0.0517757
162	0xbc88c2bf	-0.016694425
163	0x3bccb776	0.006247456
164	0x3bb1d972	0.005427533
165	0xbd883ecc	-0.066526026
166	0x3d757418	0.05992517
167	0xbc8ee913	-0.017445123
168	0xbae999bd	-0.0017822307
169	0x3d3448a1	0.044014577
170	0xbd1c3ff4	-0.038146928
171	0x3c26d377	0.010182253
172	0xbb5b471a	-0.0033459128
173	0xbdd6af1c	-0.10482618
174	0xbb50934f	-0.0031826084
175	0xbcd2fb96	-0.025754731
176	0xbd906d92	-0.07052149
177	0x3cd6af92	0.026206765
178	0xbda430a4	-0.0801709
179	0x3d677825	0.056511063
180	0xbdd9d824	-0.10636929
181	0xbc5dabfa	-0.013529772
182	0xbcdd789a	-0.027035046
183	0x3c84ebb8	0.01622568
184	0xbcbbed57	-0.02294032
185	0xbc0cdbf0	-0.008597359
186	0x3d83ef1e	0.06442092
187	0xbb3ca267	-0.0028783323
188	0xbd30c5f4	-0.043157533
189	0x3d664d57	0.0562261
190	0x3cbd8045	0.023132453
191	0xbcd47695	-0.02593545
192	0x3ca2c86e	0.019870963
193	0x3c657920	0.014005929
194	0x3d217a76	0.03942343
195	0x3c8d11ff	0.017220495
196	0x3ce6f7c6	0.02819432
197	0x3c104088	0.008804448
198	0x3cad3258	0.02114217
199	0x3bfa57b4	0.0076398496
200	0x3c0bf3fa	0.008542055
201	0xbcf6b552	-0.030115757
202	0xbd59b22f	-0.053148445
203	0x3db46faf	0.088103645
204	0x3d323503	0.043507587
205	0xbc59e5f6	-0.013299456
206	0xbb444310	-0.00299472
207	0xbc266d14	-0.010157842
208	0xbd8c8587	-0.06861406
209	0xbd0bea15	-0.034158785
210	0x3cd018f1	0.025402518
211	0x3d67654f	0.0564931
212	0xbbe2f524	-0.0069261957
213	0x3ce8e9a3	0.02843172
214	0xbd8de011	-0.06927503
215	0x3cd0855a	0.025454212
216	0x3cee6399	0.029100226
217	0xbd810302	-0.06299402
218	0x3d266566	0.040624045
219	0x3dbf7d3f	0.09350061
220	0x3d8ce326	0.068792626
221	0x3c80ea2b	0.01573666
222	0x3c84c7ea	0.016208608
223	0x3d95b99f	0.07310795
224	0x3c7e66e5	0.015527462
225	0xbd0a7755	-0.03380521
226	0x3dd11fc2	0.102111354
227	0xbdd690e4	-0.104768544
228	0xbd16acb8	-0.03678581
229	0xbd8cec64	-0.068810254
230	0x3d5dbfc3	0.054137956
231	0xbd3a2925	-0.045449395
232	0xbd5dc1be	-0.054139845
233	0xbd40625d	-0.046968807
234	0x3c9ba7ed	0.019000972
235	0xbd48b7dc	-0.049003467
236	0x3dbd5ef6	0.09246628
237	0x3d732836	0.05936452
238	0x3ad4bad2	0.0016229993
239	0xbd9c68dc	-0.07637188
240	0x3c874685	0.016513119
241	0x3d8569bf	0.0651431
242	0xbd48aac3	-0.048990976
243	0xbd307bc8	-0.043086797
244	0x3d11363d	0.035452116
245	0xbd92ecf9	-0.07174105
246	0x3d147ed9	0.036253784
247	0xbd3da10d	-0.046296168
248	0x3d3f0c51	0.046642605
249	0xbd40c6de	-0.047064655
250	0x3d77f4eb	0.060536306
251	0x3c02b2d4	0.007977206
252	0xbbbbea29	-0.005734701
253	0xbd6097e5	-0.054832358
254	0xbc077a0d	-0.008268845
255	0xbb8077e1	-0.0039205407

classifier.0.bias f4 [64]
0	0x3d21d09b	0.039505582
1	0xbc8ca925	-0.017170498
2	0xbd5b8681	-0.05359507
3	0x3d543184	0.051805034
4	0xbd056bf6	-0.032573663
5	0xbdcd17aa	-0.10014279
6	0x3d58b237	0.052904334
7	0x3d1c484f	0.038154896
8	0xbc9da7c9	-0.019245045
9	0x3d0cf22f	0.03441065
10	0xbccf8199	-0.025330352
11	0xbcb810bc	-0.022468917
12	0x3d83f15a	0.064425185
13	0xbd785557	-0.06062826
14	0x3c1cfd22	0.009581836
15	0xbda47bdd	-0.080314375
16	0x3d9eb673	0.07749643
17	0xbd314145	-0.043275137
18	0x3df5a82c	0.11994967
19	0xbcc00d49	-0.023443835
20	0x3d082ba6	0.03324475
21	0x3d852a6e	0.065022334
22	0x3d28d154	0.041215256
23	0xbddb1f47	-0.10699325
24	0x3da3c14d	0.079958536
25	0x3ce9124c	0.028451107
26	0xbd7569db	-0.059915405
27	0x3d717bf0	0.058956087
28	0xbdbd5983	-0.09245589
29	0x3d42e4c9	0.047581468
30	0x3d47f1b1	0.04881448
31	0x3cf5fa4f	0.030026583
32	0x3d8476b7	0.064679556
33	0x3dddf95a	0.10838576
34	0xbd45ebff	-0.048320767
35	0xbc2e0c5b	-0.010623063
36	0x3d5f0367	0.054446604
37	0xbd38e8be	-0.045143835
38	0x3dca7da2	0.09887244
39	0x3d9d9a1f	0.07695412
40	0xbdaa9afb	-0.083303414
41	0x3cc32e26	0.023825716
42	0x3bd1d596	0.0064036353
43	0x3d2a2513	0.041539263
44	0x3d078b80	0.033092022
45	0xbadfca50	-0.0017073844
46	0xbd1e1cf4	-0.03860183
47	0x3dce51d0	0.10074198
48	0xbde91930	-0.11381757
49	0x3d00801f	0.031372186
50	0xbdc0bd59	-0.09411115
51	0x3d4afea0	0.049559236
52	0x3ba98eda	0.0051745
53	0x3bbf4789	0.005837385
54	0x3d80eff1	0.06295765
55	0x3bee2f4a	0.007268821
56	0x3d6cd4a6	0.057819985
57	0x3ddf1c29	0.10894043
58	0xbd290e0f	-0.041273173
59	0x3d81d90d	0.06340227
60	0x3d1671df	0.03672969
61	0xbddd2f4a	-0.10800035
62	0xbdb6028b	-0.08887204
63	0x3dcf121a	0.101108745

classifier.3.weight f4 [1, 64]
0	0x3c701f42	0.01465589
1	0x3d9f792d	0.07786784
2	0xbe2461e4	-0.16052967
3	0x3dc82d36	0.09774248
4	0xbacdbaa4	-0.0015695882
5	0x3d9e910c	0.07742509
6	0x3ca86b95	0.020559112
7	0xbdb652a8	-0.08902484
8	0xbdd66631	-0.1046871
9	0xbe22b689	-0.15889944
10	0xbe216d24	-0.1576429
11	0xbd8d52b8	-0.06900543
12	0xbde16e6b	-0.11007389
13	0x3abc9c80	0.0014389902
14	0xbdf1f2e4	-0.11813906
15	0x3dc34115	0.09533898
16	0xbd9b39e1	-0.07579399
17	0x3d84777a	0.06468101
18	0xbdd7773a	-0.105207875
19	0xbe2d9ebe	-0.16955087
20	0xbdc0deaf	-0.094174735
21	0xbde59f51	-0.11212028
22	0xbe143e63	-0.14476924
23	0x3c78555f	0.015157073
24	0xbe06bf7a	-0.1315898
25	0xbde04585	-0.1095076
26	0x3d9c63b2	0.07636203
27	0xbdfc87ed	-0.12330613
28	0x3ab890f1	0.0014081282
29	0x3da43129	0.08017189
30	0xbde98b1d	-0.11403487
31	0x3d3df0df	0.04637229
32	0x3b28c37f	0.002575129
33	0xbe01a1d3	-0.12659387
34	0xbe2d7057	-0.16937385
35	0x3dd2871d	0.10279677
36	0xbe09c77d	-0.13455005
37	0x3e06203c	0.13098234
38	0xbdf5d0d0	-0.120027184
39	0xbdc1fc35	-0.09471933
40	0x3d5f3291	0.054491583
41	0xbeb2e665	-0.34941402
42	0xbe4232df	-0.18964718
43	0x3d730fa0	0.059341073
44	0xba5514e1	-0.00081284164
45	0xba41747b	-0.00073797227
46	0x3d951461	0.072792776
47	0xbe1f61f9	-0.15564717
48	0x3d7e8aa0	0.06214392
49	0xbe332485	-0.174944
50	0x3b9a0e68	0.0047014244
51	0xbe05acf5	-0.13054259
52	0xbd0b327a	-0.033983685
53	0x3dadde1b	0.08489629
54	0xbd97feaf	-0.07421624
55	0xbd9523a8	-0.072821915
56	0xbe20114b	-0.15631597
57	0xbde6e4de	-0.11274122
58	0x3e4ae2e1	0.1981311
59	0x3dd436c5	0.10362009
60	0x3c2ff47b	0.010739441
61	0x3d368a62	0.044565566
62	0x3da7fb4f	0.0820223
63	0xbd4f381e	-0.050590627
