checkpoints/phosphorylation_agent.pt (torch, 35584 bytes, 3 tensors)

classifier.0.weight f4 [64, 128]
000000 3f d7 ff 3b 41 a5 d6 3c 77 5e 23 3c 36 84 de 3c
       0.0078076418 0.026201846 0.009971253 0.027162652
000010 2d 00 72 bd 21 67 11 bb 78 4e 65 3d 0c 82 c0 3d
       -0.0590822 -0.0022186714 0.055983037 0.093998045
000020 03 fa d8 3d 98 64 c4 3c bb e8 90 3d c8 ed e4 39
       0.10594561 0.023973748 0.0707564 0.0004366471
000030 9f 30 f9 bc 5c 60 52 bd d2 18 be 3c 81 55 48 bd
       -0.030418692 -0.051361427 0.023205195 -0.048909668
000040 32 8c 3a 3c a4 96 c9 bd f6 5f 89 bc db e5 5a 3b
       0.011385964 -0.098431855 -0.01676939 0.0033401165
000050 09 59 24 bb e8 2d 27 3d d7 9b 2e 3d a9 d5 dd bc
       -0.0025077483 0.040815264 0.04262909 -0.02707942
000060 17 73 41 bd 97 73 a6 bc 83 99 fa 3c 9b d0 84 bd
       -0.0472289 -0.02031879 0.030590778 -0.06485101
000070 91 f1 0f bd ed 0d 1d 3d db c1 dc 3d 33 09 8b bc
       -0.035142485 0.03834336 0.107791625 -0.01697216
000080 aa ad 07 3d d4 85 1f 3d 88 26 74 bd 98 45 f3 3c
       0.033124603 0.038945988 -0.05960706 0.02969627
000090 71 ad 3d 3c 7f dd 0d bd c8 f0 c7 3c 33 84 46 3d
       0.011576996 -0.034635063 0.024406806 0.04846592
0000a0 dd a5 8a 3b 2b ce 35 bc 36 af fb bc b1 7d 59 bd
       0.004231198 -0.011096518 -0.030723196 -0.053098384
0000b0 33 ae 4f 3d 93 e8 b5 bd 3f 6e 88 3c f5 f8 09 bd
       0.05070324 -0.08882251 0.016654132 -0.03368469
0000c0 87 0a 9f 3c 97 a4 11 3d 84 5a 9b bd 7c 66 00 bd
       0.0194142 0.035557356 -0.07585624 -0.031347737
0000d0 14 fd 23 3b ed 0b fa bc dd 75 d7 bd e8 b4 70 bd
       0.0025022672 -0.030523265 -0.105205275 -0.058766276
0000e0 1d 60 18 3b 4d b7 de 3b b4 77 0b bd 7f 62 2e bd
       0.0023250647 0.0067967535 -0.034049705 -0.042574402
0000f0 43 2c c3 3c e6 6f 5f bd 0b c2 40 3d 1e c3 f7 3b
       0.023824817 -0.054550074 0.047060054 0.0075611016
000100 9c 3e 6c 3d a5 5f fd bc 6f 69 69 bd a7 8b 4e 3b
       0.057676896 -0.030929396 -0.056985315 0.0031516345
000110 f9 ec b2 bd 66 69 0b 3c f2 62 9f bd dd 7e f8 bc
       -0.08736605 0.008509016 -0.07782544 -0.03033393
000120 99 1c a5 bd 61 f3 01 3d ce 57 da bc 60 6b a7 3b
       -0.08062095 0.031726245 -0.026653197 0.0051092356
000130 9e 1c c0 3d 2a 19 36 bd 0f d5 1e 3c 20 25 01 bb
       0.09380458 -0.044457592 0.009694352 -0.0019705966
000140 67 d3 53 bd 11 b1 3d 3d 55 cc 25 3d d2 92 21 3d
       -0.05171528 0.04631144 0.04047807 0.03944666
000150 28 0c 9d bc c0 03 3a bd 44 fb bc 3d f7 e0 1b bc
       -0.019170836 -0.045413733 0.092276126 -0.009514085
000160 cf e8 13 bc 2d 61 dc 3d cb e2 48 3d f6 c1 5c bd
       -0.009027674 0.10760722 0.04904441 -0.053895913
000170 f4 28 35 bd c5 0c d9 bd 32 d9 28 3d 2c ef b4 3d
       -0.04422851 -0.10598139 0.04122276 0.08834681
000180 e7 a9 19 3d 7f e6 8e bc b5 3c 50 3d e7 1d b3 bd
       0.037515547 -0.017443893 0.050839145 -0.08745938
000190 87 81 95 3b 5d b4 8f 3c f9 dd c0 3c f2 73 61 3d
       0.00456256 0.017542059 0.023543345 0.055042215
0001a0 e9 c0 bb bd d2 a8 60 bd 71 ea c2 3c da 52 9a 3d
       -0.09167654 -0.0548485 0.023793431 0.07535334
0001b0 44 cf 95 3c 61 88 b7 bd af 46 67 3d 1f 85 de bc
       0.018287309 -0.08961559 0.056463894 -0.027163086
0001c0 a4 81 1b bc dc 38 c6 bb 73 46 97 3b f5 8b 80 3c
       -0.009491358 -0.0060492586 0.0046165525 0.015691737
0001d0 7d 74 ac bd 21 91 40 bd c2 eb 66 3d 0d f8 d0 3d
       -0.08420656 -0.047013406 0.05637718 0.10203562
0001e0 1a 85 55 3d 24 b8 67 3c f7 7e 0f 3d 6c c9 53 3d
       0.05212889 0.014143024 0.035033192 0.051705763
0001f0 96 83 a6 3d 2a c5 d6 3c b5 00 7b 3c 6e 93 e5 3a
       0.08130567 0.026217062 0.015319993 0.0017515251
000200 30 20 6d 3c 3d 56 03 bd 4a 15 59 bd c5 25 ea bd
       0.014473006 -0.032064665 -0.05299882 -0.11432985
000210 86 75 ce 3d 5c 6f 25 bd f4 16 90 3d 6d fa 34 3b
       0.100810096 -0.040389404 0.07035628 0.0027615086
000220 f7 71 0e be 01 66 28 be 0e cd ee 3d 4a 5d 38 3d
       -0.13910662 -0.16445161 0.11660205 0.045010842
000230 5c ec 69 3d f3 39 02 be 5f 35 d8 3b c5 8e 3e bd
       0.057110175 -0.12717418 0.006598159 -0.046522874
000240 b0 cb 5c bd f1 55 1e bd 80 ac 35 bb b7 fa 94 bc
       -0.05390519 -0.03865618 -0.0027721226 -0.018185956
000250 a5 07 f8 3c c7 3e ba 3c c0 d1 0c bd ac ee f5 bd
       0.030277083 0.022735013 -0.03437972 -0.12008414
000260 ba 51 81 3d 1c 71 c9 3d f1 81 18 3c 9d b9 a1 3d
       0.06314416 0.09836027 0.009308324 0.07896731
000270 ce 8b 25 3e 7f 1f 50 bc 43 90 0e be ee a4 8d 3d
       0.16166613 -0.012702822 -0.13922219 0.069162235
000280 dd 7f b4 bd ed 19 01 bd 05 48 36 bd da ca a1 3c
       -0.088134505 -0.031518865 -0.044502277 0.019750047
000290 4c d0 10 bc da ce b2 3d df ea 5a 3d 90 2e 07 3d
       -0.008838724 0.0873086 0.053446647 0.03300339
0002a0 0e f8 18 3e 82 52 fb bd 8b 89 b8 3c cc bc 07 bd
       0.14938375 -0.122715965 0.022526523 -0.033139035
0002b0 ca 1e 85 3e 3b 63 39 3d 1d 5a 8e 3d 39 4b c5 3c
       0.26000053 0.04526065 0.069507815 0.02408372
0002c0 09 b0 34 bd 61 b7 13 be 2d 6a 2e bc d8 ac 01 bd
       -0.044113193 -0.14425422 -0.0106454315 -0.031658977
0002d0 3a 10 18 3d 93 fb 54 3d 1b e0 41 3e 28 6c 54 3d
       0.03712485 0.051997732 0.18933146 0.05186096
0002e0 32 5b 6b bd 13 16 8e bd 5f 34 ae bd ec 47 8a 3d
       -0.057460018 -0.06937804 -0.08506083 0.06751999
0002f0 bc 98 56 bd 87 60 08 be 96 c2 13 bd 15 e7 1b 3d
       -0.052391753 -0.13318072 -0.036074243 0.038062174
000300 60 ee 0c 3d 1c d5 f1 bd ab bb 58 3d 9a 3d dc bd
       0.03440702 -0.118082255 0.05291335 -0.10753937
000310 00 ec 50 bd 08 56 92 bd b1 55 f6 3d 7d 2e 51 3c
       -0.051006317 -0.071453154 0.12028063 0.012767431
000320 5b a4 f4 bd 51 a5 91 3d 7c a8 59 3e 1f 96 82 bb
       -0.11945411 0.0711161 0.21255678 -0.003985181
000330 a6 f6 4a be 74 96 d8 3d 80 1f c2 bc bd 24 60 bd
       -0.19820651 0.10575572 -0.023696661 -0.054722536
000340 2f 55 5d 3b 9a b5 46 3d 97 a2 5c 3d e5 fe 0a 3e
       0.0033772697 0.048513032 0.053865995 0.13573797
000350 22 69 84 bd 43 4b 14 bd 59 c2 16 bd 39 c6 c6 bc
       -0.06465365 -0.036204588 -0.036806438 -0.024264442
000360 65 90 27 3d 8a 48 1e bd 22 bc 9c 3d 30 1c c2 bd
       0.04090919 -0.038643397 0.07653071 -0.094780326
000370 8a 42 49 bb a9 bf 3f 3d 1f 3a d5 bd fb b6 a4 bd
       -0.0030709826 0.04681364 -0.10411476 -0.08042713
000380 b6 14 95 3b 97 6c 2a bc ca d6 39 3c 43 e1 09 3c
       0.004549588 -0.010401866 0.011342714 0.008415523
000390 18 f2 f4 bd 3a c0 ff ba 38 f9 33 bd e8 15 bf 3d
       -0.11960238 -0.0019512244 -0.043938845 0.0933035
0003a0 1f ca 15 3e dd 93 a0 3d 86 44 ac bd 79 56 b4 3c
       0.14627884 0.07840703 -0.08411507 0.02201389
0003b0 4e 99 37 bc 35 82 4f 3d 99 47 a6 3d f1 7b 23 3e
       -0.011205984 0.050661284 0.08119125 0.15965249
0003c0 c5 8b 52 3c 4d b0 f8 bd c7 23 5c 3c 03 43 0c be
       0.012850706 -0.12143002 0.013436264 -0.13697438
0003d0 27 1f 2e 3d 91 90 ea bd 98 ce eb 3d fe e2 ee 3d
       0.042510178 -0.11453355 0.11514014 0.11664389
0003e0 f9 60 0e bd 9c 32 fd 3c 9a 38 14 bd f3 6e 7d 3d
       -0.03476045 0.030907921 -0.036186792 0.061873388
0003f0 4d 31 25 be c3 70 fd bc 5f 4b f9 bd f8 3f 02 3d
       -0.16132088 -0.030937558 -0.12172579 0.031799287

classifier.0.bias f4 [64]
000000 5c 7c bd 3b 39 0e 26 3c db 45 9b 3d fa 3a 8e 3b
       0.005782647 0.010135227 0.07581683 0.0043405266
000010 69 fa b0 bb 69 f4 03 3d f5 97 51 bd f6 40 75 3d
       -0.005400945 0.03221551 -0.05117031 0.059876405
000020 48 a5 82 3d df ff 32 3d 75 2c 1a 3d 26 0f 8b bd
       0.06379181 0.04370105 0.037640054 -0.06789999
000030 48 47 be 3b d5 70 8f 3d 8e f3 80 3c 32 43 6a bd
       0.005806837 0.07003943 0.015741136 -0.05719299
000040 69 27 8e bb 85 5e 12 3d 61 ea a2 3c 55 b5 09 3d
       -0.004338194 0.035734672 0.019887151 0.033620197
000050 b7 05 bd bd d3 16 15 3c 7b 45 a0 3d e1 b1 8d bd
       -0.09229606 0.00909968 0.07825752 -0.06918693
000060 c5 6f aa 3d 6a 47 a4 3d 0d db bf bd e7 07 87 3d
       0.083220996 0.08021434 -0.093679525 0.06593304
000070 54 ed a8 3c e2 39 b7 3d e7 80 40 3d be f2 79 3b
       0.02062098 0.08946587 0.04699793 0.003813907
000080 7c 65 fc 3c 47 09 a3 bd 29 90 1f 3d 09 ca 8d 3d
       0.03081011 -0.07960754 0.03895584 0.06923301
000090 bd 4e 27 3d 8f a2 d9 bd 4e 9d 2e bd 2a 00 e8 3d
       0.040846575 -0.10626709 -0.042630486 0.11328156
0000a0 9e ce 7f 3d dd d9 45 3c 4b 16 1f bc c6 9f c6 bc
       0.062452905 0.012075868 -0.009709905 -0.024246108
0000b0 22 d5 23 3d 38 0b 2d 3c 3e b3 56 bc 8a 54 ea 3d
       0.03999818 0.010561757 -0.013104258 0.11441906
0000c0 ef cb dd 3d 40 d0 4b 3d 5b 6a b4 bd 47 71 de 3d
       0.10829913 0.04975915 -0.08809348 0.1086145
0000d0 24 c7 d7 3c 35 02 a2 bd dc 51 b7 3d 27 ed 3e 3d
       0.026340075 -0.07910577 0.0895116 0.046612885
0000e0 78 95 e9 3d c9 6d 25 3d fb 9e 88 3d b2 9b a0 3d
       0.11405462 0.040387902 0.06670948 0.078421965
0000f0 ee 0c 8d bb 1a 9c 42 bb c7 d0 b1 3d 82 9a 2a bc
       -0.00430452 -0.0029695095 0.08682399 -0.010412814

classifier.3.weight f4 [1, 64]
000000 3f ed 0d 3c bd 53 26 be 98 5d 75 bd e6 3c 01 be
       0.008662521 -0.16242881 -0.05990371 -0.12620887
000010 93 94 39 be ba fc 2d 3d c8 aa 35 3c 65 ef ca 3d
       -0.18123083 0.042477347 0.011088081 0.09908942
000020 3a 24 e1 bd b8 ff 10 bc 60 24 be bd c3 19 96 3d
       -0.10993238 -0.008850031 -0.09284282 0.073291324
000030 c3 82 ad 3d a7 26 51 3d 8b 54 f9 bd 5f aa e2 3d
       0.084722064 0.051062252 -0.121743284 0.11067652
000040 f5 ae fd bd 03 92 77 bd 5c 49 2b be b4 d5 5b bd
       -0.12386886 -0.060441982 -0.16727203 -0.0536706
000050 2c 10 b2 3c 96 8f a3 3c a6 4e ec bd 8f 8e 72 3c
       0.021736227 0.019965928 -0.115384385 0.014804496
000060 cd 5a 11 be 1e 18 67 bd 78 db 47 3e 2b 70 1f be
       -0.14194794 -0.056419484 0.19517314 -0.15570132
000070 76 42 a8 3d fb fd a9 bd 38 0b ea 3b e3 c3 49 bd
       0.082158014 -0.08300396 0.0071424507 -0.049259078
000080 2b 52 c4 3c 45 ea 6c 3c b3 7d 5b 3d b5 ce 2c be
       0.023964962 0.014460151 0.053586673 -0.16875727
000090 78 8a e0 3d 5e 26 32 bd 61 04 fb bd 71 4c 00 be
       0.10963911 -0.04349362 -0.122566946 -0.1252916
0000a0 14 8d 1d 3d cc a4 53 3d f1 3f 04 be af 48 1e be
       0.03846462 0.051670834 -0.12915017 -0.15457414
0000b0 29 db 10 be a6 f2 80 3d da 61 32 bd 13 de 15 bd
       -0.14146103 0.062962815 -0.04355035 -0.03658874
0000c0 ba 71 a2 bd 1b 28 df 3c e9 32 91 3b 19 5d 23 be
       -0.07931848 0.027240803 0.004431118 -0.15953483
0000d0 30 ae 83 3d 97 c9 7a 3c fd 66 ef bd 1b 87 22 3e
       0.06429708 0.015306852 -0.11689565 0.15871851
0000e0 7f ed 98 bd ae 95 00 be 4b 7f f8 bd ae 91 19 be
       -0.07467174 -0.12557098 -0.12133654 -0.14996979
0000f0 b5 0d da 3d 16 75 33 be 1b 6e 13 be d4 bb 57 bd
       0.10647146 -0.17525133 -0.1439747 -0.05266936
