checkpoints/proteoform_agent.pt (torch, 235586 bytes, 12 tensors)

positional_encoding f4 [100, 32]
00000000: 75c8 d5be 1c0a 3fbe 47fe 5cbf 715b c7be
00000010: bcb5 54be 136c 1e40 71d6 0a3f ad82 84be
00000020: 978c 8bbf 8a67 00bf aadc a53e a99e cdbd
00000030: d738 5f3f cfbf 0040 e39c 1a3f f191 223e
00000040: f434 3bbf 97e1 a43d b2c5 88be f2f7 353d
00000050: e95a 763f 5f5c 88bf 1b99 683f 1179 d2bd
00000060: ee81 5e3f ebbe 14bf b185 883f 5dbb e9bf
00000070: bf5c 5c3e 677b babf f371 febe baf7 60bf
00000080: 24b1 623f d2a2 84bf 4ba5 15bf c46b 2cbf
00000090: 86fe 453f 7d86 ce3d a4b6 d63e 5921 273f
000000a0: 90a0 513e 7178 af3e d4a7 95bf 55d4 2fbe
000000b0: aff4 10bf 337c 32bf b5a1 c33f d6fe 953f
000000c0: 2df8 f53e aeeb a63f ea0f 2740 6420 c83e
000000d0: 3d07 0bbf d566 403f 0e26 0540 6467 763f
000000e0: d8a5 53bf bab2 17c0 94c7 afbf 28bc d83e
000000f0: 563c e63e eaf5 96be 1e11 d53e 0c43 8d3f
00000100: 7afc 293f 508b b8be 3232 5cbf 07c3 ae3f
00000110: bde8 11c0 2306 523f b22f 85bf c286 cb3e
00000120: c59f 073f bd55 1ebe 4bc5 9a3c 69bc 0240
00000130: 6fce ce3f c3d3 90be f4c3 33bf 974f 48be
00000140: 5a70 99be c405 8f3f ab73 b1bf d64a 9dbf
00000150: 3e8c 30be bdc6 833f e4f4 803f 4d43 a4bd
00000160: 3ba6 913e 027a 3bbf 232a 90bf d249 edbf
00000170: b4d3 883f 0ab3 353e 997a 30bf 0d1e d53f
00000180: 62f6 89bf c270 e6be fd62 0bbe 900c 5f3f
00000190: 1bf2 873e 6bef 52bd b315 94bf 937a 52bf
000001a0: 9909 403f da1f 33c0 f738 a93f 3ace 94bf
000001b0: 576c 81bf c315 803e 4b15 db3e 949b 5bbe
000001c0: 2db5 8abf 179b 82bf 5b36 ba3f 558d 7e3f
000001d0: 7ac6 0e3f 3229 123f f2e5 823f df74 2dbf
000001e0: 0a32 bb3d 9e3a 88bf cdc9 e23e 5236 a8bf
000001f0: 8a93 42bf f2b5 0fc0 b423 fbbe 1f94 bd3e
00000200: 3e5c af3f c164 cc3f a748 fa3f d49a 1e3f
00000210: 3689 9c3e 0f5a 40bf e965 073f 27f9 25be
00000220: 67b7 dfbe f4e4 953f e225 61be cafd ddbf
00000230: 1156 833f 66ca 05be f701 863f 52dc e33e
00000240: 1d65 6fbf ee79 723e 557f 6c3f c8e6 69bf
00000250: 5ba3 f4be bd94 73be 7e68 083f a14d 26bf
00000260: 1843 2c3d 3e58 1dbf 5643 33bf 3de3 913d
00000270: c933 723f d609 1ebf 20ee bdbb ba54 643e
00000280: c9af 043f 43b0 583f ecb9 babe ba56 ed3d
00000290: 7a8b a03e ae51 3a3d 29d1 973f b720 723f
000002a0: b6df b5bf e499 c43f e9fb d7be 1aa4 f4be
000002b0: d1f7 d23e 3d6f 90bf bcc1 a33f a5fb b1bf
000002c0: e9a2 edbd ccc6 483e 408c 90bf 7e42 92bf
000002d0: f297 a1bd 67d8 b0be b747 94bf 88e8 df3f
000002e0: 1a4f 8cbd d413 693d c907 25bf a567 993f
000002f0: baca f9bf be0f 1fc0 5253 a23f 90cf 203e
00000300: b278 a3bf 802b 03bf 6f17 923f cda8 403f
00000310: 0c8a 48be 9aa2 983d 201f e13e 2705 c53f
00000320: 1396 c8be 9aaf 3d3f 9e1d 06c0 6722 0240
00000330: 70f7 c4be 9fd0 eabf 5971 cfbf 691a b0bf
00000340: 4db1 d83f e9cc c13e 7b3d 8d3f d1e1 923f
00000350: b2cd ba3f 370b e03f 5476 f53e 9b13 933e
00000360: b063 8e3f c12e 05c0 917f a9be e361 0640
00000370: 944e 6f3f 4a25 cabf ef6a b3bf b4cd 5bbe
00000380: 8129 ddbe d951 18bf c700 92bf 0da0 183e
00000390: 76d4 003f 1857 8ebf b9d4 c0bc 12cb 09be
000003a0: acfa a7be 3636 59be d0d5 cb3e 3fd6 90bf
000003b0: 4612 85bf 6124 14bf c3df c53e 3636 b5bf
000003c0: 05cc b13d c42c 21bf 8dfc 743f d18e c73e
000003d0: 28b9 27bd 3433 a33e 2be8 533f 26ac c13e
000003e0: 8cba 95bf 7229 813f f729 d63d aea2 573f
000003f0: 025f ba3e 05a8 cebf 181e fc3f 7376 f93e
-0.417545 -0.186562 -0.86325496 -0.38936952 -0.20772451 2.4753463 0.5423346 -0.25880948
-1.090228 -0.5015799 0.32394916 -0.10040028 0.87196106 2.011707 0.6039564 0.15875985
-0.73127675 0.0805084 -0.2671333 0.044425912 0.9623247 -1.065319 0.9085862 -0.10276998
0.86917007 -0.5810382 1.0665799 -1.8260304 0.21519755 -1.456891 -0.4969631 -0.87878
0.88551545 -1.0362189 -0.5845534 -0.6735194 0.77341497 0.10084245 0.4193622 0.6528526
0.20471406 0.34271577 -1.1691842 -0.17170842 -0.5662336 -0.6972076 1.5283724 1.1718395
0.48040906 1.3040674 2.6103463 0.39087212 -0.5430792 0.7515691 2.0804477 0.9625151
-0.8267493 -2.3702836 -1.3732781 0.42331052 0.44967908 -0.29484493 0.41614622 1.1036086
0.66400874 -0.36043787 -0.8601409 1.3653268 -2.2798302 0.82040614 -1.040518 0.3975125
0.52978164 -0.15462394 0.018892905 2.0427496 1.6156749 -0.2828656 -0.70220876 -0.19561611
-0.2996853 1.1173635 -1.3863424 -1.2288463 -0.17240998 1.0295025 1.0074735 -0.08020649
0.28447136 -0.73233044 -1.1262859 -1.8538153 1.0689607 0.17744079 -0.6893707 1.6649796
-1.0778315 -0.45007902 -0.1361198 0.87128544 0.265519 -0.051497858 -1.1569122 -0.82218283
0.75014645 -2.798819 1.3220509 -1.1625435 -1.0111188 0.25016603 0.42789683 -0.21446067
-1.083654 -1.020358 1.4547838 0.99434406 0.557716 0.5709411 1.0226424 -0.67756456
0.091404036 -1.0642889 0.44294587 -1.3141577 -0.76006377 -2.24548 -0.49050677 0.3702707
1.3700025 1.5968248 1.9553422 0.61955 0.30573434 -0.7513742 0.5288988 -0.16208325
-0.43694612 1.1710496 -0.21987107 -1.7343075 1.026064 -0.1306549 1.046935 0.4450403
-0.9351366 0.23679325 0.92381793 -0.9136777 -0.4778088 -0.23787208 0.5328444 -0.649622
0.042056173 -0.6146277 -0.7002462 0.071234204 0.9461027 -0.6173376 -0.005796209 0.22297946
0.51830727 0.84643954 -0.36469972 0.115888074 0.31356412 0.045488052 1.1860706 0.9458117
-1.4208896 1.5359464 -0.4218438 -0.4778145 0.41204694 -1.1283947 1.2793498 -1.3904921
-0.11603338 0.19607085 -1.1292801 -1.1426542 -0.078903094 -0.34540102 -1.1584386 1.7492838
-0.06851025 0.056903675 -0.64465004 1.1984755 -1.9514992 -2.4853358 1.2681677 0.15704179
-1.2771208 -0.5123825 1.1413401 0.7525757 -0.1958391 0.07452889 0.4396906 1.5392197
-0.39176998 0.7409607 -2.0955577 2.0333498 -0.3847003 -1.8344916 -1.6206466 -1.375806
1.6929108 0.37851647 1.1034387 1.1475164 1.4594023 1.7503422 0.4794184 0.28725895
1.1124172 -2.0809786 -0.33105138 2.0997245 0.93479276 -1.579263 -1.4017009 -0.21465188
-0.43195727 -0.5949989 -1.1406487 0.14904805 0.5032419 -1.1120329 -0.023538934 -0.13456371
-0.32808435 -0.21212086 0.39811563 -1.1315383 -1.0396202 -0.5786801 0.3864728 -1.4157169
0.08681492 -0.6295893 0.9569786 0.38976148 -0.040948063 0.31875002 0.82776135 0.3782665
-1.1697555 1.0090773 0.10457223 0.84232605 0.3640061 -1.6145025 1.9696684 0.48723182

embedding.weight f4 [14, 32]
00000000: 0000 0000 0000 0000 0000 0000 0000 0000
00000010: 0000 0000 0000 0000 0000 0000 0000 0000
00000020: 0000 0000 0000 0000 0000 0000 0000 0000
00000030: 0000 0000 0000 0000 0000 0000 0000 0000
00000040: 0000 0000 0000 0000 0000 0000 0000 0000
00000050: 0000 0000 0000 0000 0000 0000 0000 0000
00000060: 0000 0000 0000 0000 0000 0000 0000 0000
00000070: 0000 0000 0000 0000 0000 0000 0000 0000
00000080: 0208 7e3f 5e18 68be 97af a1be c714 8f3f
00000090: 4256 adbf 2de7 adbf ce2f 553f d2ff b1bf
000000a0: a614 d93f 7c4f ef3d 6d36 58be 07db b4bf
000000b0: 5e93 1dbf 6633 f9bd 068b 2d3f 3ce5 20c0
000000c0: e0d6 89bf 7390 d63f 334b e83f 67ad 833e
000000d0: 5c55 d93d 371d fcbe 6b48 c4bc d164 4a3d
000000e0: 6e71 3b3f 6b39 a43f 5dc2 263f 90d2 0440
000000f0: 22fd 963f 1d25 8fbf 9291 dbbf 9263 4b3f
00000100: 57f3 e33e b516 7ebf e40f 2dbf 4d28 8abf
00000110: 7bf9 8cbe ab25 a23e af2a a13f 3b38 f6bf
00000120: 23ef 9a3f a509 d53c a733 653f 37e8 a43f
00000130: e929 713f b170 2240 715f 0dc0 545f 14c0
00000140: 74f2 b5bd a312 c5be 89b6 36bf dce7 d43e
00000150: 0476 99bf 1df3 073f c0e3 80be 29cf 133d
00000160: a244 d4bf 7cb4 dc3f 56b8 58bf ee18 b93f
00000170: 216e 9e3f 3298 b83f 2327 9dbf 2977 283e
00000180: 9f60 9d3f f36d 583e 0c39 ce3e 1494 3a3f
00000190: 9a38 e1be ec49 c53f ce40 1d3f 7ef2 aebe
000001a0: a938 e23e 4fe6 0dbe 34fc 80bf 9571 4a3d
000001b0: d9b6 0740 4923 c0be 89f5 eebe ec23 37bf
000001c0: 398a 8abf d7c1 98bf d8d7 e7bf f2f4 59bf
000001d0: eb9b b3bf 34af 473c c68a 80bf 37ae d23e
000001e0: 70e8 36bf fccd 71be 6b77 35bf 2145 06c0
000001f0: 85ba 88be e547 1cbf 7a81 e8be 65a3 11bf
00000200: 1ac3 d8bf 9124 a3bc 4f4d 993f ac97 b3bd
00000210: 61fa 923f dfd2 1240 1fe5 3abf 51cc 493f
00000220: aaa7 453e c15e 1340 0e36 e6be e4c6 233f
00000230: 5149 913f fb92 20bf fccc c2bf 2532 853f
00000240: 8c09 e03f 8584 1f3f 45d6 dc3e 775a 423f
00000250: 14ba 1d3f 9be8 053f 3a78 86bc e029 0ebe
00000260: ca92 8fbe 0d21 5dbf bae6 9c3f 2de4 553f
00000270: c287 4abf e458 4e3f a77b 0bbc 2e20 8ebe
00000280: 6121 1ebd ce31 9b3d 3b64 823e cdb4 bf3c
00000290: b536 0abf d61b 3f3e 08de e2bf 150f 693d
000002a0: 1f16 e53e 5930 95be be2d ae3f 9e21 8a3d
000002b0: 7f71 1f3e 8765 973f 5aca 6e3e eab1 a2bf
000002c0: 0d52 83bf f80e 7cbf c72b 9b3e a4b4 993f
000002d0: 476d 92bf 8c7f 893f ee54 b63f 1d70 963e
000002e0: 0096 12bf 10e4 953f 10d2 f23d 29ac 2cbf
000002f0: 9ad9 5e3f a637 433e 1f2e b8bf d04c 0ebe
00000300: c1d8 f4be 1589 9abf 3309 7d3f 8fb6 063f
00000310: 53ba ae3d 1e93 053e 4efb dfbe f7c7 413e
00000320: 473f bebf f310 323f 1693 55bf 57e3 ad3f
00000330: 9d07 4a3e 68f8 2bbf d5ac 7c3f 8b75 4abf
00000340: df29 27bf 1896 363f 2dbe 61be 4c8d e03e
00000350: eacf 433e 01ac 533f b500 f9be 9889 a93f
00000360: b9b8 133f 4875 2540 1275 663e d0ba b93f
00000370: 2e94 873e 6229 54bf 3424 0740 c1df 9abd
00000380: 1ad4 c6bf 9bda 323f 90c2 00bf 729d 0a3f
00000390: 93aa 82bd a0d3 7abf b406 bebf cc51 823f
000003a0: b7bf b53e 4236 c9bf 58d3 bb3f 18af 143f
000003b0: 2ca9 7fbf 6d42 773d 7377 2c3f 0ff0 953e
000003c0: 41b3 80bf 3013 853f 0fad 9b3e 8d99 36bf
000003d0: 0202 cd3f 533f febd e95a 6e3e d336 2f3f
000003e0: 930b 873f 3cf1 e5bf c00f 2dbf 17eb 82bf
000003f0: e405 1f3f f300 11be 8d35 923f f9b6 823f
0.0 0.0 0.0 0.0 0.0 0.0 0.0 0.0
0.0 0.0 0.0 0.0 0.0 0.0 0.0 0.0
0.0 0.0 0.0 0.0 0.0 0.0 0.0 0.0
0.0 0.0 0.0 0.0 0.0 0.0 0.0 0.0
0.9923097 -0.22665545 -0.31579277 1.1178216 -1.3541949 -1.3586174 0.8327607 -1.3906195
1.6959426 0.11685082 -0.21114512 -1.4129342 -0.6155299 -0.121680066 0.6779026 -2.5139914
-1.07687 1.6762832 1.8147949 0.25718233 0.10611984 -0.4924104 -0.023960313 0.049412552
0.73219955 1.2830023 0.65140325 2.0753517 1.1796 -1.1183201 -1.71538 0.7944881
0.4452159 -0.992534 -0.6760237 -1.0793549 -0.27534088 0.31669363 1.2591151 -1.923591
1.2104229 0.026005575 0.8953194 1.2883366 0.94204575 2.5381281 -2.2089503 -2.3183184
-0.08884135 -0.3849078 -0.71372277 0.41583145 -1.198914 0.53105336 -0.2517376 0.036086235
-1.6583445 1.724258 -0.84656274 1.4460733 1.2377359 1.4421446 -1.2277569 0.16451706
1.2295111 0.21135692 0.40277898 0.728822 -0.43988496 1.5413184 0.6142701 -0.34169382
0.44183853 -0.13857387 -1.0076966 0.049424727 2.1205351 -0.3752692 -0.46671703 -0.7153919
-1.0823432 -1.1934155 -1.8112745 -0.8513938 -1.4031957 0.012187768 -1.004235 0.4114854
-0.7144842 -0.23613733 -0.7088534 -2.0979693 -0.26704803 -0.610472 -0.45411283 -0.56889945
-1.693454 -0.019914897 1.1976718 -0.087691635 1.148266 2.2941206 -0.7300586 0.7882739
0.1930224 2.3026583 -0.44963115 0.6397536 1.1350499 -0.62724274 -1.5218806 1.0405928
1.7502913 0.62311584 0.43132225 0.7591929 0.6161206 0.5230805 -0.01641475 -0.13883162
-0.2804168 -0.86378556 1.2257912 0.83551294 -0.791134 0.80604386 -0.008513368 -0.27758926
-0.03860605 0.07577859 0.25467095 0.023401642 -0.53989726 0.18662962 -1.7724009 0.05689915
0.4474344 -0.2913845 1.360771 0.06744693 0.15570639 1.1827859 0.23319378 -1.2710545
-1.0259415 -0.9846034 0.30306837 1.2008252 -1.1439599 1.0742049 1.4244668 0.2938241
-0.5726013 1.1710224 0.118564725 -0.67450196 0.87050784 0.19064197 -1.4389075 -0.13896489
-0.4782162 -1.2073084 0.9884216 0.5262231 0.08531632 0.13044402 -0.43746418 0.18923937
-1.4863061 0.6955711 -0.8342756 1.3585004 0.19729467 -0.6717591 0.9870122 -0.79085606
-0.65298265 0.71322775 -0.22045203 0.438578 0.19122282 0.8268433 -0.48633352 1.3245115
0.5770374 2.5852833 0.22505596 1.4510136 0.2648024 -0.82875645 2.1115847 -0.07562209
-1.5533478 0.69864815 -0.5029688 0.5414649 -0.06380191 -0.97979164 -1.4845796 1.0181212
0.3549783 -1.5719683 1.4673872 0.5807967 -0.9986751 0.060366083 0.67369765 0.29284713
-1.0054704 1.039648 0.3040547 -0.7132805 1.6016238 -0.12414422 0.23276867 0.6844303
1.0550407 -1.7964244 -0.6760216 -1.0227994 0.62118363 -0.14160518 1.1422592 1.0212089

encoder.weight_ih_l0 f4 [192, 32]
00000000: 025c f7bd 02f5 acbd 2021 92bd 3471 16bd
00000010: 80f5 f8bc e2c9 9a3d 784f 5ebd ec06 e33d
00000020: 4e85 b4bd 0801 cc3d a4be 95bd 7cf3 dfbd
00000030: f009 a03c 8066 cabc 8c64 733d 3065 39bd
00000040: fc77 86bd f009 89bc 38cf 4c3d 587b aabc
00000050: de8e dbbd 50d2 b9bc e44c bcbd 80a0 85bb
00000060: c044 42bd 52d0 8f3d 98db ba3d 40b4 7dbd
00000070: 04b3 eebd a697 b73d d40a bebd 20ab 85bc
00000080: 04b8 ae3d e445 90bd 20c0 79bd 86e4 bebd
00000090: 3c73 f73d 1833 a0bd 7431 17bd 203d d9bb
000000a0: faad cd3d e6a7 9fbd fa20 a3bd 1c17 d13d
000000b0: c810 51bd eca8 e9bd 7665 833d f2ac a6bd
000000c0: 684e 553d 0a7a ca3d 6258 863d 4063 c0bc
000000d0: 0023 243a cc5a 713d 34a5 53bd dc10 d03d
000000e0: 82d4 bc3d e0ea 84bb 92d4 bfbd 983b be3c
000000f0: 4800 34bd 289c f33c 9a4b e93d 72fa 973d
00000100: f45e 53bd 0ca2 adbd f023 62bc f02f 643d
00000110: f6c9 debd 3078 46bc 70ad 3a3d 580b bcbc
00000120: 08ea 1dbd 30e4 713c d87d babd 569d aa3d
00000130: d0de 2bbd 201a 62bc 58c7 cc3d d60f e13d
00000140: c4f0 7abd a07d dbbd fa29 b13d 34f0 eebd
00000150: 747d 83bd a056 d0bb c843 7b3d e6f0 d43d
00000160: 8ad5 9dbd 5807 a5bc c817 43bd 6088 db3c
00000170: c06c c43b c822 a13d ce51 a6bd 880d ea3d
00000180: 004e 38bc 2ee5 debd b8d8 b9bc a88b 7b3d
00000190: d281 d4bd 8074 ed3c d671 b53d 0801 d1bc
000001a0: a85c b23d 4a8d bfbd 18e8 8abc a0a7 9e3b
000001b0: c02f 9e3b 4000 b7bb 1ab3 94bd 7cac a2bd
000001c0: 1826 78bd c4a3 2ebd 385d 193d f4db f0bd
000001d0: 206a 003d 20d6 fcbd 2cec 18bd b8f9 61bd
000001e0: 861a e93d e8ca 113d 70f3 113d 4ea1 d2bd
000001f0: 9e79 e73d 58e7 043d bea8 b73d e03b 81bb
00000200: 181f 833c 7000 643c 7236 e8bd 68f3 e0bd
00000210: 7a4d 84bd 10ce 5cbc 58fd 873d f839 a73c
00000220: 326c c5bd 9050 c23c 9003 5c3d 8a23 af3d
00000230: 681c be3d a863 90bc 103f d63c cccb 46bd
00000240: fc04 c63d 64d8 34bd d4ae 453d d40f d43d
00000250: 8c85 21bd 887b 36bd 40b4 293d 7669 c33d
00000260: 8084 0abd 7294 97bd 644f d03d 70ee a1bd
00000270: 8aa8 8a3d be6d a23d e204 e73d 78aa e1bc
00000280: c060 6f3b 9467 643d 40e9 d23d 3080 693c
00000290: 8089 c9bc 28d7 e53d e255 d13d 7a8f b63d
000002a0: 54d7 febd 3096 ffbc 2cfc b23d d879 e6bd
000002b0: b044 fc3d b083 2a3c 54d8 a43d eade bfbd
000002c0: 20fd 1cbc 2ccb 6cbd c800 b53d 18c2 99bd
000002d0: 6051 5bbd b435 77bd 7089 7f3c f861 af3d
000002e0: e86a 98bc 401e 6a3d 020c d73d e0c7 53bd
000002f0: 8814 9e3d c677 babd 4c83 d93d 08c7 d4bc
00000300: 9a56 c43d ecf9 7b3d 98f0 9a3c 3ec9 94bd
00000310: c44c 0cbd bc6f 6cbd 4c03 bc3d 400a 223c
00000320: c410 ffbd 24ff 423d a612 e1bd 948e 7f3d
00000330: 4cc6 913d 749a 793d 22e9 9dbd a4a5 da3d
00000340: 0afb f8bd 7c5a 8ebd 90e3 e63c ca5d fa3d
00000350: 047f 8ebd f098 083c d02b 573d 42a0 f33d
00000360: eea0 b63d 48b0 23bd 4010 113d fa07 dd3d
00000370: 54fa 07bd f076 f13d 2a81 c2bd e896 f3bd
00000380: f0ad e13c 8090 653b 72e6 ffbd 664d d33d
00000390: 84cf fb3d 4c80 7abd 64cc 313d 4065 343d
000003a0: 5e8d a2bd 60b6 41bc d892 b0bc dc37 3fbd
000003b0: 8092 cf3a 68f7 64bd 1c6b ee3d 0082 88b9
000003c0: 40cc 163b bc02 a23d 74be 25bd fc46 1b3d
000003d0: 087c 6cbd e058 003c 8037 c03a 2891 d5bc
000003e0: f8ca febd d6a5 d1bd 6041 823c fe64 b6bd
000003f0: c4a5 adbd 6e5f db3d 1c24 b2bd 5cda 6ebd
-0.12078096 -0.08445169 -0.07135224 -0.036729053 -0.030390501 0.07558037 -0.054275006 0.110853046
-0.08814488 0.09961134 -0.073117524 -0.10935113 0.019535989 -0.024707079 0.05942206 -0.045262516
-0.06565854 -0.016728371 0.050002307 -0.020810768 -0.10720609 -0.022683293 -0.09194353 -0.004077971
-0.047428846 0.07022156 0.091239154 -0.061939478 -0.11655238 0.089644715 -0.09279409 -0.01631695
0.08531192 -0.070445806 -0.06097424 -0.09320931 0.12082526 -0.07822245 -0.036912397 -0.006629601
0.10042949 -0.07795696 -0.07965274 0.10209486 -0.051041394 -0.114091724 0.064158365 -0.081384555
0.052076727 0.09886558 0.065598264 -0.023484826 0.0006261319 0.05892448 -0.05167122 0.10159466
0.0922022 -0.0040563196 -0.093667164 0.023221776 -0.04394558 0.029737547 0.11391373 0.074208155
-0.051604226 -0.084781736 -0.0138025135 0.05570978 -0.10878365 -0.012113616 0.04557556 -0.022954628
-0.038553268 0.014763877 -0.09106034 0.08330791 -0.041960537 -0.013800174 0.09998959 0.109893486
-0.06126477 -0.107173204 0.086505845 -0.11666909 -0.06420413 -0.0063579828 0.061343938 0.1039751
-0.07706745 -0.020145103 -0.0476301 0.026798427 0.0059944093 0.07867962 -0.08121072 0.11428362
-0.011249065 -0.10883556 -0.022686347 0.061412483 -0.10376324 0.028986216 0.08859603 -0.025513187
0.08709079 -0.093531206 -0.016956374 0.00484176 0.0048274696 -0.0055847466 -0.072607234 -0.07943055
-0.060583204 -0.042636648 0.037442416 -0.11760703 0.03135121 -0.123455286 -0.037334606 -0.05516979
0.11382012 0.035593897 0.03563255 -0.10284673 0.113024935 0.03244719 0.08967732 -0.0039439052
0.016006038 0.01391612 -0.113385096 -0.10983926 -0.0646009 -0.0134768635 0.06640118 0.020413384
-0.09639777 0.023720056 0.053714335 0.085517004 0.09282762 -0.017625645 0.026153117 -0.0485342
0.096689194 -0.04415168 0.048262432 0.103545815 -0.039434 -0.044551402 0.041431665 0.095415995
-0.033817768 -0.074013606 0.101713926 -0.079068065 0.067704275 0.07931088 0.11280228 -0.027547106
0.0036526173 0.055762842 0.10298395 0.014251754 -0.024601698 0.112226784 0.10221459 0.08914085
-0.12443414 -0.031199545 0.08739504 -0.112537086 0.123177886 0.010407373 0.08049074 -0.09368689
-0.009581834 -0.057810947 0.0883804 -0.075077236 -0.053544402 -0.06035395 0.0155967325 0.08563608
-0.018605664 0.057157755 0.10500337 -0.051704288 0.0771876 -0.09104876 0.10620746 -0.025973812
0.095868304 0.06151764 0.018913552 -0.072649464 -0.034252897 -0.057723746 0.09180316 0.009890139
-0.1245437 0.047606602 -0.10989885 0.062391832 0.071179 0.060938314 -0.07710482 0.10676125
-0.12157257 -0.06950852 0.028184682 0.1222492 -0.0695782 0.008337244 0.052532017 0.11895801
0.08917414 -0.039963037 0.035415888 0.10792537 -0.033197716 0.11790264 -0.09497292 -0.118940175
0.02754876 0.0035028756 -0.12495126 0.10317497 0.1229544 -0.06115751 0.043407813 0.044041872
-0.0793712 -0.011823267 -0.021554396 -0.04668413 0.0015836507 -0.055900007 0.11641523 -0.000260368
0.0023009926 0.07910678 -0.040464833 0.037909493 -0.057735473 0.007833689 0.0014664978 -0.026070192
-0.12441057 -0.10236709 0.015900314 -0.089059815 -0.08478883 0.10711561 -0.086982936 -0.058313712

encoder.weight_hh_l0 f4 [192, 64]
00000000: 4000 79bc a001 a9bd 58cb 84bd a688 833d
00000010: a80a d0bc f0eb e8bc 0099 c9bb 84d3 abbd
00000020: e42a 5d3d d4a7 a4bd 46ee b13d 601e b0bb
00000030: f2d8 cdbd cee9 a2bd 9038 49bd 4083 87bb
00000040: 281b f73c dc45 5d3d ecde 78bd febb a6bd
00000050: 503a bc3d 4469 9f3d 84b2 2c3d 4cd6 c93d
00000060: b0f8 bdbd 28d0 debd 8487 9bbd f6ca debd
00000070: 4034 f3bc a4af 64bd fcfd 373d 4cfb 2b3d
00000080: 1c4c da3d b8cc b9bc d448 ef3d 9a7e c73d
00000090: 0efe 81bd 4ed1 db3d 0090 af3a 7cc8 debd
000000a0: e035 203d b89a e1bc 00c4 9c3b e256 febd
000000b0: 88ec bd3c 2801 d9bc 281e a93c d8d8 0dbd
000000c0: 9887 833d f053 303c 04e0 98bd 0e18 f8bd
000000d0: 2810 c33d 805d 50bd da14 c83d e0e6 a13b
000000e0: 2085 dabc b86b 2b3d 7e52 d0bd a298 f23d
000000f0: 08b4 dfbc 6445 8e3d f45a a9bd c8ef e4bc
00000100: 006f 073a 98d7 583d 4ad4 823d 6cfc 24bd
00000110: 0049 103c a211 e93d 9807 98bc c678 8d3d
00000120: e4ea b8bd 5066 ebbd 207c 32bc 6cf9 e23d
00000130: b292 e8bd 8851 06bd a011 863d b24e 9a3d
00000140: 62fa 93bd dcdd e43d c6ab cebd c0b6 73bd
00000150: 7c58 ed3d 381d 19bd 7e37 cb3d fa0a 9d3d
00000160: 3851 513d d040 72bd e42b fcbd 7884 6c3d
00000170: 5c8e cdbd 1613 953d a64c bcbd 1023 6ebc
00000180: 90a1 3f3c 4058 1f3b 80e1 9e3a a602 933d
00000190: 941b aabd 6cf8 a9bd f479 3e3d 1a70 d13d
000001a0: e0a1 983d a01c 773d 7056 15bd 485f b3bc
000001b0: 7073 85bd 0072 bb3a 12d8 e53d 7c06 fc3d
000001c0: e4b2 f8bd 84a9 f43d 8034 153c 00d9 733c
000001d0: 2047 6a3c 3c81 0a3d 800b fabb c0bd 9dbb
000001e0: d0bf eebd 58e7 d9bc e828 2bbd 68fd 003d
000001f0: 024c 8b3d 06c5 afbd 147e 9b3d 6444 713d
00000200: 9c11 023d a87c a7bc a8f0 6bbd 2856 ce3d
00000210: 466d a9bd 7453 283d 0458 e83d 542d 30bd
00000220: 46bb bd3d a4dd efbd 9808 13bd 8811 d83c
00000230: 447c d8bd b0e0 353c baef d0bd 00d2 babb
00000240: 3236 803d b0bd 21bd 58b1 adbd 805e 67bb
00000250: 263e 8c3d 2a5b a0bd 5c63 c83d 5405 2d3d
00000260: a020 9e3c 0ebc d2bd d4f8 4a3d 10b0 91bc
00000270: 2c26 d6bd aa7e d13d 8088 4cbb c8fb 2bbd
00000280: e2a7 eabd ec19 da3d b881 a23c 2035 493c
00000290: 70a6 cb3d d80e ddbc 20a6 633d 0030 503c
000002a0: 5c04 babd 70b2 583c 10f6 db3d fc0d bbbd
000002b0: b018 33bc 0055 bcbb 14a5 40bd 4c7a f0bd
000002c0: c026 d1bd e470 05bd d6e5 8dbd 880d f03d
000002d0: 4498 4a3d 5eca a63d 885f b9bd 8abd a3bd
000002e0: e037 973d 9a86 a6bd d8c6 d83c 2c68 63bd
000002f0: 5004 c83c c018 be3c f686 853d 60df b13b
00000300: 3039 3c3c 7ac2 ebbd 94ab 9e3d 4413 1bbd
00000310: 52da f9bd c049 48bb e0c0 ac3c 8e13 ff3d
00000320: 1cd0 e53d 6a9f 96bd a24d b43d 4cb2 08bd
00000330: 4ab2 94bd ecfe 85bd c0fe 003b 38c5 b53d
00000340: 207b 75bc c460 f4bd 10ae b9bc 7097 4dbd
00000350: 20d0 f83d 0a71 bb3d 0863 613d c0f8 113d
00000360: 2617 d1bd 0454 7d3d c4d4 703d 9099 5cbd
00000370: 009a 493c 60b5 87bd 00f2 97ba ea1d bd3d
00000380: ba60 d8bd 0050 bd39 ac6b 34bd 34e3 383d
00000390: 40c3 4e3d bc2e 203d 7025 8fbc 7004 fd3d
000003a0: 9698 cfbd 78a1 9f3c b025 103c e60e c43d
000003b0: 5a74 c63d 181b 59bd 1e21 c9bd 909f 923d
000003c0: 50ba debd 5c5f d1bd 6caa bf3d 7c18 46bd
000003d0: 481e e7bc b0c3 08bc 68bf e33c 78df 283d
000003e0: 002b 4f3c 0816 57bd 24e9 7d3d f04c 5cbd
000003f0: dca7 e23d 602e c5bd c4cf c63d 167b ecbd
-0.0151978135 -0.08252263 -0.06484097 0.06422548 -0.025395706 -0.028432816 -0.006152272 -0.08389953
0.05399598 -0.08039823 0.08688025 -0.0053747147 -0.10051145 -0.07954751 -0.049126208 -0.0041355193
0.030164316 0.0540217 -0.06075947 -0.081413254 0.0919081 0.0778375 0.042162433 0.09855327
-0.09275949 -0.108795464 -0.07594207 -0.108785555 -0.029688 -0.055831566 0.044919953 0.041987702
0.10659048 -0.022680625 0.11683813 0.09740944 -0.06347285 0.10733281 0.0013394356 -0.10878083
0.03911388 -0.027539596 0.004784107 -0.12418915 0.023184076 -0.02648981 0.020644262 -0.034630626
0.06422347 0.0107622 -0.074646026 -0.12113963 0.09524566 -0.05087042 0.09769602 0.0049408525
-0.026674807 0.041850775 -0.10171984 0.11845519 -0.027307525 0.06946829 -0.08269301 -0.027946368
0.00051663816 0.05293998 0.06388147 -0.04027979 0.008806467 0.11380316 -0.018558308 0.06907801
-0.09029177 -0.11494124 -0.0108938515 0.1108273 -0.11356105 -0.032792598 0.065463305 0.07534541
-0.07225491 0.11175129 -0.10091357 -0.059500456 0.11589143 -0.03738138 0.09922694 0.07668109
0.051102847 -0.05914384 -0.12313059 0.05774352 -0.100369185 0.07279031 -0.09194307 -0.014534727
0.011696234 0.0024314076 0.0012121648 0.071782395 -0.08306041 -0.08299336 0.046503022 0.1022646
0.0745275 0.060330033 -0.036459386 -0.02189602 -0.065161586 0.0014300942 0.11222853 0.12305924
-0.12143496 0.11946395 0.009106755 0.01488328 0.014299184 0.033814654 -0.0076307654 -0.0048138797
-0.11657679 -0.026599571 -0.041787058 0.031491667 0.06801607 -0.08582501 0.07592407 0.058903113
0.031755075 -0.020445183 -0.057602555 0.10075027 -0.082727954 0.041095212 0.11344913 -0.04301198
0.09264235 -0.117121965 -0.035896868 0.026375547 -0.10570577 0.011100933 -0.10201974 -0.0057013035
0.06260337 -0.03948754 -0.08481091 -0.003530413 0.068477914 -0.07829888 0.09784576 0.04224141
0.019302666 -0.10289775 0.049553707 -0.017784148 -0.104564995 0.102292374 -0.003120929 -0.041988164
-0.11457802 0.106494755 0.019837245 0.012280732 0.09943855 -0.026984617 0.05557835 0.012706757
-0.09082863 0.013226137 0.10740292 -0.09133527 -0.010931179 -0.0057474375 -0.04703243 -0.11742076
-0.10212469 -0.032578364 -0.06928603 0.11721331 0.049461618 0.08144067 -0.09051424 -0.07995136
0.07383704 -0.08131142 0.026462004 -0.055519268 0.024416119 0.023205161 0.065198824 0.0054282397
0.011488244 -0.11511703 0.0774757 -0.03786017 -0.121998444 -0.0030561537 0.021088064 0.12454902
0.11221334 -0.073546246 0.0880387 -0.033373162 -0.072605684 -0.06542763 0.0019683093 0.08875507
-0.014982969 -0.11932519 -0.022666007 -0.05019325 0.12149072 0.0915242 0.055026084 0.035637617
-0.10209493 0.0618477 0.05879666 -0.053857386 0.012304783 -0.066263914 -0.0011592507 0.09234221
-0.10565324 0.00036108494 -0.044047996 0.045138553 0.050479174 0.03910707 -0.017473906 0.12354362
-0.10136525 0.019486174 0.008798048 0.09573154 0.09690161 -0.053004354 -0.0982077 0.071593404
-0.1087538 -0.102232665 0.09358677 -0.048363194 -0.028212681 -0.008347437 0.02780123 0.04122874
0.012644529 -0.052511245 0.06198992 -0.05378431 0.11067173 -0.09627986 0.09707597 -0.11546914

encoder.bias_ih_l0 f4 [192]
00000000: 7006 d5bc 1443 bfbd 00c6 083a c043 0fbc
00000010: 546c 41bd 1839 eb3d 74c0 24bd cc56 23bd
00000020: b038 25bc d6fd c73d 90ca 7d3d 6647 b43d
00000030: 4041 393c 701b 47bd 204c 1cbc 406e 04bd
00000040: 44a0 75bd 5a5c dabd 5410 5d3d bcf8 44bd
00000050: 9e36 c4bd 80df ed3c f4b0 0bbd e430 543d
00000060: c4aa 5b3d e8a8 d7bd c64f fd3d 4c5b 003d
00000070: e094 80bc d2ec a2bd 7205 e23d 0c23 58bd
00000080: 544a 31bd c010 523b 0cf9 303d 4e22 ddbd
00000090: 507e dbbc 3850 ccbc a0b4 9a3c bc9e 6bbd
000000a0: e077 333d 5235 e1bd d4d0 6d3d 0053 8a3a
000000b0: 4005 b03d 2c89 e03d 6eaf ecbd 5417 783d
000000c0: 8e42 d8bd f469 03bd ec0b 19bd 50a1 cfbc
000000d0: f066 6fbd 963e eb3d f0df fd3c 300d 92bd
000000e0: 2ade 893d b085 f5bc 8842 a2bc 2c13 aa3d
000000f0: 380f d53c 96bb b2bd a659 b63d fcb4 4e3d
00000100: bc9b 723d e0ef 77bc da23 e2bd a0e8 e5bb
00000110: e845 a63c f84b c2bc c078 fa3b 4c04 0abd
00000120: 94cf 04bd a245 c13d f084 82bd bc70 783d
00000130: d457 e03d d0b6 ed3d 46e6 f0bd 6a17 c73d
00000140: 0c95 9cbd e062 b83b 8e73 843d 40b9 5bbd
00000150: 40a5 7b3b 10e5 ba3c 2aa4 b6bd 80ac a43d
00000160: ac93 4e3d 4c1b 8f3d f8d9 b6bc d2a2 953d
00000170: 6038 46bc c816 863d a03e aebb 2492 7abd
00000180: c056 303d ec3b 51bd 942c cc3d 1233 ffbd
00000190: b0f1 e03c dc8e 823d 7498 76bd 2815 acbd
000001a0: f299 ba3d 080f 00bd 52eb f93d de39 d0bd
000001b0: 505c e63d 6483 d73d a4d0 873d 70bd 01bc
000001c0: 405c 2cbd c005 24bc 743f d7bd de23 9dbd
000001d0: a4a3 75bd a669 efbd b8e5 a93d 3499 bfbd
000001e0: 2073 77bc 2e3d be3d 542c cbbd 3c43 bb3d
000001f0: 96fd f93d 58a2 51bd 4053 963c 42bc ae3d
00000200: 00fd 793a 18e5 b63d 1431 60bd f083 96bd
00000210: 4c51 7d3d 5c51 43bd 90fe 9c3d 60f7 67bd
00000220: f8a7 853d 40ff 273c 40cc 6c3d c022 213b
00000230: 4064 12bd 50eb ddbd f859 7d3d 54e6 5bbd
00000240: d45e 48bd 2470 413d 28c8 1b3d 603e 9f3b
00000250: c807 d4bd 8a8c c3bd 1027 a23c 28f0 963c
00000260: 280a 243d c0d3 d3bb 2060 97bc f480 8dbd
00000270: 508e 853d f0ed a23d 4ea1 c33d 6832 a23d
00000280: 483e ac3c c2d8 abbd f040 52bd be7b 82bd
00000290: b4f3 afbd e07a bc3c 1045 42bc 32f1 cb3d
000002a0: a818 b7bc dcf0 d03d 48c3 503d 342e d83d
000002b0: f26b 8f3d 2214 9f3d 60d9 713c 2097 febb
000002c0: 4848 fc3d 5033 69bc a025 ebbc 540f 02bd
000002d0: 80f9 933d f2ee bfbd 7231 df3d 3016 5abd
000002e0: 8478 08bd 0616 94bd 242c aa3d 7eaa afbd
000002f0: 486d 9f3d 68f2 c8bc 8c29 92bd 7c37 afbd
-0.026004046 -0.09338966 0.00052174926 -0.00874418 -0.04722245 0.11485499 -0.0402226 -0.039877698
-0.010084316 0.09765212 0.061960757 0.08802681 0.011307061 -0.04861015 -0.009539634 -0.032331705
-0.059967294 -0.10662146 0.05397065 -0.048088774 -0.0958073 0.029037237 -0.034104303 0.05180444
0.05362965 -0.10530263 0.12368731 0.031337067 -0.01569599 -0.07955326 0.11036195 -0.0527678
-0.043283775 0.003205344 0.04320626 -0.10797559 -0.026793629 -0.024940595 0.018884957 -0.057524428
0.043815494 -0.10996498 0.058060482 0.00105533 0.08594751 0.109636635 -0.11556898 0.060569122
-0.10559569 -0.032083467 -0.037364885 -0.025345474 -0.05844778 0.11486547 0.03099057 -0.071314216
0.067318276 -0.029970974 -0.019807115 0.08304438 0.026008233 -0.087271854 0.08903818 0.05046557
0.05923055 -0.015132874 -0.110419944 -0.0070162565 0.020297006 -0.023717865 0.007643789 -0.033695504
-0.032424524 0.094371095 -0.06373012 0.060654387 0.10954252 0.11607134 -0.11762671 0.09721263
-0.07645616 0.005627021 0.06467353 -0.053643465 0.0038398057 0.022814304 -0.089180306 0.08040714
0.0504338 0.06987628 -0.022320732 0.07306446 -0.012098402 0.06547314 -0.005317524 -0.061174527
0.04305148 -0.051082537 0.0996944 -0.12460913 0.027458996 0.063749045 -0.060203984 -0.08402473
0.09111394 -0.031264335 0.12203087 -0.10167287 0.11248076 0.10523108 0.06631592 -0.007918701
-0.042080164 -0.0100111365 -0.105101496 -0.07672857 -0.059970513 -0.11690073 0.082957685 -0.09355393
-0.0151031315 0.09289013 -0.09920564 0.09143683 0.12206571 -0.051180214 0.018350244 0.08532001
0.0009536296 0.08930415 -0.054734305 -0.07349384 0.06184511 -0.047685012 0.076657414 -0.0566324
0.06526178 0.010253727 0.057811975 0.0024587363 -0.035740137 -0.10835898 0.06185338 -0.053686455
-0.04891856 0.047226086 0.03803268 0.0048597306 -0.10353047 -0.0954829 0.019794017 0.018425062
0.04004875 -0.0064644516 -0.018478453 -0.069093615 0.065212846 0.07955539 0.09552251 0.079197705
0.021025792 -0.08390953 -0.05133146 -0.06371258 -0.085914046 0.02300781 -0.011857286 0.09958114
-0.022350624 0.1020219 0.050967485 0.105556875 0.07003011 0.07767512 0.014761299 -0.0077694803
0.12318474 -0.014233425 -0.028704464 -0.0317529 0.07225323 -0.09371747 0.10898103 -0.053243816
-0.033318058 -0.07230763 0.083092004 -0.08577441 0.077845156 -0.02452965 -0.07136831 -0.08555505

encoder.bias_hh_l0 f4 [192]
00000000: 4489 03bd 207b f33b a07e a1bc 066e f73d
00000010: 540a fe3d 1e73 dfbd fe18 9c3d 8010 fb3a
00000020: 5ca7 b83d 805e 02bb ba74 acbd ee32 a83d
00000030: fc3d 183d 2099 a9bb 3e50 e13d 66f0 b7bd
00000040: c076 283c 4c27 28bd d8e3 f8bd fc6e 71bd
00000050: a493 c9bd 5060 61bd c8e4 dd3c b05c 03bd
00000060: 805b e93d 00a7 0ebd 8428 c2bd 4814 bfbc
00000070: d442 e9bd 004f da3b 824b e53d 3ca3 17bd
00000080: 24d7 233d 78d6 6a3d 341d 1bbd 08ba 8fbc
00000090: 943d 173d a238 ec3d 3009 c43d b4d9 593d
000000a0: 2c50 693d 32fa c13d 7899 7f3d 44a8 b73d
000000b0: c0df 16bc 28e9 2fbd 3a86 f7bd f0e4 cabc
000000c0: b09c d2bd 6c14 46bd 60a0 ab3c a0a9 f53c
000000d0: 6046 4dbc c8f6 af3d b467 91bd 3cfb 0ebd
000000e0: 5cf4 6dbd 1adc cb3d 005c 5eb9 5428 b03d
000000f0: 4e71 9b3d 880b fe3c c026 41bd 9c2e 50bd
00000100: 840d 65bd 30d7 92bd 2c07 5e3d b092 e4bd
00000110: ac40 683d c63e bb3d 9c4e 8a3d 52c6 a83d
00000120: 2484 bbbd 22b3 fc3d 04ff 393d 3aea 8d3d
00000130: 4c00 ea3d a019 2bbd 70e8 41bc e046 b63c
00000140: c4e9 22bd b6db b9bd a09c 4bbd a291 a23d
00000150: 9a16 8e3d 421e a13d b4ef 593d b092 bbbc
00000160: e49f c23d 203e 2d3c 94c2 70bd 00a9 2a3c
00000170: 7040 053d 52ff 973d 109e 1abd 04a5 603d
00000180: 7c87 b13d 0611 a03d 8c51 ca3d 6cba 9f3d
00000190: b806 bb3d e42b f0bd 808c ecbd 8a68 a53d
000001a0: fc21 89bd 0cc6 313d 7a36 f6bd 18ab 31bd
000001b0: 62ed ba3d 741e 35bd 28e7 4abd 6214 d9bd
000001c0: f090 99bc c009 443b 4c66 65bd 740e ea3d
000001d0: 2020 dd3b 7012 3e3d 0eee c43d d4db d4bd
000001e0: 02ff dfbd 4484 603d 6edf dabd 00e1 763c
000001f0: 5ccd ab3d b035 2dbc d209 8b3d 6ea0 bd3d
00000200: 28fd c03c ac15 b33d 706d d1bc 36d5 fc3d
00000210: 38fe c33c e864 a0bc 405c 713b 6aa9 f6bd
00000220: b233 d83d c8f6 46bd 1878 eb3d a201 ccbd
00000230: ac5d 15bd 4497 0dbd d06b dcbc eeaa dcbd
00000240: d822 103d 6482 5d3d 04a2 efbd 6e6d 9dbd
00000250: d2da 983d 065d a03d 80ac 81bb 80c2 6cbb
00000260: a09c 27bc 88cf 4fbd 68ff 473d a84c 56bd
00000270: 2866 aebd 0c79 5c3d a85d 87bd f8af a63d
00000280: d83a cc3c c2f9 983d 30d3 83bd a0d7 833c
00000290: d65b b4bd da7c fd3d 6aa3 8c3d 881c fe3c
000002a0: 16f8 ac3d b8ad f5bd 00f8 c3ba 7649 aa3d
000002b0: 70f9 c53d 802e dbbd 4cf0 ee3d 8ebb d03d
000002c0: 0823 2ebd 747f d73d 9684 f23d 74df 2f3d
000002d0: 322d 9fbd 0002 7ebb 0080 7c38 02ee e33d
000002e0: 2019 3a3c e6e8 c43d 4cb5 9cbd 1ca0 bc3d
000002f0: 5648 973d 3427 15bd 9e0c 8abd 848e f6bd
-0.03211333 0.007430449 -0.0197137 0.12081532 0.12404314 -0.10910629 0.076219544 0.0019154698
0.09016296 -0.0019892752 -0.08420701 0.08212839 0.037168488 -0.0051757246 0.11001633 -0.08981399
0.010282218 -0.0410531 -0.12152833 -0.058943734 -0.09842613 -0.05502349 0.02708663 -0.032070816
0.11394405 -0.034827232 -0.09480384 -0.0233251 -0.113896996 0.0066622496 0.111960426 -0.037020907
0.040000096 0.05733344 -0.037869647 -0.017544761 0.03692396 0.11534239 0.09572065 0.053186134
0.056961223 0.09471549 0.06240222 0.08967641 -0.00920862 -0.042946965 -0.120861486 -0.024767369
-0.10283792 -0.04835932 0.020950496 0.02998811 -0.012528986 0.08591992 -0.07099858 -0.034907565
-0.058094367 0.099540904 -0.00021205842 0.08601442 0.075899705 0.031011358 -0.047156096 -0.0508257
-0.055921093 -0.0716995 0.05420606 -0.11160791 0.0567023 0.091428325 0.06753275 0.082409516
-0.09156063 0.12338854 0.045409217 0.06929441 0.11425838 -0.041772485 -0.011835203 0.022250593
-0.039773718 -0.0907511 -0.049709916 0.079379335 0.06937905 0.07867099 0.053207114 -0.022897094
0.09503153 0.010573894 -0.058779314 0.010416269 0.032532156 0.07421745 -0.037748396 0.05484487
0.0866842 0.07815747 0.09878835 0.07799229 0.09132141 -0.117271215 -0.11550236 0.0807658
-0.06695935 0.043401763 -0.12022109 -0.04337606 0.091273084 -0.044218495 -0.049536854 -0.10599591
-0.01874587 0.0029913038 -0.05600576 0.11428538 0.0067482144 0.046404302 0.09615718 -0.103934914
-0.10937311 0.05481364 -0.10687147 0.015068293 0.083887786 -0.010571882 0.067889825 0.09259115
0.023558214 0.08744368 -0.02556488 0.12345354 0.023924932 -0.019579366 0.0036828667 -0.12044032
0.10556735 -0.048575193 0.114975154 -0.09961249 -0.036466286 -0.034568086 -0.026906878 -0.1077479
0.03518948 0.05407943 -0.11700824 -0.07686888 0.07463612 0.07830243 -0.003957331 -0.0036126673
-0.010230213 -0.050735027 0.04882756 -0.0523192 -0.085155785 0.053826377 -0.066096604 0.08139032
0.024930403 0.074695125 -0.06436765 0.016094029 -0.08806579 0.12377329 0.06867106 0.031019464
0.08445756 -0.11996025 -0.0014951229 0.08314793 0.09666717 -0.107022285 0.11666927 0.10192023
-0.042513877 0.10522357 0.11841695 0.04293771 -0.07772292 -0.0038758516 6.020069e-05 0.11129381
0.011358529 0.09614734 -0.07651767 0.09210226 0.07386844 -0.03641434 -0.06740688 -0.120389014

encoder.weight_ih_l0_reverse f4 [192, 32]
00000000: 0c36 ec3d 38f1 fbbd a09a 7f3c e4a6 a93d
00000010: 80bf 40bb c0c9 363b 38ba a43c d4ad 41bd
00000020: 2011 a9bc 1a2d 8c3d 7cbf abbd 609d da3b
00000030: 48b0 7ebd 041e ff3d b480 d7bd d8a2 52bd
00000040: cc5b b8bd 38de 50bd 702f 0d3c 3c77 1e3d
00000050: b0be 12bc 3a41 c83d 4442 c2bd 3cb6 6cbd
00000060: d626 c3bd 7427 67bd 426d 8ebd 948e 48bd
00000070: 848a ab3d fa4f a0bd b690 9c3d 7c1d 2f3d
00000080: 3cc1 4cbd 70e1 48bd 606a 863c ec41 523d
00000090: bc7d f93d d82f 25bd e012 ef3c 92e1 ce3d
000000a0: 0064 b8b9 7c30 b03d eef0 97bd 00ef ac3d
000000b0: 04d6 80bd c4cd 89bd c001 4abd 58d5 c1bd
000000c0: f615 d33d e8bc 9a3c d8ea 3f3d f089 433d
000000d0: a01d 1d3c 0860 7f3d 38d3 ffbc f4e3 c03d
000000e0: 5090 d8bd acd3 633d 3497 bb3d acb0 a63d
000000f0: 38d9 aabd 689c 57bd 34f1 373d 90af ecbc
00000100: 80e5 88bb 1000 ea3c 88c4 d7bc 184a dd3c
00000110: 68cb fbbd aa80 c1bd 707e 4d3d 7201 e2bd
00000120: 90b1 38bc ead0 90bd 60ae 36bd 8062 8a3d
00000130: 4cdd e73d 488c b2bc d064 d93d 8003 663d
00000140: 34d9 e4bd aa2a b2bd 809f 103b 5c82 ab3d
00000150: 64c6 7b3d 6060 423c 7851 f0bc 946e 32bd
00000160: f4c5 09bd 106b 2cbd 8814 353d fa9b d93d
00000170: 0070 54b9 a8ca f5bc ac2a 2d3d b01a 3f3d
00000180: 5015 453d 64ea 933d 58d8 933c 1833 0e3d
00000190: 04f6 c3bd 002a ddb9 0055 3b3c 6cfe 7f3d
000001a0: b4d9 35bd dc50 7cbd 58b4 92bc 3438 fcbd
000001b0: fee9 f5bd 329d 973d 181b 85bd 9676 de3d
000001c0: b012 37bc 521e c73d 6e92 fcbd 2cc5 153d
000001d0: 389f 893d 6c3d c1bd f6b5 c3bd 5c98 c33d
000001e0: 0038 9bb8 4887 ccbd 5cc7 e6bd 0e23 d53d
000001f0: dcfd aa3d 4033 d93d de28 d73d e244 c93d
00000200: 3881 513d 0047 e7bc c4d9 ee3d 8243 89bd
00000210: c871 6c3d d08f d53c 04b4 f5bd c8e3 db3d
00000220: 58a1 9abc b40b 6c3d a016 cebd 5cd6 c83d
00000230: 302a 853d 50ed 53bc 943b a0bd 00dc 9bba
00000240: d657 ba3d 489e e3bc 0c31 e8bd a446 7e3d
00000250: f0e2 c5bd 7454 ee3d d051 923c b82a 923d
00000260: 403f e63d ac29 d7bd 1c91 8fbd ecd7 2bbd
00000270: 0acf ddbd ac32 7bbd e06d 5fbc 6ca9 0cbd
00000280: 20f7 ed3b f2a6 a03d e647 9fbd 2888 14bd
00000290: bea0 b23d b0df 483d d042 df3d 6c81 e7bd
000002a0: e8e0 b03c 328d ab3d f680 d4bd dedd e23d
000002b0: d020 e23d dcc2 73bd 3a1f 92bd e84b d93c
000002c0: 905e 75bc 1866 c2bc 306e 253d 0cc7 913d
000002d0: 4444 d8bd 10f5 253d 16bd aabd 2011 e33d
000002e0: 0036 083b 98e9 363d fc6f ff3d ec2d a93d
000002f0: 4872 823c 3092 c2bc 580b 48bd 70f5 4b3d
00000300: f855 e9bc 2e71 d63d f06e 3dbc 54a8 0e3d
00000310: eecc 9c3d 8075 983b 4085 f2bc b096 6c3d
00000320: dc66 883d c038 69bc 482d 76bd 44f3 0b3d
00000330: 4071 4b3d ac47 7ebd 9a27 93bd 9e50 fdbd
00000340: 9a35 c73d 142a 8e3d fc22 db3d 2074 4ebc
00000350: 7661 81bd 1822 05bd 329c f03d 38e8 1c3d
00000360: 98e0 81bc 0c14 25bd c4f1 52bd 38f2 0ebd
00000370: a050 c0bc 0a19 f1bd e06a 943d a846 48bd
00000380: c47e 3a3d f849 c8bc 1c56 afbd c886 96bc
00000390: 68f2 f3bc 0063 0cbb b687 b73d 2693 d7bd
000003a0: 3838 f93c 0cae 2a3d 8898 c2bc 4c1d 22bd
000003b0: 88b5 893d ee05 cfbd 4eb1 9a3d 2478 3c3d
000003c0: c0a7 eebd 74ed 543d f0d9 6abc b038 80bd
000003d0: 8ec0 f5bd b23f f63d f03c ebbd 5cff 2ebd
000003e0: 7af0 c83d c0b1 443d 6015 fa3c 7855 ddbd
000003f0: a882 263d 40c2 f2bc 8a4a b7bd 184d 6e3d
0.11533746 -0.12301868 0.01560083 0.08283785 -0.0029411018 0.0027891248 0.020108327 -0.047284916
-0.020638049 0.0684454 -0.08386132 0.0066715926 -0.062179834 0.12456897 -0.10522595 -0.05142483
-0.09001884 -0.050993174 0.008617267 0.03868793 -0.008956596 0.09778066 -0.094852954 -0.05779098
-0.09528892 -0.05643411 -0.06954433 -0.048964098 0.08376029 -0.07827754 0.07644789 0.042752728
-0.04998897 -0.04904312 0.016408145 0.0513324 0.12182185 -0.04032883 0.029183805 0.10101618
-0.0003516972 0.08602998 -0.074190006 0.08444023 -0.0629082 -0.067287 -0.049318075 -0.0946452
0.10306923 0.018888906 0.046854824 0.04773897 0.009589583 0.062347442 -0.031228647 0.094184786
-0.105744004 0.055621788 0.09159699 0.08139166 -0.083422124 -0.052639395 0.044907764 -0.028892308
-0.004177749 0.028564483 -0.02633883 0.02701287 -0.12294656 -0.09448369 0.05016941 -0.11035432
-0.011272803 -0.07071097 -0.04459989 0.06757069 0.11321506 -0.021795407 0.106149316 0.05615568
-0.11174241 -0.08699544 0.0022067726 0.083744735 0.061468497 0.011863798 -0.029335722 -0.043562487
-0.03363605 -0.04209429 0.044209033 0.10625453 -0.00020259619 -0.03000386 0.042277023 0.04665631
0.04811603 0.07222441 0.018047497 0.034716696 -0.09568408 -0.00042183697 0.01143384 0.062498495
-0.04439707 -0.06160055 -0.01790826 -0.123154074 -0.12007521 0.074030295 -0.06499308 0.10862462
-0.011173889 0.0972258 -0.12332617 0.03656499 0.06719822 -0.094355434 -0.09556191 0.095505446
-7.401407e-05 -0.0998674 -0.112684935 0.10407077 0.08349201 0.10605478 0.10505842 0.098275915
0.051148623 -0.028232098 0.11662629 -0.06702329 0.057725698 0.026069552 -0.11997226 0.10736805
-0.018875763 0.05762835 -0.10062909 0.09806511 0.06502187 -0.012934998 -0.078238636 -0.0011891127
0.090987846 -0.027785435 -0.1133748 0.062079087 -0.096624255 0.11637202 0.017861277 0.07137054
0.11242533 -0.10505995 -0.07010099 -0.041953966 -0.10830505 -0.06132762 -0.013637036 -0.03434126
0.0072621256 0.07844342 -0.077773854 -0.03626266 0.087220654 0.04904145 0.10901415 -0.11303982
0.021591619 0.0837654 -0.1037616 0.11077474 0.11041415 -0.059512004 -0.07134862 0.026525453
-0.014976159 -0.023730323 0.040388286 0.07118043 -0.10559896 0.040516913 -0.083368465 0.11087251
0.002078414 0.044656366 0.12472531 0.08260712 0.015923634 -0.023751348 -0.048838943 0.049794614
-0.028483376 0.10470806 -0.011562094 0.0348285 0.07656275 0.004652679 -0.029604554 0.057760894
0.06660244 -0.014234722 -0.060101777 0.034167543 0.04966855 -0.06208007 -0.07185288 -0.12368892
0.097270206 0.069416195 0.10700032 -0.012600929 -0.06317417 -0.032503217 0.11748542 0.0383074
-0.015854165 -0.04030232 -0.051500097 -0.034898967 -0.023475945 -0.11772354 0.07246947 -0.048895508
0.04553105 -0.024449334 -0.08561346 -0.018374816 -0.029778674 -0.0021421313 0.08961432 -0.10526113
0.030422315 0.04166989 -0.023754373 -0.03957872 0.067240775 -0.10108553 0.075533494 0.046013013
-0.116530895 0.051984265 -0.014334187 -0.06260812 -0.119996175 0.12023868 -0.11486232 -0.042724
0.09811492 0.048021078 0.03052777 -0.108073175 0.040651947 -0.029633641 -0.08949764 0.05817899

encoder.weight_hh_l0_reverse f4 [192, 64]
00000000: 58a5 d73d 80f3 e73b 7a6c d6bd ec4a 9dbd
00000010: ceb2 96bd 3072 33bc 30e6 fc3c 8c32 fc3d
00000020: 70e2 e3bd 3c04 bcbd 2ce6 bbbd a087 50bc
00000030: 80c9 a5ba f0e7 1c3c 52a2 d2bd f090 c43c
00000040: b05c 373c b8ac b1bc a8ef a03d 8a1a 863d
00000050: 6089 edbb 521d b2bd 4c8c 563d c258 86bd
00000060: 9e94 8e3d f29d cfbd ec72 99bd daeb 863d
00000070: 4017 c0bc 3c15 d13d 1cc9 9d3d bc3b 013d
00000080: d60b f3bd 8098 bcbd 4888 85bc f43a 87bd
00000090: 5609 f93d 9aa8 a93d 28b2 783d 6ed0 c5bd
000000a0: 7471 72bd 6c9e d83d 8cb0 d93d 7e49 c6bd
000000b0: 10c7 fcbd 92ec 9cbd 78d4 b43c 50dc abbd
000000c0: 4070 d9bd e8de 8dbc e435 3b3d 0424 383d
000000d0: 3c2d b03d e8d9 b73c dabc f9bd 0450 00bd
000000e0: 48b2 d2bd 509f 9dbd 0011 cc3c 48e2 a4bd
000000f0: f27c 963d e6ce ccbd d263 a9bd e8a9 f2bd
00000100: 14a5 9e3d 62d7 f93d d868 fe3c 802b c2bc
00000110: 1080 3fbc d2e6 8ebd 2655 c23d 98cc 1abd
00000120: 928c b13d 7467 b9bd 0226 f13d c8de fe3c
00000130: 5a67 fc3d 12b2 8fbd 82d8 b5bd 26ba d4bd
00000140: d8ad ac3c 1891 47bd e0e6 6bbc 7073 313c
00000150: f4fb d8bd d035 bd3d b037 f3bc cc23 b83d
00000160: a469 1cbd 0883 e7bd 308e afbd 785f 9b3d
00000170: 921c d1bd 38af d63c f4dc 563d 4c89 56bd
00000180: 2875 163d a48e a0bd b84b 89bd 7067 533d
00000190: b009 a3bc 802d c73d e4c9 693d baf4 b13d
000001a0: 20c4 babb 241d ddbd b6ad 80bd c0a1 52bd
000001b0: e0e8 c93c 0208 f8bd e271 e63d d8b8 c3bc
000001c0: e86f a23d e815 cbbd d8ac 0a3d c099 e4bc
000001d0: 9cc1 a83d d4d0 90bd ac48 c9bd d831 a83c
000001e0: 38e8 60bd 60f3 0f3d 443a e6bd bc40 783d
000001f0: 0c4d e8bd c834 c93c acb0 4ebd ceab d1bd
00000200: 48f1 54bd b040 0e3c a887 843c 7863 f23d
00000210: 46f5 9ebd d441 843d 9eac f8bd f6d5 e43d
00000220: e6ae c4bd e8bc 3c3d 805a 863d 3440 a2bd
00000230: 7c39 003d 1a9b 9ebd a008 e13b dadb fabd
00000240: 58a5 5b3d 2cbc ffbd c0a2 4dbc 96b5 93bd
00000250: a8a5 e7bd 4846 483d b0f0 6bbd 4854 3f3d
00000260: 8a2b f13d 3a84 b43d 181a cbbd fa72 bbbd
00000270: 74c6 12bd 807c 293d 00a9 e0bb deb5 b5bd
00000280: fccc 43bd 9862 a5bc 0ca2 0dbd 8ca2 883d
00000290: 3cfe 073d 98dd 9cbc 0095 c8bb c097 303d
000002a0: 0042 413d 3687 ccbd 10cd 78bc 2cfd aebd
000002b0: e89a d1bc d0f4 92bc 9273 98bd e8e9 73bd
000002c0: e69a dc3d 60b4 d73c a0c8 003c 2804 3e3d
000002d0: 5027 9abd 80bc 8f3c 3e55 e0bd d8fb f5bd
000002e0: b243 efbd d0ff fcbc b012 18bd 2858 21bd
000002f0: 4c03 e73d c290 a23d 109a 723c 0a85 d6bd
00000300: d40a 663d e011 4cbc f080 33bd 20ee 8abb
00000310: d86d 083d 5840 863c 6cb4 f2bd 007c 2239
00000320: a4a9 4cbd 7ec5 e23d 8030 c0bc fadc bdbd
00000330: f856 7c3d 9012 65bd 1456 e63d 5c0c 64bd
00000340: 080b ed3d b215 953d a810 c6bc 62e5 c5bd
00000350: a42d 37bd 9007 efbd 70f9 5ebc 74d0 1ebd
00000360: c08d 51bc 2a3e b53d a07c cfbd 883e bd3c
00000370: 80d9 023c 561f b83d c0f1 fdbb e018 cc3c
00000380: 2827 f7bd 384c 99bc b411 c3bd 64c9 e9bd
00000390: 14e5 80bd f654 b73d 8ccb 7b3d 2816 e23c
000003a0: b67d eb3d 4cdd cdbd 50ad d83c 0870 48bd
000003b0: 00e2 bdb9 f816 463d 981a 62bd c094 a83b
000003c0: 0c30 903d 8893 7e3d b2d7 96bd 800d 5ebd
000003d0: 3000 babc 200f fdbb d4be 51bd 606c 8ebd
000003e0: b868 493d 8066 1cbd 1802 43bd b43d 5ebd
000003f0: e6cb 903d aab7 f73d 880b 75bd f891 5f3d
0.10529584 0.007078588 -0.10469909 -0.07680306 -0.07358323 -0.010952517 0.03087148 0.123143286
-0.11127174 -0.09180495 -0.09174761 -0.012727648 -0.0012648553 0.009576783 -0.102848664 0.023994893
0.011191532 -0.021688804 0.07858211 0.06548031 -0.0072490424 -0.08696999 0.05237989 -0.06559898
0.0696194 -0.101375476 -0.07492623 0.06587954 -0.023448586 0.10209128 0.07704374 0.031551108
-0.11867492 -0.092087746 -0.016300336 -0.06603041 0.12159984 0.08284111 0.060716778 -0.096588954
-0.05919023 0.105770916 0.10629377 -0.09681986 -0.12342656 -0.0766231 0.02207397 -0.08391631
-0.10617113 -0.017318204 0.04570569 0.044956222 0.08602378 0.022442773 -0.12194224 -0.03132631
-0.10287911 -0.07696402 0.02491045 -0.08050972 0.0734805 -0.100004 -0.08270992 -0.11848813
0.0774633 0.12199284 0.031055853 -0.023702383 -0.011688247 -0.06977619 0.09488897 -0.037792772
0.0866939 -0.09052935 0.117748275 0.03111209 0.123244 -0.07016386 -0.08879186 -0.103870675
0.021078989 -0.048722357 -0.014398307 0.010830745 -0.10594931 0.092387795 -0.02968964 0.08991203
-0.038186684 -0.11304289 -0.08572042 0.075865686 -0.102105275 0.026206598 0.05245681 -0.05237703
0.036732823 -0.078397065 -0.06703895 0.051612318 -0.01990208 0.09725475 0.057077304 0.08689256
-0.0056996495 -0.10796574 -0.06283133 -0.051423788 0.024647176 -0.12110902 0.1125219 -0.023891851
0.07931501 -0.09916288 0.033856243 -0.027905345 0.08240053 -0.07071081 -0.09828314 0.02053158
-0.05490896 0.03514421 -0.11241582 0.06060861 -0.113428205 0.0245613 -0.050461456 -0.10237847
-0.051987916 0.008682415 0.016177967 0.118353784 -0.07761626 0.06457868 -0.12142299 0.11173622
-0.09603672 0.046078593 0.0656023 -0.07922402 0.03130482 -0.07744427 0.0068674833 -0.122489646
0.05362448 -0.12487063 -0.01255101 -0.07212369 -0.11310893 0.04889515 -0.057602584 0.046711236
0.117758825 0.08814283 -0.09917086 -0.091527894 -0.03583379 0.041378498 -0.006856084 -0.08872579
-0.04780291 -0.020188615 -0.034578368 0.06671628 0.03320144 -0.019148633 -0.006121278 0.04311347
0.047182083 -0.09986727 -0.015185609 -0.085443825 -0.02558656 -0.017939001 -0.07443918 -0.059549242
0.10771732 0.026331127 0.007860333 0.046390682 -0.075270295 0.017545938 -0.10953759 -0.12010926
-0.11682834 -0.0308837 -0.037127197 -0.039390713 0.11279926 0.079377666 0.014807239 -0.10474594
0.05616267 -0.012455434 -0.043824136 -0.0042398125 0.03330788 0.016388103 -0.11850819 0.00015495718
-0.04996647 0.11072825 -0.023460627 -0.092706636 0.061606377 -0.055925906 0.11246887 -0.05567585
0.1157437 0.07279529 -0.024177864 -0.09662892 -0.04472126 -0.11671364 -0.013609275 -0.038773015
-0.0127901435 0.088497475 -0.10131192 0.023101106 0.007986426 0.08990352 -0.007749766 0.024914205
-0.12068015 -0.018713102 -0.09524861 -0.11415365 -0.06293693 0.08951752 0.061473414 0.027598456
0.11498587 -0.10051975 0.02644983 -0.048934966 -0.00036217272 0.04836175 -0.055201143 0.0051446855
0.07040414 0.062152416 -0.07365359 -0.054212093 -0.022705168 -0.0077227503 -0.05120738 -0.06954265
0.049172133 -0.03818369 -0.04760942 -0.054258063 0.070701405 0.12095578 -0.05982545 0.054582566
