checkpoints/s-nitrosylation_agent.pt (torch, 35584 bytes, 3 tensors)

classifier.0.weight f4 [64, 128]
-0.01886053 -0.1462035 -0.15959853 0.097184196 -0.03825622 0.048868563 0.102580585 -0.107810125
-0.14146441 -0.04394733 0.035352767 0.02422385 -0.21375562 -0.12605217 -0.09263005 0.05505878
0.08983557 0.0889494 0.08016016 -0.17319229 -0.1259182 -0.15465109 -0.19058405 0.14203842
0.06479631 0.10949301 0.0545526 -0.21726869 0.13234879 0.04591167 -0.108038716 -0.08819308
0.08894635 -0.09019724 -0.010113564 0.019126553 0.022769075 -0.012059701 0.0946539 -0.058052603
-0.07340279 -0.06519878 -0.11758321 0.09400827 -0.028973505 0.08654712 0.014758719 0.032830458
-0.025370117 0.096423306 -0.22314887 -0.019982832 -0.0022145521 -0.14647266 0.03986295 -0.08453684
0.13656916 0.13348456 0.052691557 0.023668548 -0.2517915 -0.04633714 -0.07444015 -0.08859502
-0.0184844 0.04768077 0.15243648 -0.15257998 -0.0047286903 0.049368378 0.03795368 -0.04400254
0.22480236 -0.05120281 -0.3666238 -0.053860076 -0.06883618 -0.054949507 -0.32892233 -0.057551973
0.020015674 0.10997126 0.06156678 -0.08967366 -0.016406886 0.062592186 -0.18724291 0.037852567
0.14445513 -0.0754327 0.011212096 -0.0040366477 -0.0035124796 -0.048300125 0.08781324 0.021044604
0.09216514 -0.065780595 -0.07182378 0.025007814 0.10993335 0.007201714 -0.1266985 -0.18337324
-0.007049079 -0.036963448 -0.065286756 -0.05328971 -0.01627223 0.029272778 -0.072065346 -0.07189503
0.011888656 -0.26264825 -0.0048747957 0.0013821018 -0.0044348626 0.23660128 0.03787606 0.051769104
0.058251664 0.098890364 0.03899126 -0.065783665 0.10016171 0.15277432 -0.060472146 -0.11215377
0.024231749 0.041200306 -0.056242518 0.08341601 0.008742961 0.12591171 0.10039197 -0.10076582
-0.10193223 0.05993304 -0.20676443 -0.06506281 -0.034165528 -0.012816271 -0.016947763 0.0720971
-0.012654916 0.008413517 0.08483214 0.04752071 -0.10297291 -0.10144167 -0.029551916 0.047718648
0.07367906 -0.0129330475 -0.00915699 -0.052665256 -0.057162147 -0.016143 -1.4511765e-05 -0.025295315
0.04085976 -0.05388358 0.111561514 -0.050123226 0.009884999 0.15926214 0.0533072 -0.037774462
-0.000527127 -0.11952014 0.017292887 -0.008007093 -0.056518026 0.057453953 0.07351437 0.039333794
0.03593178 -0.019674148 0.022338036 -0.10610258 0.005298402 -0.08370846 0.12590547 -0.06485539
-0.011240505 -0.09861225 0.051683206 0.021371681 -0.035720218 0.047099248 0.0043026735 0.07081369
-0.042850588 -0.11777122 0.036140162 -0.11288935 -0.1860414 -0.038663577 -0.04557047 -0.013633339
0.1256527 -0.031638414 0.00083976326 -0.064962715 0.040701505 -0.017652208 -0.16800547 -0.0697237
0.012202255 0.04876313 -0.0132613825 -0.044438902 -0.011206711 0.090016514 0.0922568 0.0036508164
0.112630874 -0.048007533 -0.042519487 -0.10064032 -0.063668236 0.055842463 0.029862834 -0.018146247
-0.040693194 -0.04993924 -0.027712138 0.0452426 0.11231513 -0.007670404 0.04238531 -0.09264579
-0.004044769 -0.047011618 -0.02861112 0.014651998 -0.06933256 0.030055491 -0.017703196 0.06205268
-0.013197804 -0.11474334 0.055717688 -0.08393734 0.12575713 0.09411353 -0.04527432 -0.08687657
0.076973066 0.06242935 -0.078254126 0.001048412 -0.006723211 -0.0335364 0.04031646 -0.073560245
00000000: 6681 9abc 5fb6 15be cc6d 23be 8208 c73d
00000010: 8eb2 1cbd 672a 483d c515 d23d 8ecb dcbd
00000020: 0cdc 10be 1e02 34bd 10ce 103d 1871 c63c
00000030: c1e2 5abe d213 01be d3b4 bdbd 5185 613d
00000040: b6fb b73d 1a2b b63d 032b a43d 5259 31be
00000050: b3f0 00be db5c 1ebe 7728 43be 8572 113e
00000060: eeb3 843d df3d e03d 8c72 5f3d af7b 5ebe
00000070: 7186 073e e00d 3c3d 6743 ddbd 939e b4bd
00000080: 8129 b63d 55b9 b8bd 5db3 25bc 4aaf 9c3c
00000090: 3686 ba3c 0d96 45bc e7d9 c13d 91c8 6dbd
000000a0: 3454 96bd f086 85bd 77cf f0bd 6887 c03d
000000b0: d859 edbc 9e3f b13d 8ece 713c 3b79 063d
000000c0: fed4 cfbc 9579 c53d 2381 64be 09b3 a3bc
000000d0: 0522 11bb eefc 15be 5547 233d a721 adbd
000000e0: c9d8 0b3e 2db0 083e 1ad3 573d 8be4 c13c
000000f0: d1ea 80be 03cc 3dbd 1474 98bd 4e71 b5bd
00000100: 996c 97bc e94c 433d 4f18 1c3e ed3d 1cbe
00000110: 21f3 9abb 7f36 4a3d 5175 1b3d 023c 34bd
00000120: 9732 663e 0aba 51bd 1db6 bbbe 629c 5cbd
00000130: fcf9 8cbd bc12 61bd 8268 a8be 9ebb 6bbd
00000140: e9f7 a33c 9d38 e13d 732d 7c3d d3a6 b7bd
00000150: bc67 86bc 5530 803d 9bbc 3fbe 4b0b 1b3d
00000160: 0cec 133e 767c 9abd f0b2 373c db45 84bb
00000170: a131 66bb 5ad6 45bd 6ed7 b33d bc65 ac3c
00000180: 14c1 bc3d fab7 86bd 5918 93bd 30dd cc3c
00000190: bc24 e13d 5bfc eb3b 40bd 01be 32c6 3bbe
000001a0: f6fb e6bb fc66 17bd 10b5 85bd 5046 5abd
000001b0: 574d 85bc 77cd ef3c ff96 93bd b43d 93bd
000001c0: a3c8 423c d579 86be c0bc 9fbb a427 b53a
000001d0: 5352 91bb 9b47 723e ed23 1b3d d70b 543d
000001e0: 4c99 6e3d 0887 ca3d 4db5 1f3d 96b9 86bd
000001f0: 9521 cd3d df70 1c3e a4b1 77bd e0b0 e5bd
00000200: a981 c63c a7c1 283d 8e5e 66bd 03d6 aa3d
00000210: a33e 0f3c 00ef 003e 4e9a cd3d 4f5e cebd
00000220: d8c1 d0bd 597c 753d 0eba 53be a73f 85bd
00000230: 27f1 0bbd 56fb 51bc 09d6 8abc a5a7 933d
00000240: 9156 4fbc d9d8 093c 79bc ad3d 13a5 423d
00000250: 76e3 d2bd a6c0 cfbd dc16 f2bc a174 433d
00000260: 0ce5 963d 22e5 53bc 3307 16bc 86b7 57bd
00000270: db22 6abd 533e 84bc 8e77 73b7 1f38 cfbc
00000280: 905c 273d 07b5 5cbd 5d7a e43d 034e 4dbd
00000290: b1f4 213c 9d15 233e a758 5a3d 65b9 1abd
000002a0: e52e 0aba fac6 f4bd d0a9 8d3c 2f30 03bc
000002b0: 727f 67bd d654 6b3d b48e 963d 791c 213d
000002c0: 342d 133d ae2b a1bc 42fe b63c 4f4c d9bd
000002d0: 389e ad3b 576f abbd 5ded 003e e7d2 84bd
000002e0: 182a 38bc 38f5 c9bd c5b1 533d aa13 af3c
000002f0: 5d4f 12bd 24eb 403d 71fd 8c3b c506 913d
00000300: 1984 2fbd 0a32 f1bd b507 143d 8832 e7bd
00000310: a381 3ebe b35d 1ebd 1aa8 3abd 5e5e 5fbc
00000320: 1aab 003e 4897 01bd 8f23 5c3a 2c0b 85bd
00000330: 9fb6 263d 5d9b 90bc a009 2cbe 4dcb 8ebd
00000340: f8eb 473c d9bb 473d 4546 59bc 9105 36bd
00000350: 5a9c 37bc 945a b83d 22f1 bc3d 8942 6f3b
00000360: 04ab e63d 8ca3 44bd ea28 2ebd 831c cebd
00000370: 7e64 82bd 11bb 643d e7a2 f43c 70a7 94bc
00000380: e8ad 26bd 178d 4cbd 9104 e3bc 4e50 393d
00000390: 7a05 e63d 0358 fbbb 389c 2d3d 13bd bdbd
000003a0: fb89 84bb 418f 40bd de61 eabc ef0e 703c
000003b0: 3bfe 8dbd ef36 f63c 4b06 91bc f32a 7e3d
000003c0: 9a3b 58bc 8efe eabd 3b38 643d 57e7 abbd
000003d0: 7ac6 003e 98be c03d 9171 39bd 58ec b1bd
000003e0: 0ea4 9d3d ebb5 7f3d b343 a0bd df6a 893a
000003f0: 624e dcbb 775d 09bd df22 253d c1a6 96bd

classifier.0.bias f4 [64]
0.033306513 0.08493962 -0.057266373 -0.037510533 0.033579025 -0.048523165 -0.04978734 0.09142988
0.051075928 -0.02886308 0.012466083 -0.06531229 0.012821022 -0.019835986 -0.0152639495 0.041268535
-0.103235684 0.07929466 -0.03326065 0.09737797 0.009321727 0.051853765 0.0050171153 -0.030661216
-0.03417863 0.0033254332 -0.04608749 -0.040354166 -0.061007738 -0.00038872246 -0.037870817 0.02602066
0.049820833 0.05402381 0.05642326 0.030762566 0.104595676 0.010235098 -0.034774233 0.07655233
-0.062016 0.07982616 0.0074281027 0.0027548305 -0.02917861 -0.025307229 -0.05134549 0.018699557
-0.07408658 0.07637198 -0.0118786385 0.06354354 0.0621762 0.01170512 -0.09782275 -0.09150509
0.04506101 -0.10571477 -0.024126254 -0.01817814 -0.014045633 0.04045722 0.121536024 -0.0048485305
00000000: 696c 083d d3f4 ad3d 2590 6abd a5a4 19bd
00000010: 298a 093d 3ac0 46bd cfed 4bbd 973f bb3d
00000020: fe34 513d 4472 ecbc 8b3e 4c3c 73c2 85bd
00000030: 440f 523c 147f a2bc a515 7abc 3209 293d
00000040: 3b6d d3bd 3d65 a23d 523c 08bd 1a6e c73d
00000050: 28ba 183c 9d64 543d 9d66 a43b 3b2d fbbc
00000060: e4fe 0bbd 83ef 593b 3cc6 3cbd 694a 25bd
00000070: 40e3 79bd 72cd cbb9 6e1e 1bbd 4729 d53c
00000080: ee10 4c3d 1248 5d3d 141c 673d c701 fc3c
00000090: 4236 d63d 1db1 273c 6d6f 0ebd 78c7 9c3d
000000a0: 7d04 7ebd e67b a33d 7167 f33b 638a 343b
000000b0: fb07 efbc 1b51 cfbc a64f 52bd d02f 993c
000000c0: b4ba 97bd ea68 9c3d 9f9e 42bc 1e23 823d
000000d0: 79ac 7e3d d5c6 3f3c 4b57 c8bd 0567 bbbd
000000e0: e591 383d fc80 d8bd 6ca4 c5bc 53ea 94bc
000000f0: a81f 66bc 78b6 253d e1e7 f83d 6ce0 9ebb

classifier.3.weight f4 [1, 64]
-0.10523115 -0.10466982 0.02175758 -0.16327532 -0.116209745 -0.099158615 0.01616202 -0.082536355
-0.16944213 -0.073060066 -0.075243965 0.09607558 -0.07494763 -0.08609348 -0.12156981 -0.12505595
0.072665125 -0.07905817 -0.07302728 -0.10391214 -0.049470298 -0.11376763 0.101674505 -0.08915803
0.0068452526 -0.047410406 0.2062222 -0.06980983 -0.06820641 0.062798806 -0.1787157 -0.11811434
-0.036058176 0.08670526 0.0997211 -0.09857155 -0.05674362 -0.12625764 -0.16260804 -0.13569507
-0.07226468 -0.0621393 -0.08849205 -0.093749516 0.036100987 0.060545746 0.040677696 0.05551596
0.016192203 -0.10325953 -0.040529538 0.032988235 -0.117491774 -0.0037253273 -0.08586378 0.08140251
-0.07863085 0.091418736 0.15046771 -0.106377035 -0.12183866 -0.057689447 -0.10700691 0.092703916
00000000: 6e83 d7bd 215d d6bd f43c b23c a531 27be
00000010: 60ff edbd ac13 cbbd 3666 843c d208 a9bd
00000020: 3d82 2dbe 84a0 95bd 8219 9abd 46c3 c43d
00000030: 257e 99bd c751 b0bd 98f9 f8bd ab0e 00be
00000040: 74d1 943d 40e9 a1bd 548f 95bd e3cf d4bd
00000050: 5ea1 4abd 01ff e8bd b93a d03d 7c98 b6bd
00000060: 244e e03b 6a31 42bd ea2b 533e 75f8 8ebd
00000070: cdaf 8bbd a99c 803d 4001 37be eee5 f1bd
00000080: bdb1 13bd 8792 b13d 933a cc3d e1df c9bd
00000090: 006c 68bd af49 01be b982 26be a6f3 0abe
000000a0: 81ff 93bd c785 7ebd 523b b5bd bfff bfbd
000000b0: a1de 133d d1fe 773d a89d 263d b464 633d
000000c0: 83a5 843c bc79 d3bd 4d02 26bd ac1e 073d
000000d0: 879f f0bd 9f24 74bb 59d9 afbd 5cb6 a63d
000000e0: 3609 a1bd bf39 bb3d 3514 1a3e 34dc d9bd
000000f0: 8c86 f9bd c54b 6cbd 7026 dbbd 8ddb bd3d
