checkpoints/sequence_agent.pt (torch, 341986 bytes, 28 tensors)

positional_encoding f4 [100, 64]
0.37660342 -1.0023506 0.79909164 -1.6638252 -0.2560142 -1.0692143 1.8787051 1.1123424
-0.59784514 -0.2207208 -0.4658738 0.14970814 1.7752771 1.1051991 -0.574358 -0.1930551
0.97488785 0.78171253 0.048386395 -0.892556 -0.3294281 -2.1182265 -0.86451304 1.5309618
-1.2283026 -0.4724525 0.7768073 -0.22518589 0.552951 0.42531598 0.29443353 -1.233525
0.024938544 0.2834298 0.065901935 0.13490222 1.123642 -1.84083 -0.12312083 0.6565632
1.0414557 -0.0021711646 0.54103297 0.18018384 -1.7991474 1.2276437 -1.5084214 0.82474387
-0.19961046 -1.0318785 -0.70912576 -0.3393125 -0.4964407 -1.6656027 -0.26284674 -0.42677304
-0.1364742 -0.112716936 0.17905377 -0.16776189 0.7784657 1.0975951 -0.94499457 1.150958
-0.25813198 0.66019017 0.6040542 1.808198 -0.3135245 0.5133585 -1.7661178 -1.399355
1.5662405 -0.746503 0.42176774 -0.54134005 1.1179144 1.0783123 -0.82480085 0.10146558
-0.8681815 -0.82849944 0.29094937 1.2447745 -0.605848 0.41411966 -0.25814265 1.2004731
-0.29877186 -0.13657962 -0.4159752 -0.23621319 -1.8832831 -0.025608914 -1.4206953 -0.56618685
0.22841439 -1.2319047 -0.5685502 -0.001114697 -1.0259128 -0.06276045 0.30584136 0.49532917
-0.070639044 1.1140349 -0.80703676 1.8410218 -0.17155023 -0.36890775 0.1051506 1.1541232
-1.9553288 0.097290345 1.0584372 1.2476206 -0.5623535 1.1147094 0.20113498 -0.35309455
0.9171971 0.29847804 -0.23188034 -1.0080129 0.92334735 0.2954926 0.475467 -0.046660487
-1.0479339 -0.37709743 -0.041979328 -0.19799972 1.9124244 -1.4019043 -1.6039246 -0.121560074
0.4194877 0.8564316 0.60055906 -0.4015787 1.2854917 -1.0451417 0.50307995 -0.22171491
-0.86512434 2.20191 -0.73930514 -0.48773977 -0.44504902 -0.23736168 0.44959623 -0.91513366
1.1925043 -1.3803362 0.10027407 -0.1541671 0.34811607 0.24927682 1.3368851 0.059195884
-0.5626167 0.2614432 -0.61389434 -0.6373302 0.824116 -0.07801571 -0.6121037 -0.61451066
1.6828856 -2.3626096 -0.57899284 1.128137 -0.24401131 0.6803559 0.30436528 0.9132782
-0.7544825 -0.80980045 0.087128825 1.1006746 -0.06339748 0.37997833 0.15953243 -0.093159884
1.1929109 -0.29570082 -0.43304056 1.2849861 1.4389523 -1.3723716 -1.6018797 -1.4042923
-0.17487837 0.58461124 -0.6276336 -0.6084076 1.0373417 0.36527798 0.78494215 -0.4410135
-0.00017875372 0.50021905 -1.4276166 0.21811523 0.24169397 -1.3247594 -0.4570657 -0.66198945
-1.1903206 0.4379871 0.9899168 1.7964373 -0.274148 -1.5194235 -1.0030236 0.8870843
1.107217 -0.673626 -1.9699826 1.462275 -2.1307416 -0.47510839 -0.080416374 0.40214646
1.3550165 1.3152996 0.5025507 -0.6474206 -1.0603526 0.3811686 0.4334678 -0.82992053
1.8534018 1.6310968 0.89435047 0.54085577 -1.1132839 2.0486152 -0.23150238 0.5847145
0.4185849 1.9451274 1.9752032 0.66777295 1.5292635 0.47972047 -1.1223482 -0.4029519
1.8750525 -0.32610342 3.5740755 -0.45607126 0.07736616 1.3324816 -2.4870386 0.34026092
00000000: 2ad2 c03e 064d 80bf 4591 4c3f 39f8 d4bf
00000010: 4b14 83be 04dc 88bf 6979 f03f 3c61 8e3f
00000020: 610c 19bf a204 62be 0387 eebe 174d 193e
00000030: 483c e33f 2a77 8d3f 2009 13bf 3cb0 45be
00000040: 4092 793f 501e 483f d030 463d 8d7e 64bf
00000050: cdaa a8be 0691 07c0 ba50 5dbf 8ef6 c33f
00000060: 0539 9dbf 4be5 f1be d8dc 463f 2197 66be
00000070: 328e 0d3f 04c3 d93e febf 963e 26e4 9dbf
00000080: eb4b cc3c b61d 913e 98f7 863d cf23 0a3e
00000090: 80d3 8f3f 51a0 ebbf c626 fcbd 8714 283f
000000a0: 6c4e 853f 194a 0ebb 2381 0a3f 1d82 383e
000000b0: 764a e6bf 6e23 9d3f f413 c1bf 6a22 533f
000000c0: af66 4cbe 9814 84bf 4489 35bf 5eba adbe
000000d0: 7a2d febe 7832 d5bf d993 86be ff81 dabe
000000e0: e5bf 0bbe 23d8 e6bd df59 373e c6c9 2bbe
000000f0: 8749 473f ff7d 8c3f 2aeb 71bf 9752 933f
00000100: e029 84be 3902 293f 4ca3 1a3f 0873 e73f
00000110: 4986 a0be 766b 033f 2610 e2bf 111e b3bf
00000120: 927a c83f d21a 3fbf f1f1 d73e 4395 0abf
00000130: d217 8f3f 2306 8a3f 2626 53bf 30cd cf3d
00000140: 2541 5ebf 8a18 54bf 51f7 943e c554 9f3f
00000150: db18 1bbf 7e07 d43e 462b 84be 1aa9 993f
00000160: a0f8 98be 87db 0bbe b4fa d4be dfe1 71be
00000170: 6c0f f1bf c9c9 d1bc 58d9 b5bf 9ff1 10bf
00000180: 76e5 693e 0eaf 9dbf 828c 11bf 061b 92ba
00000190: 1c51 83bf 8d88 80bd 3d97 9c3e c99b fd3e
000001a0: 34ab 90bd b298 8e3f f699 4ebf 9aa6 eb3f
000001b0: ddaa 2fbe 7ae1 bcbe 3359 d73d 4fba 933f
000001c0: 3748 fabf 2940 c73d df7a 873f 08b2 9f3f
000001d0: 66f6 0fbf ccae 8e3f 54f6 4d3e cfc8 b4be
000001e0: 6ecd 6a3f 1dd2 983e 0a72 6dbe 9106 81bf
000001f0: 7e60 6c3f ce4a 973e 6970 f33e 111f 3fbd
00000200: b322 86bf ea12 c1be 84f2 2bbd 70c0 4abe
00000210: 53ca f43f 9a71 b3bf 674d cdbf 7df4 f8bd
00000220: 18c7 d63e 1a3f 5b3f 3dbe 193f b99b cdbe
00000230: fe8a a43f 34c7 85bf d9c9 003f 3c09 63be
00000240: ca78 5dbf 18ec 0c40 1a43 3dbf 07b9 f9be
00000250: 77dd e3be f10e 73be 7a31 e63e 3346 6abf
00000260: fba3 983f dbae b0bf 7e5c cd3d fbdd 1dbe
00000270: 453c b23e 6c42 7f3e 0d1f ab3f 6277 723d
00000280: a607 10bf e2db 853e 2e28 1dbf 1228 23bf
00000290: 44f9 523f b3c6 9fbd d4b2 1cbf 9250 1dbf
000002a0: cc68 d73f ff34 17c0 e038 14bf cb66 903f
000002b0: 1ade 79be ce2b 2e3f c4d5 9b3e 9acc 693f
000002c0: c425 41bf 154f 4fbf 9970 b23d e8e2 8c3f
000002d0: 8ad6 81bd 858c c23e 785c 233e 9cca bebd
000002e0: 4eb1 983f 1966 97be 7eb7 ddbe 6d7a a43f
000002f0: 972f b83f dfa9 afbf 650a cdbf dabf b3bf
00000300: 5113 33be 15a9 153f 98ac 20bf 9ac0 1bbf
00000310: 9dc7 843f b705 bb3e f8f1 483f 85cc e1be
00000320: d66f 3bb9 5b0e 003f 24bc b6bf 9959 5f3e
00000330: a07e 773e b791 a9bf 8404 eabe 2478 29bf
00000340: 6d5c 98bf d83f e03e 306b 7d3f a8f1 e53f
00000350: 205d 8cbe 787c c2bf 1463 80bf f517 633f
00000360: 49b9 8d3f c172 2cbf 6428 fcbf d42b bb3f
00000370: 125e 08c0 6841 f3be 57b1 a4bd 24e6 cd3e
00000380: 2e71 ad3f bd5b a83f 2aa7 003f 5bbd 25bf
00000390: a2b9 87bf 8828 c33e 7eef dd3e ac75 54bf
000003a0: 453c ed3f c8c7 d03f 27f4 643f 8675 0a3f
000003b0: 1680 8ebf 831c 0340 f60e 6dbe d9af 153f
000003c0: c350 d63e eff9 f83f 75d3 fc3f 2bf3 2a3f
000003d0: e8be c33f ec9d f53e 1ba9 8fbf b64f cebe
000003e0: b801 f03f 07f7 a6be a7bd 6440 2c82 e9be
000003f0: 2672 9e3d c28e aa3f a42b 1fc0 ae36 ae3e

embedding.weight f4 [21, 64]
0.0 0.0 0.0 0.0 0.0 0.0 0.0 0.0
0.0 0.0 0.0 0.0 0.0 0.0 0.0 0.0
0.0 0.0 0.0 0.0 0.0 0.0 0.0 0.0
0.0 0.0 0.0 0.0 0.0 0.0 0.0 0.0
0.0 0.0 0.0 0.0 0.0 0.0 0.0 0.0
0.0 0.0 0.0 0.0 0.0 0.0 0.0 0.0
0.0 0.0 0.0 0.0 0.0 0.0 0.0 0.0
0.0 0.0 0.0 0.0 0.0 0.0 0.0 0.0
0.586706 -0.31009007 0.023302697 1.0991868 0.70433307 0.7502416 -0.1678341 -0.46491924
1.1366254 0.2525556 1.2604104 2.072206 -0.724295 -1.0445513 -0.7082233 -0.28155327
-0.09744728 0.9058208 -0.2475773 0.4539416 0.10406109 -0.7268554 0.5730648 1.2133789
1.0555956 -2.096406 -0.62460095 1.410851 0.6630636 -0.8948728 -0.52006364 -1.0715339
0.49879682 -0.173224 -0.035776544 1.4496132 -0.12961718 -0.57776046 -0.33017334 -1.1075338
0.24782869 -0.27173835 -1.2273406 1.3505822 -3.3625672 -0.83532643 1.0298252 -0.023538498
-0.24851424 -0.056530118 0.7060095 -0.8313766 -0.37726426 2.0507843 0.93895686 0.26396483
-0.8345259 0.50244534 1.013912 1.202826 0.80393445 0.095217735 1.7662854 -0.19701563
-0.17936632 -1.2880062 0.15609209 0.46839225 0.8515372 -0.8828727 0.3768615 -0.24797851
-1.0398971 -0.48493963 0.83678234 -0.64076954 3.0722914 -0.4944347 0.23581253 -0.744339
1.0824575 -1.1053702 -0.92080736 -0.57472044 -0.47535536 0.65024275 -1.9106758 1.0803059
-0.9224875 1.0145913 -0.9487646 -1.4187421 0.2749813 -0.5684167 0.37291372 -1.1035303
0.4729812 -0.30203825 -0.73740196 1.6951835 0.29205334 0.6934493 -0.2326229 0.20776512
-0.9771072 -0.89769965 0.32330224 -0.65880734 -1.6528283 1.3696508 0.1889301 0.4331396
1.3786951 0.77976257 -1.0922014 1.018593 -0.14876412 0.17049094 -0.047700744 -0.69103
-1.8053164 0.020224066 -0.03136401 0.60729814 0.13195013 0.771467 -0.35421345 -0.76408535
1.244616 0.22334585 -0.18898499 0.40245783 1.3400798 -2.509068 0.57494515 -0.050954897
1.1321341 1.3198259 0.888175 0.42401344 0.91319174 1.1487598 -0.42644024 -0.7491752
-0.6565436 0.598274 0.81469166 1.1689723 -0.77040803 -0.4981258 0.9074937 -0.66403896
-0.672748 1.2915801 0.24554221 0.38094258 -0.302992 -1.0550646 -0.771949 -0.52235293
-0.53312993 0.5631157 -0.037206803 -0.18658955 -0.9940924 -0.48968688 -1.0578271 -1.3971018
1.1780161 -0.09842654 1.6001612 -1.9732559 -0.28476492 -1.9704721 0.3224777 -0.15460713
0.17743842 0.10179943 -1.8868912 0.8355643 -0.2519079 1.0293158 -0.427215 1.8191574
0.045423046 0.08955177 -1.1127541 0.2585729 -1.1769643 0.25189805 -0.13233426 1.0418411
00000000: 0000 0000 0000 0000 0000 0000 0000 0000
00000010: 0000 0000 0000 0000 0000 0000 0000 0000
00000020: 0000 0000 0000 0000 0000 0000 0000 0000
00000030: 0000 0000 0000 0000 0000 0000 0000 0000
00000040: 0000 0000 0000 0000 0000 0000 0000 0000
00000050: 0000 0000 0000 0000 0000 0000 0000 0000
00000060: 0000 0000 0000 0000 0000 0000 0000 0000
00000070: 0000 0000 0000 0000 0000 0000 0000 0000
00000080: 0000 0000 0000 0000 0000 0000 0000 0000
00000090: 0000 0000 0000 0000 0000 0000 0000 0000
000000a0: 0000 0000 0000 0000 0000 0000 0000 0000
000000b0: 0000 0000 0000 0000 0000 0000 0000 0000
000000c0: 0000 0000 0000 0000 0000 0000 0000 0000
000000d0: 0000 0000 0000 0000 0000 0000 0000 0000
000000e0: 0000 0000 0000 0000 0000 0000 0000 0000
000000f0: 0000 0000 0000 0000 0000 0000 0000 0000
00000100: 5d32 163f 20c4 9ebe 4ce5 be3c 27b2 8c3f
00000110: 2c4f 343f d50f 403f b4dc 2bbe e509 eebe
00000120: f17c 913f f84e 813e 2155 a13f 069f 0440
00000130: 666b 39bf dbb3 85bf 1f4e 35bf c027 90be
00000140: 7192 c7bd dfe3 673f e784 7dbe 096b e83e
00000150: fb1d d53d 3213 3abf 60b4 123f 0050 9b3f
00000160: c21d 873f 842b 06c0 d9e5 1fbf c496 b43f
00000170: 89be 293f 6216 65bf e422 05bf 0628 89bf
00000180: 4c62 ff3e a261 31be 6d8a 12bd ed8c b93f
00000190: 5eba 04be 1ce8 13bf 7b0c a9be abc3 8dbf
000001a0: cec6 7d3e 4a21 8bbe 7f19 9dbf e1df ac3f
000001b0: 4d34 57c0 f4d7 55bf 50d1 833f cfd3 c0bc
000001c0: 847a 7ebe 208c 67bd 0abd 343f 19d5 54bf
000001d0: c828 c1be 0d40 0340 7a5f 703f 6626 873e
000001e0: 7da3 55bf 42a0 003f dec7 813f 34f6 993f
000001f0: a6ce 4d3f 8401 c33d a415 e23f 77be 49be
00000200: ceab 37be 63dd a4bf 9bd6 1f3e 1cd1 ef3e
00000210: 58fe 593f f203 62bf fef3 c03e 14ee 7dbe
00000220: 591b 85bf 024a f8be 5e37 563f 7909 24bf
00000230: 6ca0 4440 8c26 fdbe d778 713e 008d 3ebf
00000240: f88d 8a3f c57c 8dbf 08ba 6bbf e120 13bf
00000250: c761 f3be 4f76 263f 0691 f4bf 7747 8a3f
00000260: 2428 6cbf 21de 813f 3de2 72bf 5799 b5bf
00000270: 59ca 8c3e c283 11bf 8cee be3e 7b40 8dbf
00000280: 982a f23e c2a4 9abe 60c6 3cbf c6fb d83f
00000290: 0488 953e e585 313f b334 6ebe 61c0 543e
000002a0: b323 7abf a5cf 65bf df87 a53e 99a7 28bf
000002b0: e18f d3bf b850 af3f e476 413e 79c4 dd3e
000002c0: 1579 b03f 859e 473f 41cd 8bbf 4161 823f
000002d0: 9f55 18be 2d95 2e3e db61 43bd 58e7 30bf
000002e0: 9c14 e7bf f1ac a53c 8c77 00bd e477 1b3f
000002f0: ef1d 073e dc7e 453f 775b b5be 199b 43bf
00000300: 944f 9f3f c6b4 643e 4885 41be f40e ce3e
00000310: bc87 ab3f 9294 20c0 9b2f 133f 15b6 50bd
00000320: c5e9 903f 0ef0 a83f 705f 633f 4a18 d93e
00000330: efc6 693f 900a 933f 6056 dabe f2c9 3fbf
00000340: 3e13 28bf 7c28 193f a28f 503f e2a0 953f
00000350: 7639 45bf 580a ffbe 8251 683f 75fe 29bf
00000360: 3739 2cbf 7f52 a53f 6b6f 7b3e e80a c33e
00000370: c421 9bbe 5b0c 87bf 739e 45bf ecb8 05bf
00000380: 347b 08bf 5a28 103f 2966 18bd 5511 3fbe
00000390: d77c 7ebf 3db8 fabe e166 87bf 3bd4 b2bf
000003a0: 3bc9 963f db93 c9bd 15d2 cc3f a693 fcbf
000003b0: b5cc 91be 6e38 fcbf cc1b a53e 5551 1ebe
000003c0: 6bb2 353e 387c d03d a785 f1bf 8be7 553f
000003d0: 13fa 80be 9fc0 833f edbb dabe 26da e83f
000003e0: 840d 3a3d eb66 b73d ba6e 8ebf ab63 843e
000003f0: c4a6 96bf c8f8 803e a282 07be 0d5b 853f

encoder.layers.0.self_attn.in_proj_weight f4 [192, 64]
-0.18688755 0.010879323 -0.021120755 0.067341685 -0.23156294 -0.14673097 -0.011353333 -0.15917417
0.103691414 -0.07033278 0.09436096 0.14685854 -0.18022035 0.0745493 -0.13238454 0.037250653
-0.013413677 -0.10066375 0.061467193 0.16572574 -0.011735891 0.09732926 -0.04700934 -0.009275086
0.055833273 0.12223081 -0.15719497 -0.033196244 -0.06395857 -0.1152474 0.02814909 -0.23301607
0.11972069 -0.11464857 0.055161152 0.10464677 0.020474035 -0.04162625 0.003596214 -0.005154435
-0.19963793 -0.14860603 0.020242482 0.05367098 -0.11540026 0.13675424 -0.008171641 0.035728566
0.13158418 0.06721604 0.11463485 0.0053811604 -0.1032307 0.07554901 0.23378018 0.024467915
-0.007884503 -0.16180801 0.13082641 0.03984734 -0.022023942 -0.10264074 -0.0333869 -0.06796872
0.081773065 0.10289948 -0.23756626 -0.37870848 -0.2571162 0.087782934 0.21633312 0.16482405
-0.040407714 0.23570195 0.07391039 0.0074141514 -0.25500265 0.34046417 -0.04675561 -0.0059993444
0.010777594 -0.19143286 0.017964214 -0.17070535 0.06848821 -0.23527648 0.038029995 0.046530284
-0.007866033 -0.012763402 0.10733008 0.07970146 -0.20565568 -0.15089612 -0.1692509 0.034792528
-0.12583408 0.1260655 0.139804 0.1265261 -0.035080593 -0.014241952 -0.1182504 -0.024146153
0.12875 0.20574321 0.04000074 -0.038019773 -0.07900564 -0.10749373 -0.01459367 0.073439606
-0.08720444 -0.22419429 -0.1298061 -0.2899781 -0.057322953 -0.26095614 0.02163609 -0.07348516
-0.020186258 -0.01967176 0.014689055 -0.027321666 0.22343102 -0.113575466 0.18892501 0.19584468
-0.20759867 -0.11259686 0.04069466 -0.13289297 -0.12898315 -0.25949475 -0.10662324 -0.12949443
0.04254877 0.027888108 0.118459225 0.074955255 -0.06068172 -0.004612983 0.12481342 -0.13589919
-0.25616312 -0.059018414 0.09041084 0.12314232 -0.2900501 0.2196628 -0.048203427 -0.24112268
-0.19612199 0.024526728 0.06340688 -0.10864143 0.114650555 -0.072333865 0.14113285 0.0133046685
-0.09400954 -0.27936482 0.03345319 0.27612844 0.025578855 0.053820584 0.19317155 0.23079698
-0.031664837 0.026641995 -0.024496352 0.017213626 -0.12325597 0.1642494 -0.22345638 0.405575
0.011514828 -0.102524534 0.070238434 -0.10009068 0.07047208 -0.14584579 -0.24609989 -0.1622648
0.021544036 -0.20950875 -0.015622001 0.081511326 -0.15795201 -0.08759713 0.167792 0.056313436
-0.23699364 -0.13653316 0.05963742 0.22237451 0.16455647 0.13740829 -0.012400256 0.07708746
0.022913322 0.010713113 -0.090872854 -0.09173218 0.16706495 -0.17549187 0.19859552 0.056825574
0.16973534 0.012628434 -0.10410234 0.14777108 -0.20569117 0.19988637 0.004875282 -0.06709181
0.033190917 -0.004928102 -0.06345845 -0.19130993 0.17897464 -0.08227023 -0.059306566 0.034784596
0.22516856 0.00311839 -0.17601828 -0.05967852 0.26069078 -0.05513111 -0.22472586 -0.07386429
0.05840983 0.020715632 0.09921105 -0.065392904 0.09523965 -0.067861125 -0.13516746 0.11722588
-0.059150875 0.018435791 -0.076659694 0.20591758 0.02051501 -0.2134591 0.07087046 0.08229085
0.0714727 -0.016962033 -0.10287047 0.13631485 -0.19359392 0.1206584 -0.07845188 -0.12745966
00000000: 735f 3fbe 303f 323c 6f05 adbc 70ea 893d
00000010: d61e 6dbe a540 16be 5403 3abc 8efe 22be
00000020: 2a5c d43d a20a 90bd 5240 c13d 1662 163e
00000030: af8b 38be 4ead 983d d08f 07be 2494 183d
00000040: 0ac5 5bbc cc28 cebd 06c5 7b3d 02b4 293e
00000050: e547 40bc 9054 c73d de8c 40bd 88f6 17bc
00000060: 6eb1 643d 2654 fa3d b8f7 20be c9f8 07bd
00000070: b6fc 82bd d406 ecbd ec98 e63c c49b 6ebe
00000080: 1f30 f53d dfcc eabd a9f0 613d 0c51 d63d
00000090: 2ab9 a73c 4980 2abd 76ae 6b3b 89e6 a8bb
000000a0: e36d 4cbe 2e2c 18be 90d3 a53c 1ad6 5b3d
000000b0: f956 ecbd 4e09 0c3e 59e2 05bc 1e58 123d
000000c0: 01be 063e 90a8 893d adc5 ea3d 7254 b03b
000000d0: 9e6a d3bd 70b9 9a3d 1264 6f3e f070 c83c
000000e0: 012e 01bc 00b1 25be 5cf7 053e f736 233d
000000f0: 8e6b b4bc 4f35 d2bd b4c0 08bd 2f33 8bbd
00000100: a378 a73d f6bc d23d 9244 73be 14e6 c1be
00000110: bca4 83be 8ac7 b33d 6e86 5d3e a3c7 283e
00000120: 8f82 25bd da5b 713e 555e 973d 69f2 f23b
00000130: b58f 82be 5251 ae3e cf82 3fbd 2696 c4bb
00000140: 8194 303c fa06 44be b029 933c 62cd 2ebe
00000150: 8c43 8c3d 51ec 70be 57c5 1b3d 8a96 3e3d
00000160: 89e0 00bc 971d 51bc dfcf db3d 853a a33d
00000170: 6797 52be 8384 1abe 1c50 2dbe 9c82 0e3d
00000180: a6da 00be 5017 013e c828 0f3e 0f90 013e
00000190: abb0 0fbd 1457 69bc 442d f2bd 27ce c5bc
000001a0: 0ad7 033e 59ae 523e d1d7 233d 9fba 1bbd
000001b0: b5cd a1bd ac25 dcbd 4a1a 6fbc 8167 963d
000001c0: 3e98 b2bd 3093 65be e4eb 04be 0278 94be
000001d0: 79cb 6abd 0b9c 85be 2b3e b13c 637f 96bd
000001e0: a75d a5bc ac26 a1bc 5daa 703c b0d1 dfbc
000001f0: 1acb 643e 419a e8bd 8f75 413e 828b 483e
00000200: bf94 54be 2f99 e6bd 72af 263d 1815 08be
00000210: 2914 04be 7fdc 84be 495d dabd 309a 04be
00000220: 9e47 2e3d 9a75 e43c c09a f23d 2482 993d
00000230: 658d 78bd 8228 97bb 2e9e ff3d 2829 0bbe
00000240: d027 83be 4bbd 71bd 5229 b93d 0a32 fc3d
00000250: 7281 94be 49ef 603e f570 45bd dde8 76be
00000260: 34d4 48be 47ec c83c 77db 813d 667f debd
00000270: e9cd ea3d c723 94bd 2185 103e d3fb 593c
00000280: 1388 c0bd e808 8fbe 3606 093d b560 8d3e
00000290: bf8a d13c f972 5c3d c3ce 453e 0b56 6c3e
000002a0: fdb2 01bd 5040 da3c 93ac c8bc 9703 8d3c
000002b0: a06d fcbd ff30 283e c0d1 64be 87a7 cf3e
000002c0: b0a8 3c3c 62f8 d1bd 2bd9 8f3d 58fc ccbd
000002d0: aa53 903d 9958 15be 9c01 7cbe be28 26be
000002e0: 1e7d b03c 7689 56be 6cf3 7fbc 69ef a63d
000002f0: 2cbe 21be 2066 b3bd abd1 2b3e eba8 663d
00000300: 76ae 72be 59cf 0bbe 5e46 743d 25b6 633e
00000310: 7e81 283e c2b4 0c3e 712a 4bbc 08e0 9d3d
00000320: b8b4 bb3c 0d86 2f3c 8c1b babd 15de bbbd
00000330: 1313 2b3e 24b4 33be a05c 4b3e efc1 683d
00000340: 1acf 2d3e 7ee7 4e3c 9c33 d5bd 4d51 173e
00000350: b5a0 52be 03af 4c3e d4c0 9f3b 6e67 89bd
00000360: 33f3 073d ea7b a1bb 81f6 81bd c0e6 43be
00000370: 2145 373e 4b7d a8bd 71eb 72bd 4b7a 0e3d
00000380: 9692 663e e75d 4c3b 233e 34be 7771 74bd
00000390: 4379 853e 29d1 61bd 891e 66be 2946 97bd
000003a0: 253f 6f3d d4b3 a93c 2a2f cb3d b7ec 85bd
000003b0: 010d c33d c6fa 8abd 5769 0abe 1f14 f03d
000003c0: 3048 72bd a806 973c c2ff 9cbd 0fdc 523e
000003d0: 180f a83c 0695 5abe 8824 913d 1b88 a83d
000003e0: 4760 923d f6f3 8abc c1ad d2bd 1f96 0b3e
000003f0: 7c3d 46be c01b f73d 61ab a0bd c984 02be

encoder.layers.0.self_attn.in_proj_bias f4 [192]
0.0640479 -0.051266883 0.046459556 -0.010878092 0.011740452 0.020104162 0.00503125 -0.03509901
-0.037312157 0.020171298 -0.0030233632 -0.029720621 -0.041511655 0.14245841 0.026438395 0.10257299
0.07447918 -0.07811567 0.045024134 0.025752878 -0.04530355 -0.0022179661 -0.035703115 0.0016029977
-0.012661083 0.037770044 -0.028311739 0.119279206 -0.0770494 0.00850288 0.04295428 0.02511573
0.046440396 -0.03560005 0.108700044 -0.07987971 -0.13061531 0.104196705 0.095271476 -0.055736247
0.13842374 0.038443953 0.064240135 -0.0033974198 -0.05955839 0.02933518 -0.10701341 0.06933546
0.0044341576 -0.03459181 0.03543901 -0.049176384 -0.08237912 0.022456748 -0.03259179 -0.06375183
0.04597256 -0.025720114 0.06111782 0.019797659 0.07093577 -0.014680697 0.036828004 -0.11752028
0.002116623 0.0037154602 -0.008906957 0.0024928453 -0.0003919037 0.004837225 0.00042935248 -0.0008765314
-0.0018380514 -0.0012164925 0.005202563 0.00394197 -0.0016613054 -0.004610911 0.00050644524 -0.005463672
0.0039850837 -0.010776416 -0.0006470944 -0.0011129914 -0.009118967 0.010028842 0.00080661627 0.0040199184
-0.0036919618 0.0023160086 -0.0050172973 0.0032802473 -0.012188796 0.008877401 -0.0029449586 0.0071549676
0.0035621352 0.0007658262 0.003565692 0.009261592 0.004149735 -0.0029600954 -0.003916668 0.0012403603
-0.0036995914 -0.0044568484 0.0011188266 0.004973512 -0.0031007105 -0.0042653894 -0.006197969 0.00044676388
-0.0016514859 0.0027344644 0.0030926855 -0.00037924267 0.0044216164 -0.004222564 -0.009575209 -0.002130399
-0.0068374956 0.00043549738 -0.005688758 0.0005345996 0.0035688567 -0.0024774936 -0.0053216117 -0.0038955826
-0.009581069 -0.04770694 0.009427148 -0.00862369 -0.022690227 -0.0036297888 -0.028043333 -0.060180318
0.03229105 -0.0105170235 -0.016638968 -0.013784944 0.020913873 -0.043052986 0.018005382 0.020789985
-0.09213397 -0.029795839 -0.10178243 0.050506983 -0.093240425 0.08363605 0.06995739 0.0010503161
0.059976555 -0.014934799 0.12616622 -0.09102618 -0.038883876 -0.061034076 0.10690782 0.046085235
-0.029582847 -0.048592202 0.03555992 0.029666357 -0.04070152 -0.10723025 0.11998823 -0.04414779
-0.09838907 -0.0057269656 0.08362631 -0.1237388 -0.06636813 -0.12507638 0.084076375 0.08059427
0.058908705 0.14674707 0.04777874 -0.08245335 -0.102104604 0.021598741 0.0444286 -0.019244255
0.052244034 0.056012932 0.06296393 -0.0481069 -0.061911352 0.07790938 0.058143336 0.014727827
00000000: 8c2b 833d 39fd 51bd 604c 3e3d 063a 32bc
00000010: 065b 403c 7cb1 a43c 2fdd a43b fbc3 0fbd
00000020: a2d4 18bd 473e a53c 9e23 46bb a978 f3bc
00000030: 2008 2abd 9ee0 113e 5595 d83c ca11 d23d
00000040: 8a88 983d 1cfb 9fbd 3a6b 383d b3f7 d23c
00000050: 3790 39bd 4c5b 11bb 6e3d 12bd ad1b d23a
00000060: 6e70 4fbc c3b4 1a3d 05ee e7bc a848 f43d
00000070: 13cc 9dbd aa4f 0b3c d4f0 2f3d 81bf cd3c
00000080: 4938 3e3d 5cd1 11bd 219e de3d f997 a3bd
00000090: 05c0 05be 1565 d53d b11d c33d b14b 64bd
000000a0: f4be 0d3e 6877 1d3d 5590 833d 3fa7 5ebb
000000b0: 80f3 73bd 5550 f03c d929 dbbd c0ff 8d3d
000000c0: 694c 913b 24b0 0dbd 7f28 113d 2d6d 49bd
000000d0: 62b6 a8bd 37f7 b73c f87e 05bd 5290 82bd
000000e0: b94d 3c3d fdb2 d2bc ae56 7a3d b32e a23c
000000f0: c646 913d 4e87 70bc f6d8 163d 79ae f0bd
00000100: 0bb7 0a3b 147f 733b 7cee 11bc 015f 233b
00000110: 6d78 cdb9 9681 9e3b b71a e139 07c7 65ba
00000120: c5ea f0ba b772 9fba 437a aa3b a42b 813b
00000130: 29c0 d9ba 2017 97bb f7c2 043a 9a08 b3bb
00000140: 4e95 823b 918f 30bc c5a1 29ba cbe1 91ba
00000150: b867 15bc 0350 243c 1a73 533a 85b9 833b
00000160: d7f4 71bb 2dc8 173b 2468 a4bb 6bf9 563b
00000170: 84b3 47bc 8572 113c 3500 41bb 3874 ea3b
00000180: b672 693b bac1 483a 63ae 693b efbd 173c
00000190: 80fa 873b 29fe 41bb 6457 80bb 9693 a23a
000001a0: d874 72bb c10a 92bb 97a5 923a d8f8 a23b
000001b0: 4a35 4bbb aec4 8bbb 5518 cbbb a23b ea39
000001c0: ac76 d8ba b334 333b a7ae 4a3b 17d5 c6b9
000001d0: 35e3 903b 6f5d 8abb 56e1 1cbc 2a9e 0bbb
000001e0: 120d e0bb 7853 e439 c368 babb 5f24 0c3a
000001f0: 7be3 693b 725d 22bb ea60 aebb 084d 7fbb
00000200: ebf9 1cbc 5a68 43bd 5374 1a3c 614a 0dbc
00000210: dbe0 b9bc c0e1 6dbb 22bb e5bc a37f 76bd
00000220: 9f43 043d 984f 2cbc 724e 88bc 3fda 61bc
00000230: 9253 ab3c 5458 30bd 0680 933c c24f aa3c
00000240: bcb0 bcbd 6716 f4bc 4f73 d0bd 69e0 4e3d
00000250: d6f4 bebd 6149 ab3d d245 8f3d c3aa 893a
00000260: faa9 753d 16b1 74bc b831 013e ef6b babd
00000270: b344 1fbd defe 79bd 7df2 da3d dfc3 3c3d
00000280: ba57 f2bc 9e08 47bd 47a7 113d dc06 f33c
00000290: a3b6 26bd 899b dbbd 64bc f53d 50d4 34bd
000002a0: 3580 c9bd 45a9 bbbb 4544 ab3d c56a fdbd
000002b0: 04ec 87bd 0614 00be 3c30 ac3d 9c0e a53d
000002c0: 414a 713d dd44 163e a4b3 433d 4ddd a8bd
000002d0: 381c d1bd d8ef b03c c4fa 353d 21a6 9dbc
000002e0: d7fd 553d d16d 653d 3cf3 803d be0b 45bd
000002f0: c296 7dbd f48e 9f3d b527 6e3d fc4c 713c

encoder.layers.0.self_attn.out_proj.weight f4 [64, 64]
0.041661695 0.029824035 0.028920768 0.109175846 0.10198619 -0.017157078 0.11795129 0.07984306
0.046794854 -0.1004515 -0.13642246 0.07380251 0.13822046 -0.16790618 -0.058181398 -0.06665302
-0.023563312 -0.033745706 0.21547867 0.047688615 0.19254173 -0.02365282 -0.034391504 -0.09545063
-0.1204164 -0.061982114 -0.024461795 0.092965834 0.05384851 0.018926231 -0.095767125 0.038724966
0.150282 -0.0028054626 0.07370818 0.084576584 0.045713812 -0.12002242 -0.050436035 0.080271736
0.03740364 -2.2653257e-06 0.03205927 -0.061518822 -0.20851217 0.06619866 -0.03964687 0.07642803
0.03546454 -0.06388603 -0.077870436 -0.040333297 0.00824588 0.20284924 0.054512914 -0.017230155
0.031018233 -0.0080707185 -0.023796413 -0.017470332 -0.040250782 -0.00073064363 0.077900514 0.033121254
0.06963614 0.06486434 0.066672884 0.004748476 0.007481603 0.20827277 0.028384566 -0.2101837
0.10570211 0.06023644 -0.10911956 0.042113774 -0.04370882 -0.103972875 -0.08755948 0.006812367
0.20263314 -0.080557145 -0.020644255 -0.08293417 0.077214584 -0.024526503 -0.09462934 -0.19536974
-0.08298501 -0.16471265 -0.05968694 -0.03176612 -0.00065928884 -0.12593135 -0.0640408 0.055544183
-0.10217625 0.01505664 0.10111803 0.0033428841 -0.13740331 -0.14384942 0.03076726 -0.12892038
0.039579175 -0.09334807 -0.0400084 0.03861071 0.08128685 -0.03529816 0.0010947726 0.09860007
-0.14701371 0.0703517 -0.10089647 0.0072888196 0.059151363 0.013034012 -0.0010231584 -0.18422283
-0.17745458 -0.07425594 0.076189645 0.09539149 -0.14963056 -0.017897315 -0.124933735 -0.022793526
-0.0657555 0.0177386 -0.04309726 0.072116025 -0.14115359 0.03307442 -0.13259621 -0.047567658
0.1649288 0.140543 -0.121270515 -0.05248906 0.17054085 0.017750693 -0.08167128 -0.13612342
0.065314636 -0.0702632 -0.106113315 0.012797376 -0.12269193 -0.096277386 -0.10954422 0.01798969
-0.08090985 -0.012983003 0.105763495 0.017202111 0.06297613 0.08132811 -0.15547685 -0.09403825
0.08886629 -0.13223115 0.06175997 0.098514125 0.07037073 -0.06822821 0.106240764 0.038842198
0.021515278 0.1063384 0.17568219 -0.09621637 -0.107329585 0.0066368855 0.1235957 0.13612537
0.084978946 0.0735784 -0.002523283 0.08892777 0.01670853 0.036999647 -0.015968014 -0.10060865
0.106206626 -0.17276405 0.03738362 -0.061205648 0.00043484528 -0.033742487 0.04151237 0.0028982072
-0.020667966 0.07222101 -0.0774103 0.03339529 0.025206966 -0.072754204 -0.036641665 0.018094197
0.15484305 -0.040822703 -0.04596418 -0.17554145 -0.04261967 -0.06940928 -0.012381951 -0.006868573
-0.06600381 0.046563778 0.08327961 -0.036470342 0.049211316 -0.18047185 0.055905685 0.059196167
-0.13119665 0.025606116 0.07910372 0.014272591 -0.10820155 -0.01977551 -0.06738434 0.03151347
-0.110520236 -0.04787812 -0.019194303 -0.14308774 -0.016124198 -0.042530604 0.08196794 -0.00850334
0.04210578 -0.03155275 0.1969752 -0.14990406 0.08225238 -0.12188482 -0.13503794 0.07852797
0.026724074 0.005545771 0.076276496 0.023781862 0.0434844 -0.031263582 -0.107537635 -0.13918474
0.05444929 -0.047020517 -0.03492514 -0.033151377 -0.009456913 0.12488854 -0.008716998 -0.022774626
00000000: 74a5 2a3d 8951 f43c 3feb ec3c 9697 df3d
00000010: 23de d03d 008d 8cbc 7290 f13d c284 a33d
00000020: f6ab 3f3d 84b9 cdbd 54b2 0bbe c525 973d
00000030: aa89 0d3e 99ef 2bbe 9e4f 6ebd 6181 88bd
00000040: d907 c1bc f038 0abd 71a6 5c3e 2355 433d
00000050: a929 453e 8fc3 c1bc 1bde 0cbd 9f7b c3bd
00000060: e09c f6bd f5e0 7dbd 1a64 c8bc df64 be3d
00000070: 4190 5c3d 2f0b 9b3c 8e21 c4bd 129e 1e3d
00000080: 86e3 193e dadb 37bb 50f4 963d 7d36 ad3d
00000090: 683e 3b3d 51ce f5bd 0496 4ebd 8265 a43d
000000a0: 8f34 193d 0006 18b6 9550 033d 29fb 7bbd
000000b0: 3784 55be 2a93 873d c264 22bd 4d86 9c3d
000000c0: 4443 113d aed6 82bd 897a 9fbd 8734 25bd
000000d0: ba19 073c b6b7 4f3e ef48 5f3d 4126 8dbc
000000e0: f319 fe3c 0c3b 04bc b2f0 c2bc f11d 8fbc
000000f0: 01de 24bd aa88 3fba 4e8a 9f3d 27aa 073d
00000100: 649d 8e3d 98d7 843d cb8b 883d 1b99 9b3b
00000110: 3c28 f53b 7545 553e c086 e83c 653a 57be
00000120: 597a d83d 7cba 763d 137a dfbd 7e7f 2c3d
00000130: 0508 33bd bbef d4bd 6252 b3bd 473a df3b
00000140: 107f 4f3e 25fb a4bd 241e a9bc 64d9 a9bd
00000150: ae22 9e3d ceeb c8bc 07cd c1bd 010f 48be
00000160: 0cf4 a9bd 6faa 28be 4b7a 74bd 311d 02bd
00000170: 20d4 2cba 26f4 00be d327 83bd 4c82 633d
00000180: c841 d1bd 20b0 763c f816 cf3d 4a14 5b3b
00000190: 74b3 0cbe 434d 13be 9f0b fc3c b403 04be
000001a0: c61d 223d 462d bfbd d9df 23bd 4426 1e3d
000001b0: b879 a63d ce94 10bd 797e 8f3a d5ee c93d
000001c0: c38a 16be 8d14 903d cfa2 cebd 0dd7 ee3b
000001d0: b348 723d 9c8c 553c 801b 86ba e9a4 3cbe
000001e0: a7b6 35be 8013 98bd 5109 9c3d 9d5c c33d
000001f0: c138 19be 649d 92bc 42dd ffbd 7db9 babc
00000200: d2aa 86bd 8a50 913c c186 30bd 91b1 933d
00000210: 918a 10be 0b79 073d 4dc7 07be 4ed6 42bd
00000220: 18e3 283e 81ea 0f3e ad5c f8bd c5fe 56bd
00000230: 43a2 2e3e e769 913c 4643 a7bd f063 0bbe
00000240: aec3 853d 27e6 8fbd f051 d9bd 16ac 513c
00000250: e845 fbbd 142d c5bd b858 e0bd 1d5f 933c
00000260: 10b4 a5bd a9b6 54bc 889a d83d 71eb 8c3c
00000270: a1f9 803d 5a8f a63d 5335 1fbe 2097 c0bd
00000280: 88ff b53d 9a67 07be 06f8 7c3d c6c1 c93d
00000290: 871e 903d 3bbb 8bbd c294 d93d ff18 1f3d
000002a0: cf40 b03c f2c7 d93d 08e6 333e 170d c5bd
000002b0: 9dcf dbbd 3b7a d93b be1f fd3d 7364 0b3e
000002c0: 7109 ae3d 46b0 963d aa5d 25bb c31f b63d
000002d0: 54e0 883c f18c 173d 5acf 82bc e80b cebd
000002e0: dc82 d93d 0fe9 30be 911f 193d c6b2 7abd
000002f0: f2fb e339 9035 0abd e008 2a3d d9ef 3d3b
00000300: de4f a9bc 9ce8 933d 4b89 9ebd 80c9 083d
00000310: d77e ce3c 2800 95bd 9215 16bd 483a 943c
00000320: 2d8f 1e3e b535 27bd f044 3cbd 23c1 33be
00000330: f791 2ebd 7426 8ebd abdd 4abc c411 e1bb
00000340: 012d 87bd a9b9 3e3d 808e aa3d ed61 15bd
00000350: ce91 493d 9dcd 38be 5cfd 643d ae77 723d
00000360: 6a58 06be ebc3 d13c 2201 a23d 96d7 693c
00000370: c698 ddbd 4000 a2bc cd00 8abd 4514 013d
00000380: 6f58 e2bd d91b 44bd 5f3d 9dbc 9885 12be
00000390: e516 84bc 9234 2ebd cfde a73d 9851 0bbc
000003a0: 1c77 2c3d 753d 01bd deb3 493e 7380 19be
000003b0: f073 a83d c09e f9bd 6347 0abe 46d3 a03d
000003c0: 72ec da3c 4db9 b53b da36 9c3d 2ed2 c23c
000003d0: b31c 323d 3e0e 00bd b13c dcbd 7286 0ebe
000003e0: 3806 5f3d 9698 40bd aa0d 0fbd bdc9 07bd
000003f0: 2bf1 1abc 90c5 ff3d bdd1 0ebc da91 babc

encoder.layers.0.self_attn.out_proj.bias f4 [64]
-0.027144503 0.00881374 0.016561719 0.05525552 0.05249451 0.005629433 -0.09938608 0.01176195
-0.014517592 0.014538525 0.016554961 -0.044232424 0.050241213 0.0073780976 -0.00038650152 0.043272253
-0.05191126 -0.03624932 0.048172247 0.038482767 0.018440144 -0.012140383 -0.049735267 0.025982946
0.046186544 -0.06967851 0.0067525995 -0.039472435 0.030757396 -0.016338477 0.0013340352 -0.026111813
0.04912979 -0.046613757 0.08129094 -0.011592658 -0.013453287 -0.054893672 -0.024106883 -0.030353144
-0.001358235 0.006291911 -0.030662587 0.04049448 -0.039809387 0.057630718 -0.057392348 0.06675671
0.018670866 -0.016929567 0.042325623 0.041400515 -0.027121654 0.011284437 -0.02265163 -0.01224228
-0.044565562 -0.03303037 -0.056859646 -0.077101335 -0.015085322 0.039084546 -0.02703994 -0.010880406
00000000: 265e debc 8167 103c 71ac 873c 9d53 623d
00000010: 7c04 573d 1b77 b83b ee8a cbbd 32b5 403c
00000020: 32db 6dbc fe32 6e3c 459e 873c 0f2d 35bd
00000030: bbc9 4d3d f8c3 f13b 5ba3 cab9 3f3e 313d
00000040: e7a0 54bd 2b7a 14bd 4350 453d 1ba0 1d3d
00000050: c90f 973c 75e8 46bc 35b7 4bbd 30da d43c
00000060: 1a2e 3d3d 9bb3 8ebd e944 dd3b d9ad 21bd
00000070: eff6 fb3c 45d8 85bc cbda ae3a 71e8 d5bc
00000080: 523c 493d 11ee 3ebd dd7b a63d 22ef 3dbc
00000090: 2d6b 5cbc 30d8 60bd cc7b c5bc 28a7 f8bc
000000a0: ce06 b2ba 602c ce3b 1b30 fbbc 8add 253d
000000b0: 2b0f 23bd 300e 6c3d 3d14 6bbd beb7 883d
000000c0: a5f3 983c e0af 8abc a25d 2d3d 9693 293d
000000d0: 3b2e debc 5ce2 383c e98f b9bc d893 48bc
000000e0: 618a 36bd da4a 07bd a9e5 68bd 4ee7 9dbd
000000f0: 6d28 77bc 1e17 203d dd82 ddbc bb43 32bc

encoder.layers.0.linear1.weight f4 [128, 64]
0.029605534 -0.12568738 -0.03022283 -0.026218178 -0.21244578 -0.04226844 0.058835212 -0.014437224
-0.14808832 -0.09570276 -0.00560624 -0.06437782 -0.12188256 -0.01675656 -0.03778046 0.15799381
-0.058276888 -0.011864913 -0.06879885 0.074974686 -0.14704221 -0.12021411 -0.17560267 0.061860282
-0.1677548 0.0036740545 0.10170286 -0.015550358 -0.11830552 0.096724756 0.08805858 0.021907356
0.07618321 0.2048557 -0.042342182 -0.04270536 -0.078467555 -0.10870092 0.099271685 0.12183584
0.035438806 -0.18356577 0.12350433 -0.23129286 0.024171576 -0.08880708 0.056108646 0.03189465
0.09435276 0.11839799 -0.094042055 0.029378014 0.018346041 -0.01875542 0.052584276 -0.038297184
-0.012264663 -0.005758807 -0.044464834 0.13498893 0.007513997 -0.10113332 0.10171156 -0.051330544
0.012480118 0.045412708 -0.0010503057 -0.13377395 -0.005217956 0.04442111 -0.081425786 -0.04391502
-0.11975912 0.07727799 0.15286268 0.12004382 -0.11517318 -0.04683765 -0.056435853 -0.09018785
-0.07650501 0.026915599 0.03635583 -0.0070803375 0.14406909 0.14262137 0.22840616 -0.19245246
-0.05329884 0.049882025 -0.09329904 0.15152046 -0.06712485 -0.006147873 0.029339364 -0.11032945
0.084889054 0.11882263 -0.10232591 0.13424473 0.058932252 0.14735985 0.03620252 0.118658155
-0.041622806 0.0072387047 -0.045722842 -0.18878013 0.012232365 -0.16846047 0.07205301 0.049463157
-0.028487979 0.045132324 -0.214837 -0.08681121 -0.012122216 -0.04981923 0.046196967 -0.15352607
-0.018406989 -0.12733853 0.066552565 0.07160408 0.002213073 0.0155784 -0.09827328 -0.02452837
-0.074365 -0.026351776 -0.020119881 -0.0359307 -0.22007382 -0.06306182 0.08849099 -0.09363308
0.07876238 -0.0025324957 0.065868914 -0.035555325 0.10353148 -0.029622165 -0.09216409 0.04428398
0.1859346 -0.014442767 -0.08956635 0.07859064 -0.24353193 -0.11087765 0.055637836 0.114285424
0.018067386 0.08142676 -0.16957016 0.031234793 -0.15389317 -0.02352081 -0.13850066 -0.08595209
0.10773093 -0.08649708 -0.13825603 -0.10136849 0.0005473299 0.15956415 0.1991805 -0.02546138
-0.13131431 -0.06818346 0.054818984 0.019987488 -0.041387074 -0.114543006 0.12178964 0.057793558
0.051576167 -0.05674818 -0.07234061 0.12720819 0.13442008 0.052756164 -0.13167499 0.15545075
-0.0015683227 -0.0734354 0.06597949 0.07856245 -0.042168647 -0.006646632 0.26328206 0.072895594
0.14478336 0.061051395 -0.112415336 -0.04529518 0.15306526 -0.033493944 0.041218143 -0.0031890213
-0.04228547 -0.116054386 -0.00741458 0.0011454909 0.007825919 -0.03209103 0.012280985 -0.112028204
0.15659127 -0.07342171 -0.15011454 0.030926378 -0.18730068 0.0029679984 0.14503454 -0.018873338
-0.10820193 -0.018064968 -0.044901963 -0.08413479 0.0490401 -0.034816045 0.047412172 -0.08880929
-0.03549605 -0.107596576 0.08658673 0.017424656 0.04735685 0.14896387 0.18895838 0.07808598
-0.19424203 -0.10674629 0.05593509 -0.11288545 0.006639433 0.18407416 0.07734747 -0.03493845
0.037910003 -0.05711442 0.035682335 0.079433754 -0.024808122 -0.049022283 0.07477181 -0.0286645
-0.18607002 0.019587671 0.07562516 0.2843901 0.057579022 0.16297571 0.07470641 0.07599993
00000000: 4e87 f23c 31b4 00be de95 f7bc 81c7 d6bc
00000010: 638b 59be ac21 2dbd 31fd 703d 1b8a 6cbc
00000020: 77a4 17be cfff c3bd 8db4 b7bb 85d8 83bd
00000030: 909d f9bd 0e45 89bc afbf 1abd 21c9 213e
00000040: bfb3 6ebd 0d65 42bc 69e6 8cbd 548c 993d
00000050: 3c92 16be d132 f6bd 30d1 33be 3561 7d3d
00000060: eac7 2bbe 68c8 703b 9749 d03d eec6 7ebc
00000070: 2a4a f2bd a117 c63d 0f58 b43d 0e77 b33c
00000080: f105 9c3d b1c5 513e ff6e 2dbd d1eb 2ebd
00000090: 99b3 a0bd 979e debd f44e cb3d 1285 f93d
000000a0: 4828 113d aaf8 3bbe d7ef fc3d 09d8 6cbe
000000b0: 7803 c63c 7de0 b5bd 2ed2 653d f7a3 023d
000000c0: 053c c13d a57a f23d 1f99 c0bd 29aa f03c
000000d0: 704a 963c f7a4 99bc 9c62 573d 82dd 1cbd
000000e0: baf1 48bc 60b4 bcbb c220 36bd 8a3a 0a3e
000000f0: fa37 f63b fc1e cfbd 264e d03d fa3f 52bd
00000100: 6979 4c3c ad02 3a3d 69aa 89ba 0afc 08be
00000110: 63fb aabb e9f2 353d 90c2 a6bd 3ce0 33bd
00000120: 4544 f5bd ec43 9e3d 0988 1c3e 89d9 f53d
00000130: ebdf ebbd d6d8 3fbd 4829 67bd 68b4 b8bd
00000140: a9ae 9cbd 1a7e dc3c dae9 143d 2d02 e8bb
00000150: d986 133e 560b 123e 4ee3 693e 4212 45be
00000160: e24f 5abd 1851 4c3d 9113 bfbd 2e28 1b3e
00000170: c178 89bd 1974 c9bb 1b59 f03c 68f4 e1bd
00000180: 50da ad3d 4759 f33d 3f90 d1bd 7377 093e
00000190: f262 713d 80e5 163e 1849 143d 0c03 f33d
000001a0: ad7c 2abd a832 ed3b e047 3bbd 944f 41be
000001b0: 426a 483c e780 2cbe 8790 933d e199 4a3d
000001c0: 9f5f e9bc acdc 383d 3bfe 5bbe 13ca b1bd
000001d0: 429c 46bc 400f 4cbd 0839 3d3d f035 1dbe
000001e0: 41ca 96bc 0865 02be b64c 883d 29a5 923d
000001f0: 3409 113b 8c3c 7f3c 8043 c9bd b8ef c8bc
00000200: ad4c 98bd aedf d7bc 73d2 a4bc 122c 13bd
00000210: 085b 61be 8e26 81bd c43a b53d b3c2 bfbd
00000220: 2c4e a13d 3af8 25bb 48e6 863d 76a2 11bd
00000230: 5008 d43d 2faa f2bc 87c0 bcbd 1e63 353d
00000240: a465 3e3e 5ba1 6cbc 906e b7bd 21f4 a03d
00000250: 6f60 79be d213 e3bd 80e4 633d 7a0e ea3d
00000260: 0e02 943c 13c3 a63d cda3 2dbe 1ce0 ff3c
00000270: 2c96 1dbe b7ae c0bc 1ed3 0dbe a607 b0bd
00000280: 09a2 dc3d 6225 b1bd fd92 0dbe 489a cfbd
00000290: b07a 0f3a c964 233e f9f5 4b3e 6294 d0bc
000002a0: 4277 06be c5a3 8bbd df89 603d cdbc a33c
000002b0: 7e85 29bd 8695 eabd d96c f93d f0b8 6c3d
000002c0: 8841 533d c870 68bd 5027 94bd dd42 023e
000002d0: 6ba5 093e d916 583d cfd5 06be 7b2e 1f3e
000002e0: 2d90 cdba 4d65 96bd 4120 873d 5ae5 a03d
000002f0: 08b9 2cbd fecb d9bb e8cc 863e 494a 953d
00000300: 1742 143e 0711 7a3d 033a e6bd 7087 39bd
00000310: 24bd 1c3e f230 09bd 5bd4 283d e6fe 50bb
00000320: 8733 2dbd ecad edbd 01f6 f2bb 4c24 963a
00000330: 4938 003c e271 03bd 2f36 493c 0b6f e5bd
00000340: 7659 203e 1f5e 96bd a0b7 19be 5159 fd3c
00000350: c0cb 3fbe c082 423b ef83 143e 429c 9abc
00000360: f998 ddbd fcfc 93bc 1feb 37bd dc4e acbd
00000370: 46de 483d 459b 0ebd 4433 423d a5e1 b5bd
00000380: 4e64 11bd 985b dcbd 6254 b13d 27be 8e3c
00000390: 42f9 413d fc89 183e 4e7e 413e 8beb 9f3d
000003a0: 62e7 46be cd9d dabd 311c 653d 7d30 e7bd
000003b0: 9a8f d93b f07d 3c3e 5a68 9e3d 9f1b 0fbd
000003c0: 8547 1b3d cff0 69bd a427 123d 2aae a23d
000003d0: 673a cbbc 97cb 48bd f621 993d d0d1 eabc
000003e0: 2489 3ebe 5376 a03c 5de1 9a3d 949b 913e
000003f0: fbd7 6b3d 1be3 263e adff 983d daa5 9b3d

encoder.layers.0.linear1.bias f4 [128]
-0.08064136 0.06081983 -0.12091132 -0.14522517 -0.03704005 -0.11524104 -0.093036726 -0.093595386
0.036279045 -0.00075837946 -0.033230953 -0.08681549 -0.15556562 -0.16133635 0.16048701 -0.07178541
-0.12394054 -0.06783765 0.040110216 -0.0127736125 0.009644401 0.013613345 -0.107054405 -0.0016129799
0.053608365 0.0007633369 -0.0040834905 0.030955225 -0.024232993 -0.12296797 -0.068929255 -0.096029565
-0.04237792 -0.18782371 0.023623386 0.072958484 -0.121762514 -0.119820245 -0.15689409 -0.017450955
-0.05354817 0.12852988 0.09426388 0.044046137 -0.012974192 -0.11863924 -0.0426219 0.09334877
-0.08517246 0.10233628 0.034074463 -0.11508525 -0.052679606 -0.004797879 -0.19830991 -0.012680887
-0.0017059203 -0.028209282 0.058743715 0.043725047 0.0088758515 0.10574138 0.00995448 0.04249811
-0.10535341 0.012569046 -0.05523999 -0.131088 0.073235735 0.0837729 -0.13790278 -0.09068998
0.082008734 -0.07239183 -0.0030729403 -0.12219848 -0.08823685 -0.17684397 0.078351274 -0.017597847
-0.029116383 0.004565101 -0.08222417 -0.11859431 -0.07844583 -0.00021420738 -0.13987258 -0.10038588
-0.02587194 -0.099254444 -0.13807277 -0.024161479 -0.1692753 -0.12341962 -0.21534675 0.012808137
-0.07506198 -0.15326433 -0.103337 -0.03046119 0.0066922284 -0.092178464 0.014460641 -0.1584441
-0.09444703 0.0347624 -0.12540808 -0.19313592 0.056892637 -0.12517941 0.056471236 -0.09075655
-0.097122386 -0.09497804 0.0068161036 -0.13276827 -0.020117179 0.013711695 -0.012029833 -0.053629804
-0.1717041 0.119927324 -0.11049633 -0.094496675 -0.009282826 -0.16354227 0.029497458 -0.013376819
00000000: 4c27 a5bd 371e 793d 5ba0 f7bd e8b5 14be
00000010: 4fb7 17bd 7f03 ecbd 0a8a bebd f0ae bfbd
00000020: 5699 143d fccd 46ba 2e1d 08bd 52cc b1bd
00000030: 984c 1fbe 5b35 25be b556 243e 3b04 93bd
00000040: 8ad4 fdbd 77ee 8abd 9c4a 243d 6a48 51bc
00000050: 8d03 1e3c 820a 5f3c 573f dbbd a06a d3ba
00000060: 7294 5b3d ac1a 483a cdce 85bb d095 fd3c
00000070: 4584 c6bc a2d6 fbbd c82a 8dbd 26ab c4bd
00000080: 7894 2dbd dc54 40be d585 c13c 426b 953d
00000090: a05e f9bd 5164 f5bd d8a8 20be 4ef5 8ebc
000000a0: 5355 5bbd 569d 033e 6c0d c13d b969 343d
000000b0: b591 54bc 21f9 f2bd 4d94 2ebd a42d bf3d
000000c0: e66e aebd af95 d13d aa91 0b3d d1b1 ebbd
000000d0: 92c6 57bd 8737 9dbb c111 4bbe 7fc3 4fbc
000000e0: 3099 dfba 2717 e7bc 409d 703d 0919 333d
000000f0: 056c 113c f08e d83d 1e18 233c 8012 2e3d
00000100: 87c3 d7bd 66ee 4d3c 5443 62bd ef3b 06be
00000110: 9efc 953d 2091 ab3d 6336 0dbe abbb b9bd
00000120: 32f4 a73d 2b42 94bd 6263 49bb 3243 fabd
00000130: 86b5 b4bd 9616 35be a276 a03d 5c29 90bc
00000140: 7b85 eebc d896 953b 2565 a8bd 93e1 f2bd
00000150: 35a8 a0bd db9c 60b9 c23a 0fbe 1d97 cdbd
00000160: 64f1 d3bc ea45 cbbd f362 0dbe 4bee c5bc
00000170: 8156 2dbe 6dc3 fcbd dc83 5cbe 38d9 513c
00000180: 18ba 99bd 53f1 1cbe 59a2 d3bd bf89 f9bc
00000190: 7b4a db3b 10c8 bcbd 53ec 6c3c 2c3f 22be
000001a0: 726d c1bd 0563 0e3d fa6a 00be 6cc5 45be
000001b0: 4108 693d 082f 00be 624e 673d 92de b9bd
000001c0: 1ae8 c6bd d983 c2bd 9f59 df3b 68f4 07be
000001d0: c8cc a4bc 04a7 603c c718 45bc edaa 5bbd
000001e0: 33d3 2fbe 759c f53d e64b e2bd 7987 c1bd
000001f0: ff16 18bc a077 27be a7a4 f13c 722a 5bbc

encoder.layers.0.linear2.weight f4 [64, 128]
-0.066828966 -0.12998608 0.031849172 -0.0188946 0.041400824 -0.12765607 0.049929157 0.07995406
-0.14906114 0.135267 0.0007393035 -0.1072422 -0.15257472 -0.060517505 0.036344655 0.11857115
0.04163633 0.14427403 0.04018676 -0.043282725 0.022636088 0.0578975 0.02138042 0.03061903
0.07336167 0.0841104 0.05885291 0.10806145 0.059115138 -0.09315968 -0.0278849 0.014625658
-0.04662983 -0.0015759456 0.10190793 -0.097076535 -0.07296908 -0.080533996 -0.021691835 0.0688864
0.021462852 -0.0660593 -0.048224516 -0.17558709 -0.028262058 -0.013390619 -0.0030209727 0.010034469
-0.10228422 0.06230626 -0.023810366 0.026448714 -0.003715087 -0.048431616 -0.17904507 0.13709395
-0.04535646 -0.06568606 -0.025292644 0.08187072 -0.017553655 0.0027659782 -0.15037374 -0.061001565
-0.14974546 0.065397605 -0.08107744 -0.0031651768 -0.059731744 -0.076732434 -0.039064076 -0.04551051
0.086414166 -0.08044076 -0.005683798 0.19982265 -0.05080897 -0.0034031463 0.082396545 -0.12099859
0.1939273 0.08644082 -0.21205804 0.074406825 -0.1097691 0.06591324 -0.044272877 0.06114386
-0.09802464 0.19239654 0.06891745 -0.046635874 0.09314252 -0.08956058 0.11135329 -0.00033579784
0.012917953 0.0050840457 -0.10408103 -0.11208092 -0.10129923 -0.062315833 -0.046790086 0.025416894
-0.0686124 0.031957228 -0.05575521 0.008318797 -0.007193353 -0.14817658 -0.048772912 0.0012559678
0.0783054 0.0751946 -0.0092647765 -0.08417836 0.002955423 -0.019543339 -0.05502598 -0.03503944
0.03059714 -0.17646916 -0.015858423 -0.018759158 -0.20269136 0.17232451 -0.090774395 0.04822452
-0.039637648 0.043588214 -0.07569501 0.039171588 -0.09796074 0.13548224 -0.09949789 0.020506905
-0.010651265 -0.07642855 -0.043035574 0.058310512 0.05746848 0.008531392 0.05718945 0.018843532
-0.0113265645 -0.080401756 -0.031452317 -0.01764845 -0.06446733 0.11081462 0.05047558 -0.07978456
-0.03399788 0.013985726 -0.029833099 0.005811955 0.0075405324 -0.1506852 0.11239033 -0.002555531
0.02014774 0.1313299 -0.025974127 0.05907015 0.0055789305 0.059635326 -0.07031219 0.049875468
0.030062882 0.13854934 -0.06923649 0.12986264 -0.05230118 -0.016256182 0.07313043 0.035868607
0.06760807 -0.059708107 0.05975618 0.024198672 0.07933651 0.06989081 -0.04762684 -0.12580903
-0.0373964 -0.039410062 -0.04933633 0.032317694 -0.08007804 -0.036566377 -0.008290611 0.015609368
0.017285245 0.015431805 -0.13361853 0.046802618 -0.029287562 -0.0054672733 0.06325372 0.065338306
0.022758894 -0.0042553693 0.10276026 -0.055429757 0.030957488 -0.052314565 -0.020885495 -0.0061572134
-0.1122716 0.049639642 0.09233166 0.08687596 -0.0024329452 0.011648407 0.07928379 0.056596193
0.056940988 -0.13621935 0.07285772 0.0691884 -0.048744764 0.06340883 -0.10021161 -0.000100690595
0.031695604 0.1333855 -0.06028439 0.0025452569 0.015574086 0.11433593 0.09230063 0.030494418
0.055530705 0.0379028 0.09068662 0.109754436 0.13627781 0.049260058 0.051454186 0.103278555
0.0840273 -0.032252274 -0.04883044 0.0033987102 -0.057904266 0.034815483 0.00086855266 -0.07784533
-0.15245166 -0.016146058 0.042022653 0.019501898 0.12710561 -0.03137342 0.09936249 -0.0054126186
00000000: a0dd 88bd 121b 05be 4774 023d d9c8 9abc
00000010: e993 293d 46b8 02be 8482 4c3d f4be a33d
00000020: 7ca3 18be 6f83 0a3e d1cd 413a cca1 dbbd
00000030: 8c3c 1cbe 34e1 77bd 22de 143d 6ed5 f23d
00000040: db8a 2a3d 92bc 133e df9a 243d 3a49 31bd
00000050: 516f b93c ee25 6d3d fe25 af3c c3d4 fa3c
00000060: a53e 963d 1342 ac3d c00f 713d 524f dd3d
00000070: b722 723d 81ca bebd e06e e4bc 75a0 6f3c
00000080: ecfe 3ebd f68f ceba 1bb5 d03d 10d0 c6bd
00000090: d070 95bd 02ef a4bd 13b3 b1bc 5014 8d3d
000000a0: ddd2 af3c 194a 87bd 1287 45bd 1acd 33be
000000b0: d585 e7bc 5464 5bbc 83fb 45bb 9d67 243c
000000c0: 647a d1bd d934 7f3d f50d c3bc f9aa d83c
000000d0: d178 73bb 3b60 46bd 9757 37be 5b62 0c3e
000000e0: b2c7 39bd 6a86 86bd 8532 cfbc d6ab a73d
000000f0: afcc 8fbc 6a45 353b 93fb 19be c7dc 79bd
00000100: e056 19be 2eef 853d ee0b a6bd db6e 4fbb
00000110: 46a9 74bd e525 9dbd a701 20bd 3b69 3abd
00000120: e9f9 b03d 20be a4bd 273f babb 4f9e 4c3e
00000130: 111d 50bd 5207 5fbb 85bf a83d 1cce f7bd
00000140: e194 463e e207 b13d be25 59be 9b62 983d
00000150: 9fce e0bd 85fd 863d 7a57 35bd fc71 7a3d
00000160: 24c1 c8bd 9903 453e 9824 8d3d 4205 3fbd
00000170: 81c1 be3d 8a6b b7bd 320d e43d 060e b0b9
00000180: d2a5 533c 1198 a63b 6f28 d5bd ae8a e5bd
00000190: f875 cfbd e33e 7fbd f6a6 3fbd 1737 d03c
000001a0: a884 8cbd 95e5 023d 935f 64bd 904b 083c
000001b0: 38b6 ebbb 9abb 17be 1bc6 47bd 499f a43a
000001c0: 955e a03d a0ff 993d 4acb 17bc b465 acbd
000001d0: c5af 413b 5a19 a0bc ec62 61bd 8485 0fbd
000001e0: daa6 fa3c 55b4 34be 86e9 81bc ceac 99bc
000001f0: 538e 4fbe d675 303e ede7 b9bd 1387 453d
00000200: 165b 22bd 8e89 323d fc05 9bbd 6372 203d
00000210: a49f c8bd dbbb 0a3e 8dc5 cbbd 19fe a73c
00000220: a582 2ebc 9286 9cbd 1246 30bd 01d7 6e3d
00000230: 1264 6b3d 40c7 0b3c 7c3f 6a3d c05d 9a3c
00000240: 0e93 39bc ada9 a4bd 25d4 00bd 7b93 90bc
00000250: 7307 84bd c7f2 e23d 7bbf 4e3d 1666 a3bd
00000260: 5c41 0bbd 6324 653c 8b64 f4bc 3672 be3b
00000270: 9216 f73b 394d 1abe e72c e63d b27a 27bb
00000280: e00c a53c 587b 063e b1c7 d4bc 8bf3 713d
00000290: 76cf b63b 2c44 743d d6ff 8fbd 384a 4c3d
000002a0: 6f46 f63c e1df 0d3e dccb 8dbd b6fa 043e
000002b0: c339 56bd af2b 85bc 68c5 953d f6ea 123d
000002c0: 1a76 8a3d 7d90 74bd e5c2 743d 4b3c c63c
000002d0: 2e7b a23d ea22 8f3d 5d14 43bd 15d4 00be
000002e0: f82c 19bd 726c 21bd e414 4abd 8f5f 043d
000002f0: f5ff a3bd a0c6 15bd 58d5 07bc 6fbe 7f3c
00000300: c999 8d3c aed5 7c3c 4cd3 08be 1ab4 3f3d
00000310: 78ec efbc d026 b3bb 2b8b 813d 17d0 853d
00000320: dc70 ba3c a070 8bbb f973 d23d 500a 63bd
00000330: 8f9a fd3c cc47 56bd 0f18 abbc 73c2 c9bb
00000340: a7ee e5bd f052 4b3d 6218 bd3d 06ec b13d
00000350: 0c72 1fbb f6d8 3e3c 8a5f a23d 69d1 673d
00000360: f43a 693d 167d 0bbe 6e36 953d a6b2 8d3d
00000370: 97a8 47bd 7ddc 813d bf3b cdbd da29 d3b8
00000380: 40d3 013d 3596 083e c4ec 76bd 53ce 263b
00000390: 742a 7f3c f528 ea3d 1d08 bd3d 6ecf f93c
000003a0: 2a74 633d f73f 1b3d e8b9 b93d efc6 e03d
000003b0: 698c 0b3e eac4 493d a0c1 523d b583 d33d
000003c0: 8116 ac3d f61a 04bd 6d02 48bd e5bc 5e3b
000003d0: 062d 6dbd ae9a 0e3d 95af 633a 5f6d 9fbd
000003e0: 4a1c 1cbe bd44 84bc f21f 2c3d 72c2 9f3c
000003f0: f927 023e 6a81 00bd 907e cb3d 565c b1bb

encoder.layers.0.linear2.bias f4 [64]
-0.0715429 -0.051787186 0.02334245 -0.0064521227 0.04164065 0.090325564 0.10384277 0.043784194
0.025544357 0.106310464 0.08784439 -0.0746196 -0.030011443 0.10584849 0.08104083 0.046309106
-0.003604188 -0.06010618 -0.023579884 0.08597328 0.03150136 -0.13520612 -0.022693092 0.026922135
0.10075284 -0.12104852 0.050776448 0.0126562845 -0.02359775 -0.0557363 -0.06124897 -0.0742997
-0.026081799 -0.052493773 -0.02668869 -0.09827538 -0.08486248 -0.037809394 -0.060954146 0.031791765
0.006677158 -0.029055376 -0.008647723 -0.04064748 -0.056814726 -0.07604993 -0.018612795 0.0837787
-0.067042634 0.01914583 0.09912324 -0.09930944 -0.04002224 0.08884797 -0.033738166 0.011731855
0.018618371 -0.09668827 -0.0863751 0.04779653 0.051699057 0.011222057 0.009714758 0.07048031
00000000: 1585 92bd cd1e 54bd aa38 bf3c 546c d3bb
00000010: 638f 2a3d 9cfc b83d 85ab d43d 0e57 333d
00000020: 6642 d13c 4db9 d93d c2e7 b33d 29d2 98bd
00000030: 8fda f5bc 18c7 d83d bcf8 a53d 9eae 3d3d
00000040: 3e34 6cbb e631 76bd 9a2a c1bc c212 b03d
00000050: 9207 013d 7973 0abe dde6 b9bc cf8b dc3c
00000060: 8157 ce3d 49e8 f7bd f7fa 4f3d 4e5c 4f3c
00000070: 1250 c1bc bf4b 64bd 33e0 7abd 712a 98bd
00000080: 7fa9 d5bc b603 57bd 3da2 dabc 9a44 c9bd
00000090: 61cc adbd 06de 1abd 0eab 79bd 1538 023d
000000a0: 10cc da3b 8a05 eebc 2eaf 0dbc f97d 26bd
000000b0: 8fb6 68bd 11c0 9bbd dc79 98bc 2b94 ab3d
000000c0: a64d 89bd b7d7 9c3c 2001 cb3d bf62 cbbd
000000d0: 5cee 23bd edf5 b53d 0831 0abd f736 403c
000000e0: 8e85 983c 8004 c6bd 6ee5 b0bd 4bc6 433d
000000f0: 64c2 533d b8dc 373c a62a 1f3c fb57 903d

encoder.layers.0.norm1.weight f4 [64]
1.0664611 1.0283433 1.0354706 0.9766236 1.0281724 1.0045141 0.94615847 0.9937259
0.9614721 1.0273222 0.9803198 1.0734936 0.97077656 1.0291922 0.9705789 0.9697007
0.96131027 0.89270854 1.0003253 0.96029687 0.99584454 1.057688 0.9671823 1.0335484
0.9808107 1.0432496 0.93236315 1.0630071 1.0978575 1.0607016 0.984237 1.0778947
1.0148507 0.9162453 1.1047441 1.0286697 1.0340406 1.0942478 1.0082643 1.0070419
1.0236696 0.944832 0.97631735 0.99088037 0.83576113 1.0077819 0.9885633 1.0053647
1.0387055 0.96945167 0.9923447 1.0465033 0.9345143 1.0534124 0.9462609 0.98967946
0.93184394 1.0130758 1.0135922 1.0112494 0.88266236 1.0923414 0.94377327 1.0412943
00000000: cc81 883f c1a0 833f 4d8a 843f 0104 7a3f
00000010: 279b 833f eb93 803f 7137 723f d264 7e3f
00000020: 0923 763f 4b7f 833f 3df6 7a3f 3d68 893f
00000030: d084 783f 92bc 833f dc77 783f 4e3e 783f
00000040: 6e18 763f 8c88 643f a90a 803f 04d6 753f
00000050: abef 7e3f 5262 873f 4299 773f 504b 843f
00000060: 6916 7b3f 3489 853f 5aaf 6e3f 9e10 883f
00000070: 9886 8c3f 12c5 873f f5f6 7b3f 74f8 893f
00000080: a1e6 813f 0d8f 6a3f 4168 8d3f 73ab 833f
00000090: 715b 843f 5010 8c3f ce0e 813f c0e6 803f
000000a0: 9b07 833f 83e0 713f efef 793f 56aa 7d3f
000000b0: 71f4 553f fffe 803f 7c12 7d3f caaf 803f
000000c0: 4df4 843f fc2d 783f 4d0a 7e3f d2f3 853f
000000d0: 543c 6f3f 38d6 863f 283e 723f a25b 7d3f
000000e0: 538d 6e3f 78ac 813f 64bd 813f 9f70 813f
000000f0: 29f6 613f d8d1 8b3f 209b 713f 2249 853f
