checkpoints/structure_agent.pt (torch, 234290 bytes, 12 tensors)

positional_encoding f4 [100, 32]
0	0xbf4e1a0b	-0.8050849
1	0xbe0d5ab8	-0.13804138
2	0x3f31aa84	0.6940081
3	0x3d6cfd80	0.057858944
4	0xbdf1607a	-0.117859796
5	0x3ecd0918	0.40046
6	0x3f4e9a5c	0.80704284
7	0xbf2f0370	-0.6836462
8	0x3ee53775	0.44768873
9	0xbf96d32b	-1.1783193
10	0x3f371319	0.71513516
11	0xbe96d09d	-0.29456034
12	0xbf382e67	-0.71945804
13	0x3d6bd9ae	0.057580642
14	0x404822df	3.1271284
15	0x3d0ab562	0.033864386
16	0x3ff23e53	1.892527
17	0xbf24d543	-0.6438791
18	0x3fa6a021	1.3017617
19	0xbf9cf6d0	-1.2262821
20	0xbfcbab85	-1.5911719
21	0xbfaaf93f	-1.3357314
22	0xbe2c3f5f	-0.16821049
23	0xbf91efbd	-1.1401287
24	0xbf12b309	-0.57304436
25	0xbd14cff1	-0.03633112
26	0x3edbe1c0	0.4294567
27	0xbe97919b	-0.29603276
28	0x3f2c5319	0.67314297
29	0xbe68421d	-0.2268147
30	0x3e825eeb	0.25463042
31	0x3fddc1e1	1.7324792
32	0xbe9a990f	-0.301949
33	0xbf033b79	-0.51262623
34	0xbfda449e	-1.705219
35	0x3f3ff47f	0.74982446
36	0xbf9434c8	-1.1578608
37	0xbf3e7063	-0.7439024
38	0x3f27df62	0.6557523
39	0x3ea252d4	0.31703818
40	0x3f446d1b	0.7672898
41	0x3f89ed10	1.0775471
42	0x3b5d2dd6	0.0033749244
43	0x3fda5dc0	1.705986
44	0x3f2f2f7a	0.6843182
45	0x3eaa5434	0.33267367
46	0xbe7ce65d	-0.24697252
47	0x3fc87058	1.5659285
48	0xbdc4e8b8	-0.096147
49	0xbdd07a11	-0.10179532
50	0x3f9bc00a	1.2167981
51	0x3f403bea	0.7509142
52	0xbf3a4759	-0.7276512
53	0x3dcac692	0.099011555
54	0xbf37a81a	-0.7174088
55	0xbf5402fc	-0.82817054
56	0x3ee86707	0.45391104
57	0x3e7d197f	0.24716757
58	0x3cf7eb9d	0.030263716
59	0x3e7233f1	0.23652627
60	0x3ec9fec4	0.39452183
61	0xbe1e186e	-0.15439007
62	0x3f0a189c	0.539438
63	0xbd994a3b	-0.074848615
64	0x3e13dbee	0.14439365
65	0xbf0943ec	-0.53619266
66	0x3f779363	0.9670927
67	0x3fb65ba2	1.4246714
68	0xbea4593c	-0.3209933
69	0x3fa7c0de	1.3105733
70	0x3e649641	0.22322942
71	0x3f65bc75	0.8974069
72	0x3f0b3d2c	0.54390216
73	0x3defec09	0.11714942
74	0x3faab287	1.3335732
75	0x3f1ded76	0.6169046
76	0x3eee0a5a	0.46492273
77	0x3f68200e	0.9067391
78	0xbf87a986	-1.059861
79	0xbf9bc299	-1.2168761
80	0xbe86410c	-0.26221502
81	0x4009b972	2.1519437
82	0xbe4bb0f3	-0.1989172
83	0x3f02db7a	0.51116145
84	0xbf30fd6f	-0.6913671
85	0x3d463e4e	0.048399262
86	0x4004dc38	2.075941
87	0xbf6d05df	-0.92587084
88	0x3ff78284	1.9336705
89	0x3f31677f	0.6929855
90	0x3f0af342	0.5427743
91	0xbf2e957d	-0.6819685
92	0x3f20a45e	0.62750804
93	0xbf0890a6	-0.53345716
94	0xbefbeff1	-0.49206498
95	0xbd83108b	-0.0639964
96	0xbe684710	-0.22683358
97	0x3f55e29b	0.835489
98	0x3fa45c0c	1.284059
99	0x3f033c89	0.51264244
100	0xbf5b4c77	-0.8566355
101	0xbf5b2fa5	-0.85619575
102	0xbf5f6481	-0.8726273
103	0x3f0f34c8	0.5593991
104	0x3fffc316	1.998141
105	0xbececd86	-0.40391177
106	0xbdc9e096	-0.098572895
107	0x3f2f5ead	0.6850384
108	0x3f1333f9	0.5750118
109	0xbe6d3ef8	-0.23168552
110	0xbf5c8165	-0.8613494
111	0xbfad63cd	-1.3546082
112	0x3fd73c4e	1.6815279
113	0xbf3c4f15	-0.7355817
114	0xbf5e13d5	-0.8674901
115	0xbec43eb5	-0.38329092
116	0xbe1f9635	-0.15584643
117	0xbe629c94	-0.22130042
118	0xbf645ec7	-0.8920712
119	0xbe84e9b8	-0.25959563
120	0xbf2f88a6	-0.68567884
121	0xbdad7820	-0.08470178
122	0xbda1923d	-0.07889221
123	0xbf1a42e6	-0.6025833
124	0x3c49d185	0.01231802
125	0xbf02ab8c	-0.5104301
126	0x3d19f8c9	0.037590776
127	0x40195db9	2.3963454
128	0xbf5267e1	-0.82189757
129	0x401d86f1	2.4613612
130	0x3f2baf32	0.670642
131	0x3edd7cc5	0.43259254
132	0x3f0359ce	0.51308906
133	0x3e8fd5e1	0.28092864
134	0x4036e86f	2.8579366
135	0xbfe7671d	-1.8078343
136	0xbe638747	-0.22219573
137	0xbf64b9ff	-0.8934631
138	0x400ae336	2.1701179
139	0x3e5b9d58	0.2144674
140	0xbee9ea4c	-0.45686567
141	0x3dcbfef3	0.09960737
142	0xbe5bf1cd	-0.21478958
143	0xbf33fac7	-0.7030453
144	0xbea9b6ca	-0.3314727
145	0xbf318277	-0.693397
146	0x3f265793	0.6497738
147	0xbf1cd2ab	-0.61258954
148	0x3fc6d6e8	1.5534334
149	0x3f9ac715	1.2092005
150	0x3f742d58	0.9538169
151	0xbe8ef273	-0.2791935
152	0xbf45c602	-0.7725526
153	0x3f00b0df	0.50269884
154	0x3d9de376	0.077094
155	0xbf8cf041	-1.101082
156	0x3fd93478	1.6969137
157	0xbfb18613	-1.3869041
158	0x3ec3a168	0.3820908
159	0xbeb72c2f	-0.35775897
160	0xbf94c95c	-1.162395
161	0xbfafc3a0	-1.3731575
162	0xbdab4d3c	-0.08364341
163	0x3f517861	0.8182431
164	0x3f746da0	0.95479774
165	0xbf0f6391	-0.560113
166	0x3ee37f02	0.44432837
167	0x3f48f5d4	0.78500104
168	0xbf1f7de0	-0.62301445
169	0x3f0de34a	0.5542494
170	0xbe2affda	-0.16699162
171	0xbed4b4c5	-0.41544166
172	0x3e8766d9	0.26445654
173	0xbe232fe7	-0.15936242
174	0x3f01be3c	0.506809
175	0xbf6ab1fe	-0.91677845
176	0x3fd3e765	1.6554991
177	0x3f847186	1.0347145
178	0xbb597c47	-0.0033185647
179	0xbf1db47c	-0.6160352
180	0x3e994da4	0.29942048
181	0xbe06beb1	-0.1315868
182	0xbfe072e6	-1.7535064
183	0xbe25e722	-0.16201451
184	0x3d7f532f	0.06233519
185	0x3f2f81cc	0.6855743
186	0x3f93e910	1.15555
187	0x3f81f2c3	1.015221
188	0xc02c028f	-2.6876562
189	0x3f366f15	0.7126325
190	0x3ed6734b	0.41884837
191	0xbfd1a0f2	-1.6377242
192	0x3fbc3cb5	1.4706026
193	0xbfaceb5d	-1.3509327
194	0x3f07221c	0.5278642
195	0xbf60ab9f	-0.87761873
196	0x3f833a06	1.0252082
197	0x3fadfbd0	1.3592472
198	0x40272747	2.6117723
199	0xbf120b9b	-0.5704896
200	0x40286e31	2.6317255
201	0xbf96e26c	-1.1787848
202	0xbe853030	-0.26013327
203	0xbf14c313	-0.5811016
204	0x3dfe46ec	0.12415871
205	0xbf378d99	-0.71700436
206	0x3f54b245	0.8308452
207	0xbf7398a6	-0.951548
208	0x3ed2992e	0.41132492
209	0xbf51abb1	-0.81902605
210	0x3f23cc84	0.6398394
211	0x3ec2903c	0.38000667
212	0xbf8a1675	-1.0788103
213	0x3db9ebe2	0.09078194
214	0x3fa3f446	1.2808921
215	0x3f75152f	0.9573545
216	0xbea9b3c6	-0.3314497
217	0x3fb5fe89	1.4218303
218	0x3fc99b7b	1.5750574
219	0xbdc6bdb0	-0.09704149
220	0xc0095387	-2.145723
221	0x3e984349	0.29738835
222	0xbf502a8f	-0.8131494
223	0x3fff1f71	1.993147
224	0x3f651d26	0.894976
225	0xbebbf172	-0.36707646
226	0xbe94b6b8	-0.29045653
227	0xbfae12d3	-1.3599495
228	0xbea09c1d	-0.31369105
229	0xbe0571f2	-0.13031748
230	0x3efd732b	0.4950193
231	0xbf034161	-0.51271635
232	0xbf3b5527	-0.7317681
233	0x3e94ad1a	0.29038316
234	0x3fd3ddba	1.655204
235	0x3f1af00c	0.6052253
236	0xbf999dee	-1.2001321
237	0xbfc8afa0	-1.5678596
238	0x3ed64fd0	0.41857767
239	0x3fca5474	1.5807023
240	0x402f0263	2.7345207
241	0xbf404102	-0.75099194
242	0x3e94fb0e	0.2909779
243	0xc058ef40	-3.3896027
244	0x3f729d00	0.94770813
245	0xbf1232ef	-0.5710897
246	0xbe5cec89	-0.21574606
247	0xbff3de8c	-1.9052291
248	0xbf7ce778	-0.98790693
249	0xbe7425f9	-0.2384261
250	0xbf60d1d9	-0.878202
251	0xbfc01f84	-1.5009618
252	0x3fa1672e	1.2609613
253	0x3e8a5048	0.27014375
254	0xbed261bc	-0.4109019
255	0xbf3531fe	-0.7077941

embedding.weight f4 [4, 32]
0	0x00000000	0.0
1	0x00000000	0.0
2	0x00000000	0.0
3	0x00000000	0.0
4	0x00000000	0.0
5	0x00000000	0.0
6	0x00000000	0.0
7	0x00000000	0.0
8	0x00000000	0.0
9	0x00000000	0.0
10	0x00000000	0.0
11	0x00000000	0.0
12	0x00000000	0.0
13	0x00000000	0.0
14	0x00000000	0.0
15	0x00000000	0.0
16	0x00000000	0.0
17	0x00000000	0.0
18	0x00000000	0.0
19	0x00000000	0.0
20	0x00000000	0.0
21	0x00000000	0.0
22	0x00000000	0.0
23	0x00000000	0.0
24	0x00000000	0.0
25	0x00000000	0.0
26	0x00000000	0.0
27	0x00000000	0.0
28	0x00000000	0.0
29	0x00000000	0.0
30	0x00000000	0.0
31	0x00000000	0.0
32	0x3e4e0f75	0.20123084
33	0xbf03d07d	-0.5149
34	0xbef022bd	-0.46901503
35	0xbfe2fbb1	-1.773306
36	0xbf3b88b5	-0.73255473
37	0xbd219d05	-0.039456386
38	0x3ec844bb	0.39114937
39	0xbe21c6fc	-0.15798563
40	0x3fa87af0	1.3162518
41	0xc000d1cd	-2.0128052
42	0xbf96481e	-1.1740758
43	0x3f957bff	1.1678466
44	0xbe0714ca	-0.13191524
45	0xbf214bce	-0.63006294
46	0xbf52ab4a	-0.82292616
47	0xbf90bd05	-1.1307684
48	0x3f49588e	0.7865075
49	0x3ff33fc9	1.9003841
50	0xbe83bd1c	-0.25730217
51	0xbdae556b	-0.08512386
52	0xbf414672	-0.75498116
53	0xbea3bd44	-0.31980336
54	0x3f17e1f7	0.5932917
55	0x3ea910f0	0.33020735
56	0xbeb60787	-0.35552618
57	0x3f4a9500	0.79133606
58	0xbea97327	-0.33095667
59	0xbcbe60f7	-0.023239596
60	0x3f991e5c	1.196239
61	0xbf79a9ec	-0.97524905
62	0xbe9ccc6d	-0.30624714
63	0x40039950	2.0562325
64	0xbfc6e0c1	-1.553734
65	0xbf8ad924	-1.0847516
66	0xbf079022	-0.52954304
67	0x3eb52373	0.35378608
68	0xbe93c6f5	-0.2886273
69	0x3f2b1c93	0.66840476
70	0x3e5b1a2b	0.21396701
71	0x3f8e3f52	1.1113074
72	0xbfaebdd3	-1.365168
73	0xc02d34ed	-2.7063553
74	0xbe83cb22	-0.25740916
75	0x3f0bf70f	0.54673856
76	0xbf23913a	-0.63893473
77	0xc00a4e0a	-2.1610131
78	0xbf213f2c	-0.6298702
79	0xbfbb8649	-1.4650356
80	0x3f49cb04	0.788254
81	0x3fc36064	1.5263791
82	0xbe722a75	-0.23649009
83	0x3f99f3c3	1.2027515
84	0xc02ac51d	-2.6682808
85	0xbf605267	-0.87625736
86	0xbee5a975	-0.44855848
87	0xbe915b02	-0.28389746
88	0xbd94868c	-0.07252225
89	0xbef500ad	-0.47852078
90	0x3f0dabad	0.5534008
91	0xbebdd518	-0.3707664
92	0xbf8680cd	-1.0508057
93	0xbf6e9cbc	-0.9320791
94	0xb9d0fb07	-0.00039859882
95	0x3ddd4287	0.10803705
96	0xbe865747	-0.26238462
97	0x3f9fdf4c	1.249002
98	0xbecc0fbe	-0.3985576
99	0x3e0f4626	0.13991603
100	0xbf03b331	-0.514453
101	0x3ee53c18	0.4477241
102	0xbf43522a	-0.7629725
103	0x3fcb03b7	1.5860509
104	0xbf95693d	-1.1672741
105	0x3f752867	0.95764774
106	0x3d8d9e56	0.06914966
107	0xbe86f8fd	-0.26361838
108	0x3e018f68	0.12652361
109	0xbeb85256	-0.36000317
110	0x3f48a768	0.7838044
111	0xbfde3375	-1.7359453
112	0xbeb527d7	-0.35381958
113	0x3f7beb3b	0.9840581
114	0xbe6777bb	-0.22604267
115	0xbe816536	-0.2527253
116	0xbfb95985	-1.4480444
117	0x3f0272e8	0.50956583
118	0x3fc8b733	1.5680908
119	0xbe95ff84	-0.29296505
120	0xbf2a317b	-0.6648175
121	0x3ecf5f92	0.40502602
122	0xbfa5d6bf	-1.295616
123	0xbf6ba3d0	-0.92046833
124	0x3faece80	1.3656769
125	0xbf33ddb8	-0.7026019
126	0xbeeef94f	-0.46674582
127	0x3ee0e862	0.43927294

encoder.weight_ih_l0 f4 [192, 32]
0	0x3d05ed4f	0.03269702
1	0x3d591224	0.052995816
2	0xbdf47f88	-0.11938387
3	0x3d5b4c2c	0.05353944
4	0xbcdef8bc	-0.027218215
5	0x3d6d757f	0.05797338
6	0xbdc9a118	-0.09845179
7	0x3c3e988c	0.01163305
8	0x3dadf5e7	0.08494168
9	0x3da441bd	0.08020351
10	0x3d4c2c53	0.04984696
11	0xbbbff6e5	-0.0058582895
12	0x3db5453a	0.088510945
13	0xbd4ee59f	-0.050511952
14	0xbdde8ee2	-0.108670965
15	0xbdfc1082	-0.12307836
16	0x3ddf8815	0.109146275
17	0xbdb737cc	-0.08946189
18	0xbcc6a180	-0.024246931
19	0x3d6d02f8	0.05786416
20	0x3db9388e	0.0904399
21	0xbd4250a0	-0.04744017
22	0x3cfd525f	0.030923067
23	0xbdc7f5fc	-0.09763715
24	0x3d7bffce	0.06152325
25	0x3de5729f	0.11203503
26	0x3d3b3008	0.045700103
27	0x3d816c7f	0.06319522
28	0x3dfe9818	0.12431353
29	0x3cc544c7	0.024080647
30	0xbdcff329	-0.10153801
31	0x3decfa12	0.115711346
32	0x3d7ccfbd	0.061721552
33	0x3cee1b1a	0.029065657
34	0x3c30b096	0.010784289
35	0x3b538ac8	0.0032278765
36	0xbd51a8a3	-0.051186215
37	0x3daf63c9	0.085639544
38	0x3cc00835	0.023441413
39	0xbc29c741	-0.010362447
40	0x3dc4afeb	0.09603866
41	0x3db08d47	0.086206965
42	0x3d4f266e	0.05057376
43	0xbd8b9e85	-0.068173446
44	0xbde4c6b6	-0.111707136
45	0xbdd5314f	-0.104097955
46	0xbdac43ff	-0.08411407
47	0xbc384089	-0.011245855
48	0x3c95e7e4	0.01829905
49	0xbb4354f7	-0.0029805282
50	0x3da204b7	0.079110555
51	0xbdad450c	-0.08460435
52	0x3d7aa5ab	0.06119315
53	0xbd728d56	-0.05921682
54	0x3d9f1c84	0.07769111
55	0xbdd8cd11	-0.10585988
56	0xbcd7957b	-0.026316395
57	0xbc369d24	-0.011145864
58	0xbe0f3a6c	-0.1398713
59	0x3d8f116b	0.06985744
60	0x3cdc046e	0.026857581
61	0xbda63d37	-0.081171446
62	0xbdbdaeb2	-0.09261836
63	0x3e016dc5	0.1263953
64	0xbc664f06	-0.014056927
65	0x3d9233c5	0.071387805
66	0x3d16cc92	0.036816187
67	0xbc12ecc3	-0.008967581
68	0x3c952c73	0.018209672
69	0xbcfa4828	-0.030551985
70	0xbd9290bc	-0.07156512
71	0xbdbb6889	-0.09150798
72	0x3cf632e9	0.030053573
73	0x3d85bd1d	0.06530211
74	0xbc352c94	-0.011057992
75	0x3d8d06de	0.068860754
76	0x3dd5c947	0.10438781
77	0x3ddce3ff	0.10785674
78	0xbd4ec629	-0.05048195
79	0x3d1b6f17	0.03794774
80	0x3d848b5d	0.06471894
81	0xbdde7fb3	-0.108642004
82	0xbd42c2e8	-0.04754916
83	0xbbc20b4f	-0.0059217582
84	0xbdc2f784	-0.09519866
85	0x3ddc87ee	0.10768114
86	0xbd8d8013	-0.06909194
87	0xbc1d7a06	-0.009611612
88	0x3be4e95f	0.006985828
89	0xbc45ab98	-0.012064837
90	0xbba050a2	-0.0048924247
91	0xbd24e202	-0.0402546
92	0x3ca9a591	0.020708831
93	0x3e079ae1	0.13242675
94	0xbdbc3575	-0.091898836
95	0xbd93a53b	-0.072092496
96	0xbd5d86dc	-0.05408369
97	0xbcf21bb0	-0.029554218
98	0x3d52ad14	0.05143459
99	0xbe0db20e	-0.13837454
100	0x3db83aa9	0.089955635
101	0x3dabad55	0.0838267
102	0xbcc19863	-0.023632234
103	0x3d9399d0	0.07207072
104	0xbdc61fcd	-0.09674034
105	0x3db59625	0.088665284
106	0xbe09b42a	-0.13447633
107	0x3dbd3ca8	0.09240085
108	0xbcf5369a	-0.029933263
109	0xbd891a85	-0.06694511
110	0x3d9da2b3	0.07697048
111	0xbdb92926	-0.090410516
112	0x3df6a7fe	0.12043761
113	0x3cef78d2	0.029232416
114	0xbdec9afa	-0.11552997
115	0x3ce058a7	0.027386023
116	0xbbfe13a6	-0.007753807
117	0x3d22cbcd	0.03974514
118	0x3b739152	0.0037165475
119	0x3d9cd2b2	0.076573744
120	0x3d098cc0	0.033581495
121	0x3dab0c05	0.08351902
122	0x3d8cee1d	0.06881354
123	0x3dbd1d70	0.092341304
124	0xbc84a853	-0.016193544
125	0xbc98dc3f	-0.018659709
126	0x3dc3f60f	0.09568416
127	0x3b83bf1d	0.004020585
128	0xbc111eb3	-0.008857417
129	0x3ca09aec	0.019605123
130	0xbd1f30f5	-0.03886505
131	0x39a5ac5a	0.00031599664
132	0x3c686021	0.014183075
133	0x3c1c4106	0.009536987
134	0xbcf2c3ee	-0.029634442
135	0x3d0506c3	0.03247715
136	0xbd999949	-0.0749994
137	0xbdc7aa00	-0.09749222
138	0x3d383f6d	0.044982363
139	0x3dcd4ff2	0.10025014
140	0x3d614e59	0.05500636
141	0xbc7987e7	-0.015230156
142	0xbd339f2e	-0.043852977
143	0xbdab76f3	-0.08372297
144	0x3d3aab96	0.045573793
145	0x3df6c9ab	0.12050184
146	0xbcca0450	-0.02466026
147	0xbd6a0292	-0.057131357
148	0xbd252c1f	-0.04032528
149	0x3d81ad3e	0.063318714
150	0xbdaa0ff6	-0.083038256
151	0x3c039900	0.0080320835
152	0x3de77cf6	0.11303131
153	0xbb0c53bb	-0.0021412212
154	0xbc8d1fa8	-0.017227009
155	0x3c0b927d	0.008518812
156	0xbd2b2077	-0.041779008
157	0x3dbd77a0	0.09251332
158	0x3d9ef062	0.07760693
159	0xbd3fb7a8	-0.046806008
160	0x3d307197	0.043077078
161	0x3c64a6da	0.013955796
162	0xbc037073	-0.008022415
163	0x3d2dcb79	0.042430375
164	0xbd8f19fc	-0.06987378
165	0x3d500878	0.050789326
166	0x3d020f1a	0.031752683
167	0xbde7532e	-0.11295162
168	0xbd6592c5	-0.056048173
169	0xbd739874	-0.059471563
170	0xbda417d9	-0.08012361
171	0xbddeebc5	-0.10884813
172	0x3dc9956d	0.09842954
173	0x3d83f6a8	0.0644353
174	0x3d87645d	0.0661094
175	0x3aae280b	0.001328708
176	0x3dc763aa	0.09735806
177	0xbc9a6de9	-0.018851237
178	0xbdd2a6a5	-0.10285691
179	0xbd36764a	-0.044546403
180	0x3d768904	0.060189262
181	0x3def37da	0.11680575
182	0xbda77561	-0.08176685
183	0xbdb0da56	-0.08635394
184	0xbdaac035	-0.08337442
185	0xbb43e383	-0.0029890246
186	0xbc3f1658	-0.011663042
187	0x3d3b3ebc	0.045714125
188	0xbd207d1a	-0.039181806
189	0x3d5c63f9	0.05380628
190	0x3de66972	0.11250581
191	0xbdb4b3c1	-0.08823348
192	0xbd7034d2	-0.058644123
193	0x3d0e792e	0.034783535
194	0x3daa2b2d	0.083090164
195	0xbc96ad34	-0.018393137
196	0x3d24393a	0.040093638
197	0xbdc67047	-0.09689384
198	0x3d4d9934	0.050194934
199	0xbd8690b7	-0.06570571
200	0xbd030054	-0.031982735
201	0x3d2242d2	0.039614506
202	0xbdfc2031	-0.123108275
203	0x3d8065b5	0.06269399
204	0x3d85b1ac	0.06528029
205	0x3d63a410	0.055576384
206	0xbe09a1d5	-0.1344064
207	0xbd57db55	-0.052699406
208	0xbc59e1c8	-0.013298459
209	0xbd142b85	-0.036174316
210	0x3d7dac9a	0.061932184
211	0xbdeedbf0	-0.116630435
212	0xbde8f5cd	-0.11375008
213	0x3ce565a9	0.028002577
214	0xbcec0afb	-0.02881383
215	0xbe05a8c1	-0.13052656
216	0xbe0aee3b	-0.1356744
217	0x3d7e78f9	0.062127087
218	0xbd0f060c	-0.034917876
219	0xbdc1815f	-0.09448504
220	0x3d87c0de	0.06628583
221	0xbdb2aac9	-0.08723981
222	0x3d63cce0	0.055615306
223	0xbdd70b8d	-0.1050025
224	0xbd8db818	-0.06919879
225	0x3da3c0cc	0.079957575
226	0xbdb14a86	-0.08656792
227	0xbdc75bd7	-0.09734314
228	0xbe00eeec	-0.12591141
229	0xbd8fbe74	-0.07018748
230	0x3e0fc71d	0.140408
231	0x3dbc668e	0.09199248
232	0xbb96950d	-0.004595405
233	0x3d9d08a1	0.076676615
234	0x3d5f0b31	0.054454032
235	0xbd2f1204	-0.04274179
236	0xbd95c824	-0.073135644
237	0xbcdc1b50	-0.026868492
238	0x3da3cb32	0.07997741
239	0x3de14a30	0.11000478
240	0xbce11eb3	-0.027480459
241	0xbd12a4e5	-0.035801787
242	0x3dcd32e2	0.10019471
243	0xbdd1849a	-0.1023037
244	0x3c9f2c52	0.019430313
245	0xbdf40c8c	-0.119164556
246	0x3d809abe	0.06279515
247	0x3ce8d4a5	0.02842171
248	0x3dc31156	0.09524791
249	0x3c2f9ae8	0.010718085
250	0xbdf55496	-0.11979024
251	0xbd1a26f9	-0.037634823
252	0xbc7f7381	-0.015591503
253	0xbe03d729	-0.12875046
254	0x3d8491fc	0.06473157
255	0xbc5a7c48	-0.013335295

encoder.weight_hh_l0 f4 [192, 64]
0	0xbd2b068b	-0.041754287
1	0xbe0bebb6	-0.13664135
2	0xbdb6ca31	-0.08925284
3	0x3d0c55b3	0.034261417
4	0xbd68c510	-0.05682856
5	0x3d88a68f	0.066723935
6	0xbdf46c0e	-0.11934672
7	0x3d62ff67	0.055419352
8	0x3d9721aa	0.07379468
9	0xbd9b200f	-0.07574474
10	0xbd11cf06	-0.035597824
11	0xbd836bb3	-0.06417026
12	0x3d031c01	0.03200913
13	0x3d765eb5	0.060148913
14	0x3c97212d	0.018448437
15	0xbda6fb6b	-0.08153423
16	0x3cd055d6	0.025431555
17	0xbcf8c3a1	-0.03036672
18	0xbd5934d3	-0.053028893
19	0xbaa4517e	-0.0012536494
20	0xbd8aca20	-0.067768335
21	0xbda80594	-0.08204189
22	0x3d97e028	0.07415801
23	0xbd6a6f84	-0.057235256
24	0x3dc30efe	0.09524344
25	0x3ddadf01	0.10687066
26	0x3c011a37	0.007879785
27	0xbd1122d1	-0.035433594
28	0x3d947546	0.07248931
29	0x3c6c827d	0.014435408
30	0xbda7bcc5	-0.08190302
31	0xbc995c8c	-0.018720888
32	0xbda0001d	-0.078125216
33	0x3cebc756	0.028781574
34	0x3df965e7	0.121776395
35	0x3dd08b09	0.10182769
36	0x3d9f5346	0.07779555
37	0xbd61c1a1	-0.0551163
38	0x3de51902	0.111864105
39	0xbdd4ff40	-0.104002476
40	0xbd03ce56	-0.0321792
41	0x3da03e91	0.078244336
42	0x3d53ba80	0.051691532
43	0x3da50dd3	0.080592774
44	0xbdaeb5a4	-0.08530739
45	0x3d296ef3	0.041365575
46	0x3e0ae98a	0.1356565
47	0x3d8a5bd5	0.06755797
48	0xbdba3c73	-0.09093561
49	0x3dcfa3b5	0.101386465
50	0x3da02bdc	0.078208655
51	0x3d8865b2	0.06660022
52	0x3d018e0b	0.031629603
53	0xbcd822dd	-0.026383812
54	0x3d80d516	0.06290643
55	0xbdc65839	-0.09684796
56	0xbd928c9a	-0.07155724
57	0xbd611412	-0.05495078
58	0xbd79e7cb	-0.06101207
59	0x3d73ea79	0.059549782
60	0x3ac168bf	0.0014755948
61	0x3ded7b97	0.115958385
62	0x3d37a591	0.04483563
63	0xbd8913bb	-0.066932164
64	0x3ca468c7	0.020069493
65	0x3da78144	0.08178952
66	0x3d36c007	0.044616725
67	0xbd49cdb2	-0.049268432
68	0xbd8aff99	-0.06787033
69	0x3df27e64	0.11840513
70	0xbddb2b00	-0.10701561
71	0xbd657034	-0.05601521
72	0xbd3f408d	-0.04669242
73	0x3e0e2282	0.13880351
74	0x3d5154fb	0.051106434
75	0xbdb1b13e	-0.086763844
76	0xbd8cd237	-0.06876033
77	0xbddea980	-0.10872173
78	0xbd0ef165	-0.03489818
79	0x3df569ec	0.119830936
80	0x3d8cc437	0.068733625
81	0xbdc3d370	-0.09561813
82	0xbd6d57d0	-0.057945073
83	0xbdf405b1	-0.11915148
84	0x3c937774	0.018001296
85	0xbcb686c0	-0.02228105
86	0x3c83d6d9	0.016093658
87	0xbdf2f9c6	-0.11864047
88	0x3c9aa5a1	0.018877806
89	0x3d3dc67c	0.046331868
90	0xbdcd17b8	-0.100142896
91	0x3d914dd6	0.07094924
92	0x3da9d69d	0.08292887
93	0x3d761e80	0.06008768
94	0x3d61a155	0.0550855
95	0x3dbdb0b6	0.092622206
96	0x3c772bdb	0.01508614
97	0xbd4063ad	-0.04697006
98	0x3dda221a	0.106510356
99	0xbdc9c8fb	-0.09852787
100	0xbdec6b9b	-0.115439616
101	0x3bf6af81	0.007528246
102	0xbb4f26da	-0.003160885
103	0x3da2d882	0.07951452
104	0xbc64f614	-0.013974685
105	0x3e0f4f62	0.13995126
106	0x3d8187c3	0.063247226
107	0xbdb28b3e	-0.087179646
108	0x3d9e858c	0.07740316
109	0x3d9d56ac	0.07682547
110	0xbc5bbfe6	-0.013412451
111	0xbb9ed83a	-0.0048475536
112	0x3ce35125	0.027748654
113	0xbd736597	-0.059423055
114	0x3d953a9f	0.07286572
115	0xbd4c1f10	-0.04983431
116	0x3d6a7338	0.057238787
117	0x3dc5643b	0.09638258
118	0x3c8eeb33	0.017446136
119	0x3ddd7c14	0.10814682
120	0x3caadb54	0.020856537
121	0x3dcffca9	0.10155613
122	0x3dd22ffa	0.10263057
123	0xbd90047b	-0.070321046
124	0xbe03c041	-0.12866308
125	0x3de3c6f5	0.111219324
126	0xbd122506	-0.03567984
127	0xbc193318	-0.009350561
128	0xbd3a8126	-0.04553332
129	0x3df4d30e	0.11954318
130	0x3d74aedd	0.059737075
131	0x3c9c63ec	0.019090615
132	0x3d836794	0.0641624
133	0xbbfc8f74	-0.0077075306
134	0xbddafcf6	-0.1069278
135	0xbda75e8f	-0.081723325
136	0xbda53488	-0.0806666
137	0xbe048a67	-0.12943421
138	0x3d9a7d37	0.07543414
139	0xbd798ebc	-0.060927138
140	0x3d92740d	0.07151041
141	0x3ceae881	0.02867532
142	0x3d7ab5c1	0.06120849
143	0x3c829c4d	0.01594367
144	0x3b6b494a	0.0035901838
145	0xbc9e79ce	-0.01934519
146	0xbdbb7e6b	-0.09154972
147	0x3d6a6410	0.057224333
148	0x3c72abc9	0.014811465
149	0x3cba03ab	0.022706827
150	0x3dae3af1	0.08507336
151	0x3dcf1cd9	0.10112924
152	0x3d6dd7b9	0.058067057
153	0x3cb8c977	0.022557003
154	0xbc6fb28b	-0.01462997
155	0xbd81025a	-0.06299277
156	0x3da59fce	0.08087121
157	0xbd0e776a	-0.03478185
158	0x3ded7cba	0.11596055
159	0x3d20ad72	0.03922791
160	0xbbda7ee4	-0.0066679586
161	0xbdc55ea8	-0.09637195
162	0x3dc07569	0.09397394
163	0xbd80b44a	-0.062843874
164	0xbd356ba1	-0.044292096
165	0xbd1e073f	-0.03858113
166	0x3d92fb92	0.071768895
167	0x3d501163	0.05079783
168	0xbd66ec31	-0.056377593
169	0xbdd82a72	-0.10554971
170	0xbce6ea8a	-0.028188009
171	0x3d9ce1dc	0.07660267
172	0x3b87bdd8	0.004142504
173	0xbc2dcd20	-0.010607988
174	0xbc8a1bcd	-0.01685896
175	0x3dec42de	0.115361914
176	0x3da2766e	0.07932745
177	0xbd8eb276	-0.069676325
178	0xbd34f5e6	-0.04417982
179	0x3c77706d	0.015102488
180	0x3ac21ac5	0.0014809003
181	0x3e042f80	0.12908745
182	0x3d5160c2	0.051117666
183	0x3dc186a0	0.09449506
184	0xbda416b3	-0.08012142
185	0x3d3f47ec	0.04669945
186	0xbb4dbf43	-0.0031394518
187	0xbd2aab0c	-0.04166703
188	0x3da9aa69	0.08284456
189	0x3dff476e	0.12464796
190	0xbd968612	-0.07349791
191	0xbdd83048	-0.10556084
192	0xbdcaa2a0	-0.098942995
193	0xbcd73866	-0.02627201
194	0x3dbf0fba	0.093291715
195	0x3db39c14	0.08770004
196	0x3d0ca097	0.034332838
197	0x3de8d971	0.11369599
198	0xbdd1312d	-0.10214458
199	0xbdd0f24b	-0.10202464
200	0x3d77e1fa	0.060518242
201	0x3dd9b999	0.10631103
202	0x3d12008d	0.035645057
203	0xba957820	-0.0011403598
204	0xbd614359	-0.05499587
205	0xbd9383d4	-0.072028786
206	0x3dc5a4e6	0.096505925
207	0x3e057612	0.13033321
208	0xbd56fae3	-0.052485358
209	0xbbbf183f	-0.005831748
210	0xbbb27fd8	-0.005447369
211	0x3b94fe36	0.004546906
212	0xbd7fa6f8	-0.062415093
213	0xbe0c2a69	-0.13688053
214	0xbd15a099	-0.03653011
215	0xbc2e3177	-0.0106319105
216	0xbd03ec63	-0.032207858
217	0x3b1ffd5a	0.0024412484
218	0xbdba9185	-0.09109787
219	0xbdf532f9	-0.11972613
220	0xbd85e0bf	-0.065370075
221	0x3e0793d7	0.1323999
222	0x3b13c95b	0.0022550437
223	0xbdd06777	-0.10175984
224	0x3d875d76	0.06609623
225	0xbd1b133e	-0.037860148
226	0xbce535e3	-0.027979797
227	0xbd9a942d	-0.075477935
228	0xbde5ff11	-0.11230291
229	0xbe0bb575	-0.13643439
230	0x3d8b21c4	0.0679355
231	0xbd855597	-0.065104656
232	0xbd0bf1ca	-0.034166135
233	0x3d21c5c9	0.039495263
234	0xbd7c654b	-0.061620038
235	0xbced993a	-0.029003728
236	0x3da5e767	0.08100777
237	0xbd1527f5	-0.03641506
238	0xba977d92	-0.0011557809
239	0x3c5ca2c5	0.013466542
240	0xbd74be56	-0.05975183
241	0xbdd93cdb	-0.106073104
242	0xbe04ca29	-0.12967743
243	0xbd7511bd	-0.05983137
244	0x3d558ec6	0.052138112
245	0x3d7fb8be	0.062432043
246	0xbd4e63d5	-0.050388176
247	0xbd90b097	-0.07064932
248	0x3dc6a39d	0.096991755
249	0xbb4ae1ed	-0.0030957416
250	0xbc2b44c1	-0.010453404
251	0x3ddc6d04	0.107629806
252	0xbdf55c6b	-0.11980518
253	0x3de31d46	0.11089568
254	0xbd9651c9	-0.07339818
255	0xbdcc61ab	-0.09979566

encoder.bias_ih_l0 f4 [192]
0	0xbd8fdfd8	-0.07025117
1	0x3e063926	0.13107738
2	0xbd160190	-0.036622584
3	0x3d7e8907	0.0621424
4	0x3d29532a	0.041339077
5	0x3d153560	0.036427855
6	0x3d9a5c87	0.075371794
7	0xbd5a8ef4	-0.053358987
8	0xbd81c7af	-0.06336915
9	0x3d94db3c	0.07268378
10	0xbc73958f	-0.0148672005
11	0xbd3e81a4	-0.046510354
12	0xbdc4ee17	-0.096157245
13	0x3da046bd	0.07825992
14	0x3df41a2c	0.119190544
15	0x3babade7	0.0052392366
16	0xbd22eba1	-0.039775494
17	0x3d3c7913	0.046013903
18	0xbdba9b52	-0.09111656
19	0xbcbd28cb	-0.02309074
20	0xbde28cf5	-0.11062042
21	0xbc7802cd	-0.0151373865
22	0x3dbd21a2	0.092349306
23	0xbdfcb57d	-0.12339304
24	0x3d9d516d	0.07681546
25	0xbd11ff47	-0.035643842
26	0xbc9639fb	-0.018338194
27	0x3dc6af2f	0.09701382
28	0x3dc0e568	0.09418756
29	0x3e02de67	0.12780152
30	0xbda3abca	-0.079917505
31	0x3cb7f3ba	0.022455085
32	0xbd6a8d7a	-0.05726383
33	0xbd9c9588	-0.07645708
34	0x3cc3f9dd	0.023922855
35	0xbc105059	-0.008808219
36	0xbdfcc16a	-0.12341578
37	0xbd4e5744	-0.05037619
38	0xbb33818b	-0.0027390446
39	0x3decbdf1	0.11559666
40	0xbdcc662f	-0.099804275
41	0xbd8e6f0a	-0.06954773
42	0xba61b5c8	-0.00086101564
43	0x3df90d18	0.121607006
44	0xbbc08c5c	-0.005876107
45	0x3dcc8372	0.09986009
46	0xbd2bfb06	-0.04198744
47	0xbcf45d2e	-0.029829588
48	0xbdb28f35	-0.08718721
49	0x3d95e53d	0.07319114
50	0x3da676cf	0.0812813
51	0x3d403c7a	0.046932675
52	0x3d1ade06	0.037809394
53	0x3db2dfee	0.087341174
54	0xbe026d52	-0.12737015
55	0xbb8858f1	-0.0041609933
56	0x3cb94966	0.022618007
57	0xbdc4fb58	-0.096182525
58	0x3de6e75c	0.11274597
59	0xbdb3ef5c	-0.087858886
60	0xbdc05235	-0.0939068
61	0x3c59e422	0.01329902
62	0xbd78bf6b	-0.060729425
63	0xbc7ae644	-0.015313689
64	0x3cc05b1c	0.023480944
65	0xbdd98575	-0.10621158
66	0xb9367178	-0.00017399143
67	0x3d69518d	0.05696254
68	0x3da7abfe	0.08187102
69	0xbd2e841e	-0.042606466
70	0xbd0d92e3	-0.03456391
71	0x3dbbbe59	0.09167165
72	0x3db83111	0.08993734
73	0x3cf61600	0.030039787
74	0x3d18cf48	0.037307054
75	0xbcb6ee4a	-0.022330422
76	0xbddfb62f	-0.10923421
77	0xbd7cc215	-0.06170853
78	0xbd808d33	-0.062769316
79	0xbd40851f	-0.047001954
80	0x3dc341cd	0.09534035
81	0xbd231878	-0.039818257
82	0x3dbdedcb	0.09273871
83	0xbdca532c	-0.09879145
84	0xbe0f0c81	-0.13969614
85	0xbdb0695f	-0.08613848
86	0x3ca1cc96	0.019750874
87	0xbd86ffa3	-0.065917276
88	0x3db3787c	0.08763215
89	0xbd7c04c8	-0.061527997
90	0x3d6137df	0.054984923
91	0xbdb8d062	-0.09024121
92	0x3c97bb11	0.018521817
93	0xbe09a77a	-0.13442793
94	0xbdecfb21	-0.115713365
95	0x3d865e46	0.0656095
96	0x3caf0a79	0.021367298
97	0x3c89174b	0.01673474
98	0xbd843186	-0.06454758
99	0x3dcdf919	0.10057277
100	0xbd8638b0	-0.06553781
101	0x3d8d2704	0.06892207
102	0x3d172759	0.03690276
103	0xbd6aea68	-0.057352453
104	0xbe076b7f	-0.132246
105	0x3de4217e	0.11139201
106	0xbcdf0072	-0.027221892
107	0xbdd5566b	-0.104168735
108	0xbd56768a	-0.05235914
109	0xbc24f83b	-0.010068948
110	0x3b2a5ffb	0.002599715
111	0x3c64241b	0.013924624
112	0x3dab2f20	0.08358598
113	0xbce4574f	-0.027873663
114	0xbd9aa4b1	-0.07550944
115	0xbce08e8f	-0.027411727
116	0xbd63358c	-0.05547099
117	0x3d0286d7	0.031866875
118	0xbd24b2ac	-0.040209457
119	0xbc46e742	-0.012140097
120	0xbd1c1736	-0.038108073
121	0x3b5d1fbd	0.0033740841
122	0x3d83c547	0.06434112
123	0x3d5a05c7	0.053228166
124	0x3d5b6dc3	0.053571474
125	0xbdc86bc2	-0.09786178
126	0xbd69f039	-0.05711386
127	0x3daa3026	0.08309965
128	0x3d96d772	0.07365312
129	0xbc5843cf	-0.013199761
130	0x3dbed372	0.09317674
131	0x3df7f404	0.12107089
132	0xbbea6b6b	-0.0071539185
133	0x3d5a153c	0.053242907
134	0xbd61c403	-0.055118572
135	0xbc44b4ae	-0.012005968
136	0xbe0b05c1	-0.13576414
137	0x3d031b4c	0.032008454
138	0xbdf1b39b	-0.11801835
139	0xbd881bd8	-0.06645936
140	0xbddd70ca	-0.108125284
141	0x3db1c474	0.086800486
142	0x3dd7c18a	0.105349615
143	0x3d028587	0.031865623
144	0x3d36d9ae	0.04464119
145	0x3dae6626	0.08515577
146	0xbe065205	-0.13117225
147	0x3d749f83	0.059722435
148	0xbde6219b	-0.112368785
149	0x3d43d140	0.04780698
150	0xbde928e7	-0.11384755
151	0xbc3d7daf	-0.01156561
152	0x3c51b6ea	0.012799958
153	0xbdbd66ff	-0.092481606
154	0x3d1d3dcf	0.038389023
155	0xbe1175d8	-0.1420511
156	0x3d518f17	0.05116185
157	0x3c916650	0.017748982
158	0xbddbd665	-0.10734252
159	0xbe02b09e	-0.12762687
160	0xbd70ef34	-0.058821872
161	0xbd86c657	-0.06580799
162	0xbd4e5ca2	-0.05038131
163	0x3def24c1	0.11676932
164	0xbde2ee65	-0.110806264
165	0x3d1370a4	0.035996094
166	0xbd123adc	-0.035700664
167	0x3e07136b	0.13191001
168	0xbd47f74f	-0.048819836
169	0x3d6c8e19	0.057752702
170	0x3d15b36c	0.036548063
171	0xbdc68b7f	-0.096945755
172	0xbcf308a5	-0.029667208
173	0x3e05a698	0.13051832
174	0x3b708534	0.003670049
175	0xbd07b6b8	-0.03313324
176	0x3d8bac5e	0.06819986
177	0xbdac4a7e	-0.08412646
178	0xbde7347e	-0.11289309
179	0x3d39919e	0.045304887
180	0xbd8d016d	-0.068850376
181	0xbda4fb48	-0.080557406
182	0xbd755fa5	-0.059905667
183	0xbbaedd32	-0.005336427
184	0xbd71a30b	-0.05899338
185	0x3d337be5	0.043819327
186	0x3da79334	0.08182374
187	0x3e0fe4aa	0.14052072
188	0x3c34783c	0.011014994
189	0x3e0264f4	0.12733823
190	0xbd1fc777	-0.039008584
191	0xbcf09fbc	-0.029373042

encoder.bias_hh_l0 f4 [192]
0	0x3b817b2b	0.0039514503
1	0xbd84df67	-0.06487923
2	0x3dae868f	0.08521759
3	0xbd3e38b9	-0.046440814
4	0x3db2a927	0.087236695
5	0xbdcadb74	-0.099051386
6	0xbd221e5c	-0.039579734
7	0xbca1145a	-0.019663025
8	0xbb9e616f	-0.0048333923
9	0x3d805885	0.06266884
10	0x3d873af8	0.06603044
11	0xbdb6d83a	-0.08927961
12	0xbde46c7c	-0.11153504
13	0x3dc52587	0.096262984
14	0x3d968995	0.073504604
15	0xbd845f7c	-0.06463525
16	0xbe03bdb7	-0.12865339
17	0x3e08641b	0.13319437
18	0x3ce153cb	0.027505776
19	0xbdeb098a	-0.11476429
20	0xbdcb4ad3	-0.09926381
21	0x3db829f6	0.089923784
22	0xbc740d2c	-0.014895719
23	0x3c983e64	0.018584438
24	0x3dbc0f73	0.09182634
25	0xbd29bea0	-0.04144156
26	0x3c4853e1	0.01222703
27	0x3d4c2328	0.049838215
28	0x3d99a610	0.07502377
29	0xbd9735db	-0.07383319
30	0x3b74dd6a	0.0037363418
31	0xbda70b3f	-0.08156442
32	0xbdef5424	-0.116859704
33	0x3b9c573e	0.0047711423
34	0x3d8810a1	0.06643797
35	0x3dd26bad	0.10274444
36	0xbd381c40	-0.044948816
37	0x3d9d9ca1	0.0769589
38	0xbdbab95d	-0.091173865
39	0x3db3a2d9	0.08771295
40	0x3db35bb9	0.08757729
41	0x3dbef174	0.09323397
42	0xbbe2bab0	-0.0069192275
43	0x3dc0e703	0.09419062
44	0x3d0da800	0.034584045
45	0x3db134b4	0.086526304
46	0x3d523d18	0.051327795
47	0xbd5beed5	-0.053694565
48	0x3d19870e	0.037482314
49	0x3d9611bd	0.07327602
50	0x3cfb7c8f	0.030699043
51	0x3e024cef	0.1272466
52	0x3dbfe04d	0.09368954
53	0x3bd5beeb	0.0065230033
54	0x3d85490b	0.065080725
55	0xbd6d880f	-0.057991084
56	0x3d47a254	0.048738793
57	0xbd90c327	-0.07068472
58	0x3e09eeaa	0.1346995
59	0x3c00c856	0.007860264
60	0xbd6712dd	-0.056414474
61	0xbda636f4	-0.0811595
62	0x3cef4394	0.029207028
63	0x3db95e28	0.09051162
64	0x3c567f52	0.013091879
65	0x3dc9134b	0.09818133
66	0xbac7d245	-0.001524516
67	0xbd93b803	-0.07212832
68	0xbd3c0a1f	-0.04590809
69	0x3cbf8629	0.023379402
70	0xbd439fbd	-0.04775976
71	0x3dfe5d78	0.124201715
72	0x3d3b0f3c	0.045668826
73	0xbd8a85fe	-0.06763838
74	0xbd360d18	-0.04444608
75	0xbe02c25b	-0.12769453
76	0x3dc354ed	0.09537683
77	0x3dc84ed0	0.09780657
78	0xbb23f4bf	-0.0025017706
79	0xbdce8e4e	-0.10085736
80	0x3ca205a7	0.019778086
81	0xbe047ec4	-0.12938982
82	0xbde34e3e	-0.11098908
83	0xbcd438a8	-0.025905922
84	0x3d9615f4	0.07328406
85	0x3d5815e9	0.05275527
86	0xbd80243a	-0.0625691
87	0x3dc9d1f6	0.098545
88	0xbbfb6738	-0.0076722167
89	0x3d94c9d9	0.07265062
90	0x3d5ad43c	0.05342506
91	0x3d5e37be	0.05425238
92	0x3da0acf5	0.07845489
93	0xbd7702a9	-0.06030527
94	0xbdd97855	-0.10618655
95	0x3e0ac6b4	0.13552362
96	0x3ca19180	0.0197227
97	0x3d3ebb30	0.046565235
98	0xbbeb47e0	-0.007180199
99	0xbdc23963	-0.09483602
100	0x3d453082	0.048141964
101	0x3d060742	0.032721765
102	0xbd9fbaed	-0.07799325
103	0x3db1a204	0.0867348
104	0x3dbf659e	0.09345554
105	0xbd8925a0	-0.066966295
106	0xbd5dbb7d	-0.05413388
107	0x3d8f59de	0.06999563
108	0x3d8d879a	0.069106296
109	0xbb86b6de	-0.004111155
110	0x3a572a4d	0.00082079024
111	0xbdaf0326	-0.085455224
112	0x3cc0d571	0.023539277
113	0xbda4c13c	-0.08044669
114	0x3d61ab6d	0.055095125
115	0x3ceff058	0.02928941
116	0x39b27834	0.00034040364
117	0x3dec7ba8	0.11547023
118	0x3dad4bd9	0.084617324
119	0x3d819dfe	0.06328963
120	0x3df398a6	0.1189435
121	0x3dbaf769	0.09129221
122	0x3e0b0f68	0.13580096
123	0x3dc1abc9	0.094565935
124	0x3cd30280	0.025758028
125	0xbdc1eea6	-0.09469347
126	0x3ac2228c	0.0014811321
127	0xbde64fd1	-0.112456925
128	0xbd910d03	-0.0708256
129	0xbd3faf3b	-0.046797972
130	0xbbff0154	-0.0077821407
131	0x3d9d029e	0.07666515
132	0x3d2f9679	0.04286811
133	0x3d8ef3e7	0.069801144
134	0xbd276f36	-0.040877543
135	0x3d85b8d0	0.06529391
136	0xbde0f12d	-0.10983501
137	0xbbe8ab23	-0.007100479
138	0x3cb96c1d	0.02263456
139	0xbb90b1ad	-0.004415712
140	0x3d8c5da6	0.068537995
141	0xbc11e403	-0.00890446
142	0xbdbf34be	-0.09336232
143	0xbd6ede46	-0.058317445
144	0xbc62ef2c	-0.013850968
145	0x3d01aaca	0.031657018
146	0xbd4486e3	-0.0479802
147	0x3d14d195	0.036332686
148	0xbd6da662	-0.058020003
149	0x3dbcf205	0.09225849
150	0x3d6db91a	0.058037855
151	0xbcfbd91e	-0.030743178
152	0x3d84d5e2	0.064861074
153	0x3d9c24d5	0.07624213
154	0x3c869e59	0.016432928
155	0xbc81cf05	-0.015845785
156	0xbc54c81b	-0.012987162
157	0xbd90f532	-0.07078017
158	0xbdbb0334	-0.0913147
159	0x3d2e6720	0.042578816
160	0xbd38b106	-0.045090698
161	0x3ddd7b4b	0.10814532
162	0x3c043aab	0.008070628
163	0xbd111761	-0.035422686
164	0x3aace544	0.0013190885
165	0xbdf3ec6e	-0.1191033
166	0x3cde4871	0.027134152
167	0xbd8967f0	-0.06709278
168	0x3e09d15e	0.13458773
169	0xbbc78979	-0.006089386
170	0xbccfda2d	-0.025372589
171	0xbdfee1ba	-0.12445398
172	0x3d82b1c7	0.063815646
173	0x3d39c051	0.045349423
174	0x3d8c839c	0.0686104
175	0xbc810c36	-0.015752893
176	0xbd82908d	-0.06375227
177	0x3b5d5904	0.0033774981
178	0x3d1d0bc4	0.0383413
179	0x3c6d4422	0.014481576
180	0xbc9c7158	-0.019097015
181	0x3e0171cf	0.12641071
182	0x3dd6b4df	0.10483717
183	0xbd100155	-0.03515752
184	0xbc91ca65	-0.017796705
185	0x3db24dc8	0.08706242
186	0x3c01bcde	0.007918565
187	0x3d79b7c9	0.060966287
188	0xbdb827e5	-0.08991984
189	0x3d932a34	0.07185784
190	0xbcb7add1	-0.02242175
191	0xbc243fc3	-0.010024968

encoder.weight_ih_l0_reverse f4 [192, 32]
0	0xbdbbe12c	-0.091738075
1	0x3d3087a5	0.04309811
2	0xbd8280b3	-0.06372204
3	0x3d469f79	0.04849193
4	0x3d944deb	0.07241424
5	0xbce7b5a5	-0.028284857
6	0xbadc92db	-0.0016828434
7	0x3ab393e2	0.0013700689
8	0xbdec3212	-0.11532988
9	0xbd25ab75	-0.040446717
10	0xbd2a0077	-0.04150435
11	0xbdd197be	-0.10234021
12	0xbda8fec7	-0.0825172
13	0xbd810739	-0.06300206
14	0x3dc3f8b8	0.09568924
15	0xbd962b11	-0.07332433
16	0x3daa0a4d	0.08302746
17	0xbdcebde2	-0.10094811
18	0xbe02b798	-0.12765348
19	0x3d9759c9	0.07390172
20	0xbd85e177	-0.06537145
21	0xbcdcc697	-0.026950164
22	0x3d9bc981	0.07606793
23	0x3d55a142	0.05215574
24	0x3d8e6dbb	0.06954523
25	0x3d1a8493	0.03772409
26	0x3d4548e1	0.048165206
27	0x3d8674b4	0.06565228
28	0xbcc2c3ad	-0.023774946
29	0xbdafee0f	-0.08590328
30	0xbd037293	-0.03209169
31	0x3da3a516	0.07990472
32	0x3d305c07	0.043056514
33	0x3d0c2308	0.034213096
34	0x3da7fe11	0.08202756
35	0x3d7b28c6	0.06131818
36	0xbb04ad72	-0.0020244983
37	0x3e0013fe	0.12507626
38	0x3d57d24c	0.05269079
39	0xbb06e2d7	-0.0020581984
40	0x3d805e4d	0.062679864
41	0x3d54af5a	0.05192504
42	0xbc2ff861	-0.0107403705
43	0xbde1f55e	-0.11033128
44	0x3dc9d30b	0.098547064
45	0x3dd87d86	0.10570817
46	0xbceff272	-0.029290412
47	0xbe0d8d5e	-0.13823459
48	0xbddfb0ae	-0.10922371
49	0x3dd09bf1	0.101859935
50	0x3d91ef08	0.0712567
51	0xbdd33d6e	-0.10314451
52	0x3dd1a6fe	0.10236929
53	0x3d871703	0.06596186
54	0xbbbc7b93	-0.005752036
55	0x3bd105f9	0.006378886
56	0xbe03f05a	-0.12884656
57	0x3dae262f	0.08503377
58	0xbd0a78b8	-0.033806533
59	0xbd5dad5c	-0.054120407
60	0xbbaeb0fb	-0.0053311563
61	0x3dbf410a	0.09338577
62	0xbdc7d2c5	-0.09756998
63	0x3d770131	0.06030387
64	0x3de3a52c	0.111154884
65	0xbd9e6181	-0.07733441
66	0xbd17e7dd	-0.037086356
67	0xbd4198de	-0.047264926
68	0x3d4a8de6	0.04945173
69	0x3c80e949	0.015736239
70	0xbe073cdf	-0.13206814
71	0xbe0ed795	-0.13949426
72	0x3df3a29f	0.11896252
73	0xbd035b3e	-0.032069437
74	0x3e0f3f55	0.13989003
75	0x3dadf34e	0.08493672
76	0x3dcce2ba	0.10004182
77	0x3c67ba0f	0.014143481
78	0x3c352b0c	0.011057626
79	0x3d2607aa	0.040534653
80	0x3cc72aa5	0.024312327
81	0x3d416a21	0.047220353
82	0xbd8ecc17	-0.06972521
83	0xbd93417c	-0.071902245
84	0x3df8b587	0.121439986
85	0x3d48ca93	0.049021315
86	0xbd3d82a0	-0.04626715
87	0xbcecdf3d	-0.028915042
88	0x3e04bcf3	0.12962703
89	0xbcdf4f2c	-0.027259432
90	0x3e02b6b7	0.12765013
91	0x3e039cad	0.12852736
92	0xbdabf55a	-0.083964065
93	0xbcb35fd1	-0.021896275
94	0x3d3d2c6f	0.046184953
95	0xbdfba175	-0.12286655
96	0xbdb1f656	-0.08689563
97	0x3dd6b2a5	0.104832925
98	0xbca16c69	-0.019705014
99	0x3ba198cf	0.0049315463
100	0x3d38e327	0.045138504
101	0xbe0a0258	-0.13477457
102	0x3d1a5574	0.03767915
103	0x3da86af2	0.08223523
104	0xbd4c5ee1	-0.04989517
105	0xbdd76fc6	-0.10519366
106	0x3dba30b5	0.090913214
107	0x3c8900f5	0.01672409
108	0x3d0332bb	0.032030802
109	0x3d8fabc3	0.07015183
110	0x3e079041	0.13238622
111	0x3d71ce8f	0.05903488
112	0x3d93d39a	0.07218094
113	0xbd1ef624	-0.038808957
114	0x3c8c50bb	0.017128339
115	0xbd2cc0a2	-0.042175896
116	0x3d956611	0.07294858
117	0x3be6ff7d	0.0070494995
118	0xbd108f57	-0.03529295
119	0x3e096618	0.13417852
120	0x3d406818	0.04697427
121	0xbde26929	-0.11055214
122	0xbd0f1180	-0.0349288
123	0x3d868c59	0.06569738
124	0x3d4fca33	0.05072994
125	0x3d256f4f	0.040389355
126	0x3ca85437	0.02054797
127	0xbcf85a72	-0.030316565
128	0x3e06dffb	0.1317138
129	0x3db95b68	0.090506375
130	0x3ddfc453	0.10926118
131	0xbd1f8d39	-0.03895304
132	0x3c2b1405	0.010441785
133	0xbde03804	-0.10948184
134	0xbca256c4	-0.019816764
135	0xbde4ec7c	-0.11177918
136	0xbd154b32	-0.036448665
137	0xbdf34e99	-0.11880226
138	0xbd1778fc	-0.036980614
139	0x3e07e9c8	0.13272774
140	0xbd31ca26	-0.043405674
141	0x3d92525e	0.071446165
142	0x3d34f85d	0.04418217
143	0xba934818	-0.0011236696
144	0x3e0126e6	0.12612495
145	0xbb96654d	-0.0045897127
146	0x3d33f516	0.043934904
147	0x3d6c0503	0.057621967
148	0xbd727e46	-0.059202455
149	0x3d9ebfa9	0.077514
150	0x3db8acd8	0.09017342
151	0x3d002eb9	0.03129456
152	0xbd51ee78	-0.051252812
153	0xbc384aa4	-0.011248264
154	0x3d386142	0.045014627
155	0xbd78bf44	-0.06072928
156	0x3dccb9e9	0.09996397
157	0xbdecf6af	-0.11570489
158	0x3dbaf6c3	0.09129097
159	0xbd810add	-0.063009
160	0xbe00c18a	-0.1257383
161	0x3dc457fe	0.09587096
162	0xbc5dc3d0	-0.013535455
163	0x3dc913fe	0.09818266
164	0xba511ffc	-0.00079774833
165	0x3d3cb2e9	0.04606906
166	0x3b82d471	0.00399261
167	0x3d9894ce	0.07450257
168	0xbc90c17b	-0.017670384
169	0xbd08d439	-0.033405516
170	0xbe0edd11	-0.13951518
171	0x3c97e5d1	0.018542202
172	0xbdcf318c	-0.10116872
173	0xbe02265e	-0.12709948
174	0xbc449911	-0.0119993845
175	0xbdb80359	-0.089850135
176	0xbba51ac9	-0.0050385934
177	0xbdafef49	-0.08590562
178	0xbd8412e0	-0.064489126
179	0x3df91208	0.12161642
180	0xbde8d39a	-0.11368485
181	0xbdc0747b	-0.09397217
182	0x3d0d90be	0.034561865
183	0xbd92b4de	-0.07163404
184	0xbc74d148	-0.014942475
185	0x3d430095	0.047607977
186	0xbd483ab6	-0.048884116
187	0x3d377d91	0.044797484
188	0x3dba9b0e	0.091116056
189	0xbe017cda	-0.12645283
190	0xbe09e356	-0.13465628
191	0xbc7c4c47	-0.015399045
192	0xbdf6d448	-0.12052208
193	0x3dd1eac6	0.102498576
194	0xbd003d11	-0.031308237
195	0xbd8d4ab6	-0.068990156
196	0xbd238cab	-0.039929073
197	0xbd97626f	-0.073918216
198	0x3d92f295	0.07175175
199	0x3d8b69da	0.06807299
200	0xbcb2268e	-0.0217469
201	0xbda6db96	-0.081473514
202	0xbdb81b81	-0.08989621
203	0x3c1274b4	0.008938957
204	0x3d8219f3	0.06352606
205	0x3cfbdbea	0.030744512
206	0x3c3defa6	0.011592781
207	0xbd01f0b9	-0.03172371
208	0x3e10a6a9	0.14126076
209	0x3d80c5bb	0.06287714
210	0x3c81ca48	0.015843526
211	0x3de500b9	0.111817785
212	0xbdb0f9fb	-0.0864143
213	0xbe076166	-0.13220748
214	0x3d414e01	0.04719353
215	0xbb8602bd	-0.004089682
216	0x3c47de82	0.012199046
217	0x3d0ef690	0.03490311
218	0x3da9d5cd	0.082927324
219	0xbe00e985	-0.1258908
220	0xbbf159bb	-0.007365433
221	0x3d84f21c	0.06491491
222	0x3d9eee53	0.077603005
223	0x3dee2b95	0.11629406
224	0x3df23430	0.1182636
225	0x3da01358	0.078161895
226	0x3d65537c	0.05598782
227	0xbcb23807	-0.021755232
228	0xbdac2241	-0.08404971
229	0xbded6a10	-0.115924954
230	0xbd4cb11c	-0.049973592
231	0xbd287ba0	-0.041133523
232	0x3d7f6306	0.062350295
233	0x3d84bc61	0.06481243
234	0xbd52c8cb	-0.051461022
235	0xbd81e4dc	-0.063424796
236	0xbbdfa492	-0.006825038
237	0xbd873c24	-0.06603268
238	0x3ddba554	0.10724893
239	0x3d681173	0.056657266
240	0x3c1e718c	0.009670626
241	0x3d91c69c	0.0711796
242	0x3df1d251	0.11807693
243	0xbd77844b	-0.0604289
244	0xbc00cd11	-0.007861392
245	0xbd8bb007	-0.06820684
246	0xbd52139f	-0.051288243
247	0x3db06665	0.0861328
248	0x3dd17ff2	0.10229482
249	0xbcc47a4d	-0.023984099
250	0x3cc24089	0.023712413
251	0xbd0c903c	-0.03431724
252	0x3ded259f	0.11579441
253	0xbde7431b	-0.11292096
254	0xbe025305	-0.12726982
255	0x3de822e8	0.11334783

encoder.weight_hh_l0_reverse f4 [192, 64]
0	0xbcecb305	-0.028893957
1	0x3d7cae06	0.0616894
2	0xbd09f493	-0.03368051
3	0xbdcdf143	-0.10055783
4	0xbbec40a8	-0.007209856
5	0x3d987643	0.07444432
6	0x3dcff093	0.10153308
7	0xbcf136c3	-0.029445058
8	0xbd4f5e58	-0.050627083
9	0x3e065d8b	0.13121621
10	0x3d964070	0.07336509
11	0xbd8854bb	-0.06656786
12	0x3d9a356e	0.07529722
13	0x3dadde0f	0.0848962
14	0xbd1628f6	-0.036660157
15	0x3d860675	0.065442
16	0xbde5d87e	-0.11222933
17	0x3df5ee81	0.12008382
18	0xbdcdab68	-0.10042459
19	0xbdc8f138	-0.09811634
20	0xbd97c7ed	-0.0741118
21	0xbdc2270d	-0.094801046
22	0x3e016e7d	0.12639804
23	0x3d0c490a	0.034249343
24	0x3cf5ec12	0.030019794
25	0xbde06d97	-0.109584026
26	0x3c7b74ea	0.015347699
27	0xbda38233	-0.07983818
28	0x3cec813f	0.028870223
29	0x3dd1a74c	0.102369875
30	0x3d841990	0.06450188
31	0xbdf52d37	-0.11971515
32	0xbdb7b9aa	-0.089709595
33	0x3dd8b134	0.10580674
34	0xbd3aa25e	-0.045565
35	0x3d5fb1ac	0.0546128
36	0x3dfd432e	0.12366329
37	0xbd947849	-0.07249505
38	0x3db43ac6	0.08800273
39	0xbc54a5c9	-0.012978979
40	0x3d18b437	0.03728124
41	0xbd734b71	-0.05939812
42	0xbdaf73c7	-0.08567005
43	0x3dc72953	0.09724679
44	0xbdb58864	-0.08863905
45	0x3d81e9a3	0.06343391
46	0xbdabee0e	-0.08395015
47	0xbdc0afe1	-0.09408546
48	0xbc80ed9f	-0.015738307
49	0xbdf11704	-0.11771968
50	0x3ded0380	0.11572933
51	0xbc32902a	-0.010898629
52	0xbcf42e6b	-0.02980729
53	0xbdf6d39c	-0.1205208
54	0xbc7ef4a5	-0.0155612575
55	0xbd0a9d57	-0.033841457
56	0x3dd0e4b1	0.101998694
57	0x3d0e3be7	0.034725096
58	0xbc13d815	-0.009023686
59	0xbd819980	-0.06328106
60	0xbdff623c	-0.124699086
61	0xbccfbe4b	-0.025359293
62	0xbb783cb0	-0.003787797
63	0xbdc1a31d	-0.094549395
64	0x3d013b17	0.031550493
65	0x3d89deb5	0.06731931
66	0x3d99c5f9	0.075084634
67	0xbe059b21	-0.13047458
68	0x3d8ffda5	0.07030801
69	0x3ddee244	0.108830005
70	0x3de6668b	0.11250027
71	0xbac5b087	-0.0015082516
72	0x3d37ef5c	0.044906005
73	0x3ddb3295	0.10703007
74	0x3dd42837	0.10359233
75	0xbd977f51	-0.073973306
76	0x3d674713	0.056464266
77	0xbbe254a5	-0.006907063
78	0x3d9fc413	0.0780107
79	0xba2a4aa3	-0.0006496107
80	0xbcfa040e	-0.030519512
81	0xbc3cc6c4	-0.011521999
82	0x3da0c2a2	0.07849623
83	0x3dd08a32	0.10182609
84	0x3e091bd0	0.13389516
85	0xbcf72f6d	-0.030173982
86	0xbd55077d	-0.052009095
87	0xbd5ab087	-0.053391006
88	0x3d8e4555	0.06946818
89	0xbd60f59c	-0.05492173
90	0xbcf2e033	-0.029647922
91	0x3d96a026	0.07354765
92	0xbd01d5e9	-0.03169814
93	0xbd3ccb20	-0.046092153
94	0xbd2e9ca3	-0.04262985
95	0x3d6d54cd	0.0579422
96	0xbd24b2cf	-0.040209588
97	0xbd47792f	-0.048699554
98	0xbd362a4d	-0.044473935
99	0x3d9f1018	0.077667415
100	0x3c288daf	0.010287686
101	0xbdf72276	-0.1206712
102	0x3de9ed1c	0.11422178
103	0xbded9941	-0.116014965
104	0x3c8ed651	0.017436178
105	0xbd5a4b13	-0.053294253
106	0x3cfc9b42	0.030835751
107	0xbd693507	-0.056935336
108	0xbdb9f69c	-0.0908024
109	0xbd50edec	-0.05100815
110	0x3d4436fc	0.047904
111	0x3dd83aee	0.10558115
112	0xbdb20263	-0.086918615
113	0xbc17f6c2	-0.00927514
114	0xbd7ffe29	-0.062498245
115	0x3d669db6	0.05630275
116	0xbaa578ce	-0.0012624504
117	0x3c49e1d7	0.012321911
118	0xbd3fb1ad	-0.046800304
119	0x3d93e095	0.0722057
120	0xbda4d74b	-0.080488764
121	0xbd884473	-0.06653681
122	0x3e07dd86	0.13268098
123	0x3b96a99f	0.004597857
124	0xbde8ea48	-0.113728106
125	0x3d7446eb	0.059637945
126	0x3d6d37c4	0.05791451
127	0xbd964f6f	-0.073393695
128	0x3d61a3e2	0.05508793
129	0xbd555645	-0.052084226
130	0x3d8f5bd3	0.06999936
131	0xbdd44929	-0.10365517
132	0x3dd014da	0.10160227
133	0xbdaa0a71	-0.08302773
134	0xbdd77ab6	-0.10521452
135	0x3cc6f8e4	0.024288602
136	0x3dd7d9a7	0.10539561
137	0xbcf3896d	-0.029728616
138	0xbd19435c	-0.037417755
139	0xbc85ec5f	-0.016348062
140	0xbdf129ae	-0.11775528
141	0x3d2b7551	0.04185993
142	0xbd482014	-0.048858717
143	0x3e0fa173	0.14026432
144	0xbdb79d6e	-0.08965574
145	0x3dbe5456	0.092934296
146	0x3dac2f9c	0.08407518
147	0xbd008c4c	-0.031383798
148	0x3d57808a	0.05261282
149	0x3c7d0fd6	0.01544567
150	0x3d737fc5	0.059448022
151	0x3d5f02f7	0.054446187
152	0x3e07fccc	0.13280028
153	0xbd8b3f01	-0.067991264
154	0xbd56a63b	-0.052404623
155	0xbdef2cc4	-0.1167846
156	0xbdb91ea1	-0.09039045
157	0x3d064605	0.03278162
158	0xbd8c9f8b	-0.06866368
159	0x3d0d1bb7	0.03445026
160	0xbc91bad1	-0.017789276
161	0x3deb3fdd	0.1148679
162	0x3c8d3577	0.017237408
163	0x3d0205a3	0.031743657
164	0x3cb23879	0.021755444
165	0x3de4f592	0.11179651
166	0xbe0dad57	-0.13835655
167	0x3d678fe1	0.056533698
168	0xbd798dab	-0.06092612
169	0xbe0e31ba	-0.13886157
170	0x3c95a610	0.018267661
171	0x3d9d9016	0.07693498
172	0x3cba480e	0.022739436
173	0x3d8ab420	0.06772637
174	0xbe0de9a3	-0.13858657
175	0x3da26c35	0.07930795
176	0xbd90d0ca	-0.07071073
177	0xbd1d66f8	-0.038428277
178	0x3ca0dd76	0.01963685
179	0xbd8caa6a	-0.068684414
180	0xbd146857	-0.03623232
181	0xbdae80d9	-0.085206695
182	0xbdae9ecd	-0.085263826
183	0xbded473f	-0.11585855
184	0x3d91d1e2	0.0712011
185	0x3df1f10a	0.11813553
186	0xbe1009cb	-0.14066236
187	0xbbab41bf	-0.0052263434
188	0xbc7234ad	-0.014783067
189	0xbd977e3a	-0.07397123
190	0x3d0fd1bb	0.035112124
191	0x3d6f9314	0.058489874
192	0x3dc179f8	0.09447092
193	0xbdd997b0	-0.10624635
194	0x3d065b29	0.03280178
195	0x3da83a93	0.08214297
196	0xbcba4b59	-0.022741007
197	0x3da6c347	0.08142715
198	0x3d361beb	0.04446022
199	0x3c31808d	0.010833872
200	0x3d308493	0.043095183
201	0xbbb124a7	-0.0054059806
202	0x3de1bce4	0.11022356
203	0x3da38511	0.07984365
204	0xbcfb61d1	-0.030686291
205	0xbd5bc6b8	-0.05365631
206	0xbdf458b0	-0.11930978
207	0x3df51999	0.11967773
208	0xbc08c667	-0.008348084
209	0xbc0c3584	-0.008557681
210	0x3d8b1d48	0.06792694
211	0x3df06118	0.11737269
212	0xbcfc9804	-0.030834205
213	0x3d7a7878	0.061150044
214	0xbe0aacb3	-0.13542442
215	0x3e0c4c01	0.13700868
216	0xbcea7aa6	-0.028622936
217	0xbdadbc85	-0.08483223
218	0x3cfda15a	0.030960727
219	0xbd0f27fc	-0.03495024
220	0xbce96609	-0.028491037
221	0xbd170839	-0.036873076
222	0x3df84bc2	0.12123825
223	0x3db68f88	0.08914095
224	0xbcefe8b4	-0.029285766
225	0xbd58c295	-0.052919943
226	0x3c8f8949	0.017521517
227	0xbde14ca1	-0.11000944
228	0xbd264018	-0.04058847
229	0xbd0564be	-0.03256678
230	0xbd9f6073	-0.07782068
231	0xbdc9c11e	-0.09851287
232	0x3bc66402	0.0060544023
233	0x3d861e46	0.06548743
234	0x3df6f2db	0.1205804
235	0xbd3a040e	-0.045414023
236	0x3d887bec	0.06664261
237	0xbdb96afe	-0.0905361
238	0xbcc7d834	-0.024395086
239	0x3da92270	0.082585216
240	0xbdc2f5e0	-0.09519553
241	0xbddf1498	-0.108926
242	0xbd900c02	-0.0703354
243	0x3d98357a	0.07432075
244	0xbd387513	-0.045033526
245	0x3b12edb5	0.0022419516
246	0x3da2c2fc	0.079473466
247	0xbd3b9030	-0.045791805
248	0x3d9ee7dc	0.077590674
249	0x3e023b6a	0.12717977
250	0x3c70b17e	0.014690755
251	0x3d82cabf	0.06386327
252	0x3c2a7c00	0.0104055405
253	0xbdc50a79	-0.09621138
254	0x3dfb8b21	0.12282396
255	0x3c916d32	0.017752264
