checkpoints/sulfation_agent.pt (torch, 35536 bytes, 3 tensors)

classifier.0.weight f4 [64, 128]
000000 70 a6 ed bd da 69 1d be a2 77 8a bc bc 6c 15 bd
       -0.11604011 -0.1537241 -0.016902748 -0.03648065
000010 17 c5 a3 bc c6 58 bf bc cb 3d 88 3d 76 34 d4 bd
       -0.01999144 -0.02335776 0.06652411 -0.10361569
000020 e2 47 e7 bd ae f1 89 3c ed 18 be bd d2 16 c9 3c
       -0.112930074 0.016838875 -0.09282098 0.024547014
000030 00 04 0f bd 1f d0 4f 3b a0 ca b7 bd e1 71 12 bd
       -0.034915924 0.0031709743 -0.089741945 -0.035753135
000040 b1 c5 8c 3d 2c 7c 81 bd 65 3a cf 3c a3 d1 8a 3d
       0.06873644 -0.06322512 0.0252964 0.06778266
000050 f9 76 ce 3d 68 88 ad bc 8e 06 8b 3b 15 e3 3c bd
       0.10081286 -0.021183208 0.0042427247 -0.046115
000060 25 8c 00 3e f9 53 85 3c 9e 2d 3e 3d 4c a9 ba bd
       0.12553461 0.016275393 0.046430223 -0.09114322
000070 ba 91 2b 3e 4a 2d 1a 3d 74 9e c0 bd 32 fa 75 3d
       0.16754809 0.037640847 -0.094052225 0.060053058
000080 50 68 93 bc 2f 27 0b be 12 59 97 3d 03 e2 6e 3d
       -0.017994076 -0.13589166 0.07390036 0.05832101
000090 39 d3 5c bb ab 12 22 3d de 46 90 3d 90 8f e6 3d
       -0.0033695234 0.039568584 0.07044767 0.11257851
0000a0 56 a3 25 3d 2a 4f 3e 3a d9 76 12 bd 78 fb 2a bd
       0.040438972 0.0007259721 -0.035757873 -0.041743726
0000b0 ed dc 3b bd 7a db 69 bd 71 e9 30 3d 05 5c 4f bd
       -0.045864988 -0.057094075 0.043191377 -0.050624866
0000c0 1b d9 c3 bd f0 aa f8 bb d1 54 a4 3c 9d b6 a9 bd
       -0.09562894 -0.0075887367 0.020059975 -0.08286784
0000d0 f7 dd 15 bd c5 29 58 3b 04 ba 99 bd 3e 0d a0 3d
       -0.036588635 0.003298388 -0.07506183 0.07815026
0000e0 8b 4a df bc a2 f2 5c 3d c1 3f 19 bd 14 5a 00 3e
       -0.027257225 0.05394233 -0.037414316 0.12534362
0000f0 e1 85 07 be 32 85 65 bd df 4c 9d 39 78 ae c9 3d
       -0.13234664 -0.056035228 0.00030002647 0.098477304
000100 2b 9a 6f 3d 5a ab d6 bd 6b 51 65 3d 2e 7b 44 3b
       0.058496635 -0.104819015 0.05598585 0.0029980647
000110 13 fd 01 bc 89 c6 4e 3d 08 74 ec 3d 37 c0 31 bc
       -0.007933873 0.050482307 0.11545569 -0.01084905
000120 78 18 c6 bc 0c 5d 91 bc 5a 47 32 bd 57 81 f3 3b
       -0.02418159 -0.017744564 -0.043525077 0.00743119
000130 71 43 57 be 9a a3 21 3e cb 57 5d bc 11 56 9e bc
       -0.2102182 0.15785065 -0.013509701 -0.019328149
000140 5e 15 d0 3c 60 e2 96 bd b9 74 19 bd b8 f5 ba bc
       0.025400814 -0.07367396 -0.03746483 -0.022822246
000150 69 08 ba 3c 21 ce 94 bd 8d 49 75 3d 65 5a a4 bd
       0.022709088 -0.072658785 0.059884597 -0.08025054
000160 67 bf 8c bc f1 63 06 bd 12 3f de 3d be 82 0b 3c
       -0.017181111 -0.032810155 0.108518735 0.008515058
000170 53 bb 93 bc 9a fc 4c 3d a9 e0 10 bd f9 dc f0 bc
       -0.01803366 0.050045587 -0.035370503 -0.029402243
000180 2f d6 2b 3c 58 52 55 bb eb bb f4 3c 33 93 f4 3d
       0.010488077 -0.0032550301 0.029874763 0.119421385
000190 6e d2 e8 3c 43 a7 22 bd db d3 b0 bd 34 99 d0 3c
       0.028420653 -0.039710294 -0.08634158 0.025463678
0001a0 73 6d 16 3d 01 9d 3f bd c0 b9 b3 3c f3 09 95 3a
       0.036725473 -0.04678059 0.021939158 0.0011370763
0001b0 4f 00 e6 3c b7 4b b5 bb dd 32 42 bd e8 f9 26 3e
       0.028076319 -0.0055327076 -0.04741179 0.16306269
0001c0 f1 f5 80 bd 4a 82 a5 bc bd 36 30 bd fd cc 29 be
       -0.062969096 -0.020203728 -0.043020952 -0.16582103
0001d0 75 27 09 3e 67 7f 3f be 4c cf 88 bd bc 2c be bd
       0.13393958 -0.18700944 -0.06680164 -0.09285876
0001e0 42 ef 8d bd da f5 03 3d 69 9b 3f bc bf 8e da 3d
       -0.069304004 0.032216884 -0.0116947675 0.10671758
0001f0 d4 81 91 3b d0 f4 32 3d 20 6f 07 bd 1c cb 78 3b
       0.0044405255 0.043690503 -0.03306496 0.003796286
000200 11 3e 06 bd d7 4c f8 bd 55 25 9a bc ae 00 24 3d
       -0.032774035 -0.12124031 -0.01881663 0.04003971
000210 61 f3 aa 3d 39 8d 0e be 82 c3 49 3b ca ac f9 bc
       0.08347202 -0.1392106 0.0030786698 -0.0304779
000220 87 ae 9d bd b8 60 96 3c 5e 7a 09 be 42 1a b8 3d
       -0.07699304 0.018356666 -0.13425586 0.08989383
000230 cc c5 02 be 7e 76 9e 3c 1c 5f a4 bc 4c af 4a bd
       -0.12770766 0.01934361 -0.020064883 -0.049483582
000240 ea b0 7c bc 85 f9 ec 3d 99 e6 54 3d 7d 16 44 bd
       -0.015423039 0.115710296 0.051977728 -0.04787301
000250 18 e1 b9 3c c7 8d 6f bd 24 04 44 3c f8 d5 0c bd
       0.02269034 -0.05848482 0.011963878 -0.034383744
000260 b8 09 d3 3d 93 90 71 3d 4a 05 c4 bc 02 64 9a bc
       0.10304588 0.058975767 -0.023928303 -0.018846516
000270 77 cb 85 3d 6d e3 31 3d 3e d7 b3 bd 54 8b d7 3d
       0.065329485 0.04342978 -0.087812886 0.105246216
000280 50 fa 08 be 73 1a 04 be 28 b9 dc 3d d9 dd 72 3c
       -0.13376737 -0.12900715 0.10777503 0.0148234
000290 aa 2c 28 bd 12 58 94 bd db 10 e1 3d b7 c0 27 3d
       -0.04105822 -0.072433606 0.10989543 0.04095527
0002a0 cb 23 87 bc 12 87 0d 3c fe 6f 87 bd 44 67 58 bd
       -0.01649656 0.00863816 -0.06613158 -0.052832857
0002b0 37 f9 cb bd 79 fa d7 3c 52 45 23 3d cd ca ae bd
       -0.09959643 0.026364552 0.03986103 -0.08534775
0002c0 50 85 84 bd 93 57 9e bd 13 b9 d9 bb e2 9b 27 b8
       -0.0647074 -0.07731547 -0.006644377 -3.996108e-05
0002d0 33 a1 58 bd 15 9b ef 3c c9 d8 06 bd 2c 89 e3 3c
       -0.052888107 0.029248754 -0.032921586 0.02777537
0002e0 f7 6e e5 bd 7e a1 41 3d 94 ef e6 3c 02 70 66 bd
       -0.112028055 0.04727315 0.028190412 -0.056259163
0002f0 ed 63 c1 bd 8f 97 1b 3d 1f cb fa bd b3 3e 77 3d
       -0.094428875 0.037986334 -0.122457735 0.06036253
000300 3b 27 0f 3c 0b d3 84 bd 17 c7 9a 3c ed 35 47 3d
       0.008737381 -0.06485566 0.018893762 0.048635412
000310 35 59 79 bb 05 bd 0c 3d cb f3 38 3d 00 a9 7c 3d
       -0.0038047556 0.03435995 0.045154374 0.06168461
000320 8b 02 b9 bd c6 e0 db 3d d7 94 0e bd 60 7c 7b bb
       -0.09033688 0.107362315 -0.034809913 -0.0038373694
000330 69 67 10 be 63 bc f2 3d 89 2c 0b 3d 8a 5d ac bc
       -0.14101948 0.11852338 0.03397802 -0.021040697
000340 aa 9d e2 bd 93 5b 5e bd 29 4b 53 3d b9 12 05 bd
       -0.11065228 -0.05428655 0.05158535 -0.03248856
000350 2d b1 51 bd 67 a0 be bd d6 80 5d bb 65 53 16 be
       -0.05119436 -0.09307938 -0.0033798716 -0.1468025
000360 68 17 a2 3c 22 48 5b bc ce f5 25 bd 82 2b 03 3c
       0.019786552 -0.013383897 -0.04051762 0.008005979
000370 48 52 8f 3d 9a 96 59 3b 2e 87 99 3d d2 de ae bd
       0.06998116 0.0033201338 0.074964866 -0.08538593
000380 f0 29 0b 3b 9d a7 20 3c c8 f4 cf 3c 62 68 e3 3d
       0.0021234713 0.009805587 0.025385275 0.11103894
000390 a5 c6 4b bd d7 ff 42 bd 2c 24 ff bc a1 d0 89 bd
       -0.04974999 -0.04760727 -0.031145178 -0.06729246
0003a0 88 c2 4e bc f9 66 0e be f0 db 77 bc 5d 00 8b 3d
       -0.012619622 -0.13906468 -0.015128121 0.06787179
0003b0 5a 9e ef 3b 82 33 72 3c f2 71 05 3d 68 35 a2 3d
       0.007312578 0.014782788 0.03257937 0.07920343
0003c0 a6 60 0b be b0 7f 42 3d ca db dc bc e2 72 b7 bd
       -0.13611087 0.047485054 -0.026960272 -0.08957459
0003d0 9c d5 17 3e 82 43 19 bd 78 04 84 3d ef d3 3d bd
       0.1482758 -0.037417896 0.06446165 -0.046344694
0003e0 a8 25 15 3d 47 2e 63 3d 9c 4d 05 3c d1 4c 73 bd
       0.036412865 0.055464055 0.008136179 -0.05939943
0003f0 4c 5d dd 3c dd 0f 7f bd 73 5d 78 bd 53 b9 1f 3d
       0.027022026 -0.062270988 -0.060635995 0.0389951

classifier.0.bias f4 [64]
000000 fd 74 26 3d 10 f2 84 3d 4e c4 52 bd 5b 5b 90 3a
       0.040638912 0.06491482 -0.051456742 0.0011013554
000010 58 ec b3 3c cf c9 12 bd 65 ee bf bd 3d b7 d9 3d
       0.021963283 -0.03583699 -0.09371642 0.10630653
000020 82 c3 85 3c 19 ef 8a 3d ca 94 91 3d e6 32 0e bb
       0.016328577 0.067838855 0.071084574 -0.0021697818
000030 b8 ee 93 bc 9a ea 5e 3d 39 e8 cb bd 52 37 e0 bb
       -0.018058166 0.054422952 -0.09956402 -0.006842532
000040 50 3c 49 bd 4a d5 3b 3d e5 4b 65 bd b9 5d 8e bd
       -0.049129784 0.045857705 -0.05598058 -0.0695147
000050 51 30 0a bd 15 bb ac 3d de 0b 6d 3d 48 41 db 3d
       -0.033737484 0.084341206 0.057872646 0.10705811
000060 9b 37 d6 3d 9a 6f 3f bb 7d 00 08 3c 72 dc aa 3c
       0.10459825 -0.0029210807 0.008300898 0.02085707
000070 4c 8a 33 bd e7 70 80 bd 6e 76 2a 3d 0d 02 77 3c
       -0.043833062 -0.062715344 0.04161685 0.015076173
000080 66 f8 07 bc 4e 38 79 3c ed 90 9b bc 30 a8 47 bd
       -0.008298969 0.015211178 -0.018990004 -0.04874438
000090 90 c4 8e bc d8 2c b7 bc e2 59 6c 3d aa 2f cf 3d
       -0.017427713 -0.02236025 0.057702906 0.10116513
0000a0 c7 05 9e 3d eb 9b f0 bc 6d d0 93 3c de d5 a4 3c
       0.07715946 -0.029371222 0.018043721 0.020121511
0000b0 ea d6 56 3c 1e d2 8f 3d f6 71 ee 3b 2e 3b bb bd
       0.013112763 0.070224985 0.007276769 -0.09142147
0000c0 da d5 bc 3d 49 57 a3 bc 5f c9 f4 bd 94 e3 89 bd
       0.092204764 -0.019939082 -0.11952471 -0.0673286
0000d0 92 40 d5 39 64 b1 cd 3c a8 c9 b7 bb 05 a1 1e 3d
       0.00040674635 0.025109 -0.005608756 0.03872778
0000e0 48 0d 4e 3b f0 53 c3 3d d1 b9 83 3d b1 8b 3c bd
       0.0031441022 0.09537494 0.06431926 -0.046031658
0000f0 3e c6 28 bd 2a 2e f5 bc 5f f5 8b bc 08 d0 cd 3c
       -0.041204683 -0.02992924 -0.017084775 0.025123611

classifier.3.weight f4 [1, 64]
000000 d2 50 1d be b7 bd 13 be 03 aa 02 be 40 03 9f bd
       -0.15362862 -0.14427839 -0.12760167 -0.07764292
000010 b1 27 14 be 6f 36 05 3e 6e 7e 2d 3e 5b 9d f1 bd
       -0.14468266 0.13009046 0.1694276 -0.11797591
000020 5a f3 73 bd 8a 64 1a be 30 5d 18 be 7a 49 4f 3d
       -0.05955825 -0.15077415 -0.14879298 0.050607182
000030 60 8d 2b be 75 20 ad 3d 1b 03 ec bc 02 8f e4 bd
       -0.16753149 0.08453456 -0.028810075 -0.11160089
000040 6a 25 f0 3c 16 78 4b 3d a6 97 dc bd 59 ff 9a bc
       0.029314715 0.04967507 -0.10771112 -0.018920587
000050 ec 46 07 be 21 8e 5c be e2 0b ad 3c f2 b8 11 be
       -0.13210648 -0.21538593 0.02112383 -0.14230707
000060 e0 8a 8f bd db 6d 07 3d 9f 91 fe bd af d4 2d be
       -0.0700891 0.03306375 -0.12430119 -0.16975664
000070 48 11 38 bd cf 7e c4 3b d0 c6 0d be 5e b4 85 3d
       -0.044938356 0.005996562 -0.13845372 0.06528543
000080 dc 50 32 3d ef 07 43 bd d9 d1 63 bd e6 e9 5a bd
       0.043534145 -0.047614988 -0.05562005 -0.05344572
000090 12 2b 2d be 06 1a 20 3d c0 3a 18 be a3 79 22 be
       -0.16910961 0.039087318 -0.14866161 -0.15866713
0000a0 da 97 22 be 0a 20 ab bb af ea 9b bd cf ce 89 3c
       -0.1587824 -0.005222325 -0.07613122 0.016822247
0000b0 e2 b4 1b 3d 0c e9 b0 3c 12 2d 33 be 88 c7 c9 3c
       0.0380143 0.0215955 -0.17497662 0.024631277
0000c0 8c 1c 1b be 09 8e 10 be ec db f3 3d af 4e 95 bd
       -0.15147609 -0.14116682 0.11907181 -0.07290398
0000d0 e8 0a b1 3d c2 ac 9f bd db 63 1c be b0 71 1b 3d
       0.08644658 -0.07796623 -0.15272467 0.037950218
0000e0 46 28 b3 3d 0d 3e 19 be 8d 32 a2 bd 51 e3 09 be
       0.08747916 -0.14965077 -0.07919798 -0.1346562
0000f0 4c e2 91 3d df a0 d7 3d 75 37 d8 3d 52 6f 92 bd
       0.07123241 0.105287306 0.105574526 -0.07150139
