checkpoints/sumoylation_agent.pt (torch, 35552 bytes, 3 tensors)

classifier.0.weight f4 [64, 128]
0	0x3d943d36	0.072382376
1	0xbd83d667	-0.064373784
2	0xbaa08944	-0.001224794
3	0x3bccd685	0.0062511587
4	0xbd767c5e	-0.0601772
5	0x3d8705ad	0.065928794
6	0xbdcc8b88	-0.09987551
7	0x3dcfc917	0.10145777
8	0x3d9ebf09	0.07751281
9	0xbdc378fc	-0.0954456
10	0xbc2c794c	-0.010526966
11	0xbd10b2c9	-0.035326753
12	0x3da53778	0.080672204
13	0x3cfa2f87	0.03054024
14	0x3c5dba3d	0.013533172
15	0x3da13c6a	0.07872851
16	0x39390e5f	0.00017648329
17	0x3b37e434	0.0028059604
18	0xbc9450e9	-0.018104987
19	0x3d8fb2b7	0.07016509
20	0xbd9bcc58	-0.07607335
21	0x3cef026f	0.029175965
22	0x3d000e54	0.031263664
23	0x3ce2d5b9	0.027689802
24	0xbca18344	-0.019715913
25	0x3ca0924f	0.019601015
26	0x3b8a8a69	0.0042279256
27	0xbd8df5c7	-0.06931644
28	0x3c5a6797	0.013330362
29	0x3cb315b0	0.021860927
30	0x3d876ffa	0.06613155
31	0x3d51b77b	0.05120037
32	0x3bc9fef7	0.0061644274
33	0xbd663afd	-0.0562086
34	0x3c898cd7	0.01679079
35	0xbbc67f2a	-0.0060576396
36	0xbd3d3946	-0.0461972
37	0xbd8a63ea	-0.06757338
38	0xbd4a2866	-0.049354933
39	0xbdd0f7a7	-0.10203486
40	0xbdb56c7c	-0.088585824
41	0x3da43195	0.080172695
42	0x3da26960	0.07930255
43	0xbd7f881b	-0.06238566
44	0x3ca38125	0.019959042
45	0xbbfa3704	-0.007635953
46	0xbc37cdb5	-0.011218478
47	0x3d86e11c	0.06585905
48	0xbd341969	-0.043969546
49	0x3d02e4f9	0.031956647
50	0x3d3b3918	0.045708746
51	0x3da20615	0.07911316
52	0x3d5c1178	0.053727597
53	0xbd057912	-0.032586165
54	0x3d1c9c64	0.038235083
55	0xbd90fb9a	-0.07079239
56	0xbca16b50	-0.01970449
57	0x3a4db2c9	0.00078467705
58	0x3d67e33c	0.056613192
59	0xbced60d4	-0.028976835
60	0x3cd852cb	0.026406666
61	0xbc37f51b	-0.011227871
62	0x3dafc1e1	0.08581901
63	0x3d92cf84	0.07168487
64	0x3d78bc08	0.060726196
65	0xbaae4d6c	-0.001329822
66	0xbdb68e1e	-0.089138255
67	0x3d7dcb01	0.061961178
68	0xbd945f5c	-0.07244751
69	0x3d145377	0.03621241
70	0x3d49013c	0.049073443
71	0x3dc3ab27	0.09554129
72	0x3cc375fd	0.023859972
73	0xbd33bff8	-0.043884248
74	0xbc14cd88	-0.009082206
75	0xbca0dd84	-0.019636877
76	0xbd08f2f9	-0.03343484
77	0xbdb10057	-0.08642643
78	0xbbe40f5f	-0.00695984
79	0x3b5d0de6	0.0033730208
80	0x3d804936	0.06263964
81	0xbc723ee3	-0.014785501
82	0xbd6d98fd	-0.05800723
83	0x3cc3769d	0.02386027
84	0xbc51f4a6	-0.012814676
85	0xbcf7c5b1	-0.030245634
86	0x3d6e5d9e	0.05819475
87	0xbd548d3d	-0.051892508
88	0xbba7aa5f	-0.0051167454
89	0x3cdf54e1	0.027262153
90	0xbd959265	-0.07303313
91	0xbd60b0b8	-0.054856032
92	0x3d4c28f1	0.049843732
93	0xbd4cf51e	-0.05003845
94	0x3d29f729	0.041495476
95	0xbb94b3cd	-0.0045380355
96	0x3ce6b6e0	0.028163373
97	0xbb95dcba	-0.004573432
98	0x3d48b864	0.049003974
99	0xbbdd3cf2	-0.00675165
100	0xbd8b3166	-0.067965314
101	0x3d2d5cf3	0.04232497
102	0xbccc20b0	-0.02491793
103	0xbd8b5f33	-0.06805267
104	0xbd863d53	-0.065546654
105	0xbcf02d7a	-0.02931856
106	0x3da304f5	0.0795993
107	0xbd6e2362	-0.058139212
108	0xbd8fb635	-0.07017175
109	0xbcf2f954	-0.029659905
110	0x39ed9566	0.00045315473
111	0x3d0fc587	0.035100486
112	0xbd4d40fa	-0.050110795
113	0xbd808696	-0.0627567
114	0xbdae892c	-0.08522257
115	0xbd8a0a91	-0.06740297
116	0xbd7f5772	-0.062339254
117	0x3c460f36	0.0120885875
118	0xbd94df2c	-0.07269129
119	0x3d1e655e	0.03867089
120	0xbdbe00af	-0.09277474
121	0xbd01ad3a	-0.031659342
122	0xbd52b56c	-0.05144255
123	0x3d15e13f	0.036591765
124	0x3d654ccd	0.055981446
125	0xbcde3082	-0.02712274
126	0x3d011d84	0.03152229
127	0x3c8eb479	0.01742004
128	0xbc391fc6	-0.011299079
129	0xbc2495db	-0.010045494
130	0x3dc24f5a	0.09487791
131	0xbd4bc5ed	-0.049749304
132	0x3db43bc9	0.088004656
133	0xbda1a946	-0.078936145
134	0xbbabc21b	-0.005241645
135	0xbda2f2ed	-0.07956491
136	0xbdb1b86b	-0.08677753
137	0x3b19c43d	0.0023462914
138	0xbe00dc54	-0.12584049
139	0xbd57cc88	-0.05268529
140	0xbd628de9	-0.055311117
141	0xbd188610	-0.037237227
142	0xbd5d0f97	-0.053969946
143	0x3d5e5a58	0.054285377
144	0x3cd3b766	0.025844287
145	0x3d5d215d	0.053986896
146	0x3d30f480	0.043201923
147	0xbd26e803	-0.040748607
148	0x3d9ee255	0.07758013
149	0x3da2fb3f	0.07958078
150	0xbd3288e4	-0.04358758
151	0x3c59e289	0.013298639
152	0xbcac984e	-0.021068718
153	0xbce08aab	-0.027409872
154	0x3dcd2bfc	0.10018155
155	0x3dabea06	0.08394246
156	0xbd9d771b	-0.07688733
157	0xbd96bced	-0.073602535
158	0xbce4d42d	-0.027933205
159	0x3daca4fc	0.08429906
160	0xbd4bb947	-0.04973724
161	0xbda19522	-0.07889773
162	0xbca7a6ce	-0.02046528
163	0x3b3056e4	0.002690726
164	0xbddd6a96	-0.10811345
165	0xbc56cf10	-0.013110891
166	0xbc03269e	-0.0080048125
167	0x3d9e658f	0.077342145
168	0x3cf73b30	0.03017959
169	0xbe05b86c	-0.13058633
170	0x3c414997	0.01179733
171	0x3d701e6f	0.058622774
172	0x3dc7773c	0.09739539
173	0x3dfd1f19	0.12359447
174	0x3dbd0cf0	0.09230983
175	0x3d1fbd81	0.038999084
176	0x3d5ce099	0.05392513
177	0xbdb80fd7	-0.08987396
178	0x3d8b596a	0.06804164
179	0xbd9efd0b	-0.07763108
180	0xbc03cf74	-0.008045066
181	0xbdac6cad	-0.08419166
182	0x3e0055f8	0.12532794
183	0x3d518d76	0.0511603
184	0xbd73ac0e	-0.059490256
185	0x3c589a00	0.01322031
186	0x3d99e261	0.075138815
187	0x3d0ee015	0.03488167
188	0xbcd0a9cc	-0.02547159
189	0xbe02eb8a	-0.12785164
190	0x3d27b149	0.040940557
191	0x3de61f40	0.11236429
192	0x3c62ec9b	0.013850356
193	0x3d1e4431	0.03863925
194	0xbd2d20ac	-0.042267486
195	0xbe0a1778	-0.13485515
196	0x3d821a00	0.06352615
197	0xbc87ab0c	-0.016561054
198	0xbd3fa6c5	-0.046789903
199	0xbdaa3d2b	-0.08312448
200	0x3ca93f61	0.020660104
201	0x3d9bef66	0.07614021
202	0x3730dc7a	1.0541751e-05
203	0xbbd284e4	-0.006424533
204	0xbcb17326	-0.021661352
205	0xbd10093a	-0.03516505
206	0x3d29177a	0.041282155
207	0xbcf05c14	-0.029340781
208	0xbda3e527	-0.08002692
209	0xbded9222	-0.11600138
210	0x3d766902	0.060158737
211	0xbcb5b6f1	-0.02218196
212	0x3c465eee	0.012107594
213	0xbdb3fcd4	-0.087884575
214	0x3cd1fded	0.025633777
215	0xbc81d9fa	-0.01585101
216	0xbc21d9ec	-0.009878617
217	0x3d2d8ee8	0.042372614
218	0x3d2f60a3	0.04281677
219	0xbca6b107	-0.020348085
220	0xbcdffc7c	-0.027342074
221	0x3df83bfa	0.121208146
222	0xbd9d22b9	-0.076726384
223	0xbdeb2ca1	-0.11483122
224	0xbd8a0322	-0.06738879
225	0xbd4764af	-0.048680004
226	0xbce700c9	-0.028198617
227	0x3bb3ed7c	0.005490957
228	0xbdd679e6	-0.10472469
229	0x3d95f9f7	0.07323068
230	0xbc3a5b04	-0.011374239
231	0xbd8fd4fc	-0.070230454
232	0x3cd33424	0.025781699
233	0xbda0c22f	-0.078495376
234	0xbd1e4b86	-0.038646244
235	0xbcef0c96	-0.029180806
236	0xba108fb6	-0.00055145787
237	0x3b8a4900	0.004220128
238	0x3be9c759	0.00713436
239	0x3da068c1	0.0783248
240	0xbd3afd13	-0.045651507
241	0xbd078239	-0.033083174
242	0xbcc06a54	-0.023488201
243	0xbc1dffe8	-0.009643532
244	0x3dfbb2a7	0.122899346
245	0xbde61e15	-0.112362064
246	0xbd0ed13e	-0.034867518
247	0x3cdde0e4	0.027084775
248	0x3dd26f47	0.10275131
249	0x3c37b2ed	0.011212093
250	0xbc82ab96	-0.01595096
251	0xbd830f78	-0.06399435
252	0xbdf74c44	-0.120750934
253	0xbd6a80e4	-0.057251826
254	0xbdaf916c	-0.08572659
255	0xbcf87fbc	-0.030334346

classifier.0.bias f4 [64]
0	0x3c8f7d03	0.017515665
1	0xbca81990	-0.020520002
2	0xbd526489	-0.05136541
3	0xbcfcf1d8	-0.030877039
4	0x3d9f8d72	0.077906504
5	0xbd702696	-0.05863055
6	0x3d27a57d	0.040929306
7	0x3d904417	0.07044237
8	0x3d6231f4	0.05522342
9	0xbcbaa429	-0.022783356
10	0xbd6c6306	-0.057711624
11	0x3da1d825	0.079025544
12	0xbde3658a	-0.111033514
13	0x3db1fdc7	0.08690982
14	0xbc8248d7	-0.015903873
15	0x3db7db81	0.08977414
16	0xbdb5160d	-0.088420965
17	0xbc6bc4f1	-0.014390216
18	0x3d8c51b9	0.06851525
19	0x3d9dc480	0.07703495
20	0xbb2c74b7	-0.0026314685
21	0x3dc0de42	0.09417392
22	0x3d6b2ebc	0.057417616
23	0xbda61417	-0.081093006
24	0x3c5febe3	0.01366708
25	0x3da22091	0.07916368
26	0xbabc3f00	-0.0014362037
27	0xbd186586	-0.037206195
28	0xbcfc6e31	-0.030814262
29	0xbd26ed60	-0.040753722
30	0xbadac2d6	-0.0016690146
31	0x3d149df9	0.036283467
32	0x3dbfe269	0.09369356
33	0x3cf3d65d	0.029765302
34	0x3d1dde0a	0.03854183
35	0xbd2afe4a	-0.041746415
36	0x3dd4d7d1	0.10392726
37	0xbd7fb404	-0.062427536
38	0xbcdc5c52	-0.02689949
39	0x3d71f5ab	0.059072178
40	0xbd74c6f6	-0.059760056
41	0x3ca2f5b8	0.019892558
42	0xbc4a8b27	-0.012362278
43	0x3ce1faaa	0.027585346
44	0x3d842327	0.06452017
45	0xbcad7be6	-0.021177243
46	0xbc16a0a8	-0.009193577
47	0xbd46cda1	-0.048535947
48	0x3abf0937	0.001457489
49	0x3d62d512	0.05537898
50	0x3d284a93	0.041086745
51	0x3cb74ae5	0.02237458
52	0x3c90b5de	0.017664846
53	0xbd572010	-0.05252081
54	0xbd910f83	-0.07083037
55	0xbd477498	-0.048695177
56	0x3d1c67ff	0.038185116
57	0xbdd632eb	-0.104589306
58	0xbd069641	-0.032858137
59	0x3d027595	0.031850416
60	0x3d2dd8dc	0.04244314
61	0x37be5eb9	2.2693874e-05
62	0xbb498a96	-0.003075277
63	0x3d9e7270	0.07736671

classifier.3.weight f4 [1, 64]
0	0x3d164410	0.036686003
1	0xbe4f1e92	-0.20226505
2	0x3c0657e9	0.00819967
3	0xbd8f45c7	-0.06995731
4	0xbd9f15b4	-0.077678114
5	0x3dceb9b9	0.100940175
6	0xbd97b262	-0.07407071
7	0xbdec2860	-0.115311384
8	0xbd9528ef	-0.07283198
9	0xbd922c84	-0.07137397
10	0x3bb223b1	0.0054363837
11	0xbe0d1eb2	-0.1378124
12	0x3d7c4f4a	0.061599053
13	0xbe09f445	-0.13472088
14	0xbdc31b36	-0.095266744
15	0xbde29c7b	-0.110650025
16	0x3dd8a251	0.105778344
17	0x3dda95e5	0.10673121
18	0xbd83fc89	-0.06444652
19	0x3db92e07	0.09041982
20	0xbdca42e3	-0.09876039
21	0xbe19ebd7	-0.15031372
22	0x3c08d924	0.008352552
23	0x3b3b4ffb	0.0028581608
24	0xbe869fcb	-0.26293787
25	0xbe05298f	-0.13004135
26	0xbddfeecb	-0.10934218
27	0x3dcc35cc	0.099711984
28	0x3d1359dc	0.03597437
29	0xbe14a9ce	-0.145179
30	0xbddea6ee	-0.10871683
31	0xbdeded68	-0.11617547
32	0xbdc50456	-0.09619968
33	0x3c30afe7	0.010784126
34	0xbe0e22fc	-0.13880533
35	0x3d38f0d2	0.04515154
36	0xbdfac275	-0.12244121
37	0x3d29d683	0.04146434
38	0xbdb5cadf	-0.08876585
39	0xbdf95a9f	-0.12175488
40	0xbbda4de6	-0.0066621182
41	0xbd8c15dc	-0.06840107
42	0xbe0df457	-0.1386274
43	0xbdb8b1af	-0.090182655
44	0x3d8b4163	0.06799581
45	0xbdf5939e	-0.11991046
46	0xbe1bb68c	-0.15206355
47	0x3d89d841	0.067307
48	0x3dbbb381	0.09165097
49	0x3d528982	0.05140067
50	0xbf1693e3	-0.5881941
51	0xbd2bce0f	-0.04194456
52	0x3dd5967f	0.104290955
53	0xbe18b17f	-0.1491146
54	0x3bd17966	0.0063926456
55	0xbdf1dfaa	-0.11810239
56	0x3c75aa56	0.0149942245
57	0x3da5c1dc	0.08093616
58	0xbdf5a83b	-0.11994978
59	0x3d82eb1d	0.063925005
60	0x3d2f9d6c	0.04287474
61	0x3ba20083	0.0049439087
62	0x3d777b2f	0.06042021
63	0xbd12c217	-0.03582963
