checkpoints/ubiquitination_agent.pt (torch, 35576 bytes, 3 tensors)

classifier.0.weight f4 [64, 128]
000000 da fc 56 bd 59 57 12 3d f5 26 4b bc 74 43 97 bb
       -0.05248723 0.035727832 -0.012399425 -0.0046161953
000010 ca 97 19 bd 56 56 75 bd 9c 7a a5 bb 64 ea 0e bc
       -0.037498273 -0.05989679 -0.0050500166 -0.008722875
000020 68 15 e4 bb 8d 03 05 bd 14 62 7a 3d 2c 98 bd bd
       -0.0069605596 -0.03247409 0.06112869 -0.0925754
000030 82 01 80 3c fc c9 61 bd d5 1f 35 bd 7b 5e 51 bd
       0.015625719 -0.055124268 -0.04421981 -0.051115494
000040 87 62 0e 3d c5 9b 8c 3d b6 77 c6 bd f6 2a cd bb
       0.03476193 0.06865648 -0.09690802 -0.006261225
000050 bc f6 ce bd 1c 5d a1 bc 53 df 87 bd ee 79 3c 3d
       -0.101056546 -0.019697718 -0.066343926 0.04601472
000060 60 c4 cf 3c 2a ca 0e bd 9e 3b 64 3d 82 3a 55 ba
       0.025362194 -0.034860767 0.055720918 -0.00081340235
000070 4a 6d b1 bd e6 5e a5 3c 38 b2 7e bd 17 29 db bc
       -0.08663423 0.020186853 -0.06218168 -0.026752992
000080 62 ce 47 bd 52 fb c3 3c b4 09 56 3d 23 d5 ab bd
       -0.048780806 0.02392355 0.052255347 -0.08390262
000090 03 09 05 bd 54 e5 1e bd 9a 95 93 3d 1b 0d c7 bd
       -0.032479297 -0.038792923 0.072062686 -0.097192965
0000a0 c7 5a 4c 3d b9 67 b9 3c 52 7c 68 bc 81 3c 0c bd
       0.04989126 0.022632467 -0.0141897965 -0.03423739
0000b0 02 6a 0c bd 62 93 b3 bd 8d 8e 1f 3d 37 de 57 bc
       -0.034280784 -0.087683454 0.038954306 -0.013175539
0000c0 de 7a 87 3c 5d 40 13 3c 50 f3 1f 3c a5 f9 bf 3d
       0.01653808 0.008987513 0.0097626 0.09373788
0000d0 8f 77 93 bd 3c aa 8a 3d 53 88 93 bd 89 41 83 bd
       -0.07200538 0.06770751 -0.07203736 -0.06408984
0000e0 c4 fa 8a bd 86 45 5b 3d a7 fa fe bc 7d be 7b bc
       -0.06786111 0.0535331 -0.03112538 -0.01536524
0000f0 49 10 71 3a 50 35 63 3d 52 95 e9 3c 9f 30 8e ba
       0.0009195847 0.055470765 0.028513584 -0.001084823
000100 ce bb 61 3d b0 ed 9e 3d f9 83 c0 bd 0d d1 f5 bc
       0.055110745 0.07760179 -0.09400172 -0.03000691
000110 2e 9d a5 3d dc ad a2 bd 3f 7d 1f 3d 58 c0 8a 3d
       0.0808662 -0.07943317 0.038937803 0.06774968
000120 81 12 2e bd fd 25 59 bd d6 46 94 3d ea df 2c bc
       -0.042498115 -0.053014744 0.072400734 -0.010551432
000130 de f9 a6 3d fd c5 3b bd 12 b5 04 3d a4 90 c0 bc
       0.08153127 -0.045843113 0.032399245 -0.02350647
000140 d9 8e b9 3d 8b dd 92 3d 5c 44 98 bd 57 87 0e 3d
       0.09060449 0.07171162 -0.074349135 0.03479704
000150 26 43 64 3c 90 41 86 bc d6 d9 8c 3d e7 1b 87 3d
       0.013932025 -0.016388685 0.068774864 0.06597119
000160 24 a2 88 3d d3 c0 32 3d fb 12 25 bd 18 6f 35 3c
       0.06671551 0.043640923 -0.040301304 0.01107385
000170 57 c7 ae bd fd 4b be 3c ed da f9 3c de ca b4 3d
       -0.08534115 0.023229593 0.0304999 0.08827756
000180 99 3e 1b 3c f9 45 ba 3c c9 a4 3b bc f6 2f a6 bc
       0.009475374 0.022738444 -0.011452862 -0.020286541
000190 76 a2 a4 3d ae 51 c6 bb 49 90 8c bd 18 5f 4f 3d
       0.080387995 -0.0060522174 -0.06863458 0.050627798
0001a0 63 ce de bc bb 02 a0 bc 2c bb 13 bc eb 81 c1 3d
       -0.027198022 -0.019532552 -0.009016793 0.09448608
0001b0 89 ad ce 3c 43 a6 d6 bd 39 77 63 3c ac a6 96 bd
       0.025229232 -0.10480931 0.013883405 -0.07356009
0001c0 30 e4 85 3d 35 91 8c bc d5 d3 9d 3c 69 26 32 bc
       0.06537664 -0.017159084 0.019266048 -0.0108734155
0001d0 eb 0f 57 bc bb 16 06 bd 2d 4a 60 3d e5 b8 21 bc
       -0.013126354 -0.03273652 0.05475824 -0.009870742
0001e0 80 0b e8 3c 4d 68 71 3d 32 ff 8e 3c ef dc 70 bd
       0.028325796 0.05893736 0.017455671 -0.05880445
0001f0 33 56 33 3d e0 ae 6f 3d 89 22 84 3c 91 d1 8e 3d
       0.043783378 0.058516383 0.016129749 0.06973565
000200 d7 fb a2 bd e6 d3 01 be 6b 6b 88 3d 1a 9e 29 be
       -0.07958191 -0.12678489 0.06661113 -0.16564217
000210 71 48 d6 3c 34 62 6e 3d 7d fc b1 3d 5f 3b f6 bd
       0.02615759 0.058199123 0.086907364 -0.12023043
000220 3f ab 89 bb c4 04 e4 bd 99 ac b8 3c 48 84 d9 3d
       -0.0042013223 -0.111337215 0.022543238 0.10620934
000230 5f dd 37 be 07 e0 fb bd 14 e8 41 bd a7 2e 0b be
       -0.1795554 -0.12298589 -0.047340468 -0.13592015
000240 f1 1b 6b 3b 81 64 7e 3d 26 bc a1 bb 47 05 a7 bb
       0.0035874809 0.062107567 -0.004935759 -0.0050970647
000250 b5 35 6a 3d dd 65 3d be f4 90 86 3d 0a 95 94 bd
       0.057180125 -0.18495889 0.06570616 -0.072549894
000260 ad 3d 05 bd 6c 17 c9 3d 79 31 c7 3c 7a a5 05 bd
       -0.03252952 0.098189205 0.024315583 -0.032628514
000270 c9 24 33 bd 94 6e 54 3d d3 ab 29 3d ee e7 bb bc
       -0.043736253 0.051863268 0.04142363 -0.022937741
000280 77 d8 75 bb 29 92 06 3d ae 02 a6 3d a3 0e 81 bc
       -0.0037513056 0.032854233 0.0810598 -0.01575405
000290 4f 89 5d bc 30 4e 0e be 22 eb 9e 3d d8 42 a3 3b
       -0.013521506 -0.13897014 0.07759692 0.0049823336
0002a0 b6 76 30 bb 06 da 7b bc d3 93 4f bd 0e b8 e0 bd
       -0.0026926226 -0.015371805 -0.050678086 -0.10972606
0002b0 ea 81 a9 ba 57 02 c9 3d 81 59 19 3d be 62 b2 bd
       -0.0012932394 0.098148994 0.037438873 -0.0871024
0002c0 24 ce b6 bd b3 83 58 bc 49 9b b0 3d c8 1e 2a bd
       -0.08926037 -0.013214993 0.08623368 -0.04153326
0002d0 d0 a3 26 bd f8 b3 b5 bc 4a 03 ab 3d 3f 1d 3b bd
       -0.040683568 -0.022180542 0.08350237 -0.045682188
0002e0 74 13 ab 3c 2d 40 e5 bd ea 20 b7 bd d9 c1 41 3d
       0.0208833 -0.11193881 -0.08941825 0.04730401
0002f0 e9 c6 dc bd e9 b9 08 be 96 59 52 bd a2 e4 42 3d
       -0.107801266 -0.13352169 -0.051354967 0.047581322
000300 10 e2 71 bd 1e f4 16 bd 6d 5a 2a 3d 73 96 13 bc
       -0.05905348 -0.036853902 0.041590143 -0.009008038
000310 1f 99 79 3d 81 4b 9d 3d 49 1b f4 3d db e8 24 bd
       0.060937043 0.07680417 0.11919267 -0.04026113
000320 47 b7 3b 3e f9 6b d4 3d d6 25 17 3d 0e 25 93 bd
       0.18331634 0.10372157 0.036901318 -0.07184802
000330 ed a2 32 3d c8 3c 89 3d 51 2f 01 be 70 d9 9d bd
       0.04361241 0.06701046 -0.12615706 -0.077074885
000340 83 fb b5 bd 06 ea 7c bc 29 dd ed 3d 7d 2e e2 3d
       -0.08885863 -0.015436655 0.116144486 0.11044023
000350 2e 58 bb bd 83 29 2f 3d f0 dc 11 bd 80 c1 88 bd
       -0.09147678 0.042764198 -0.035611093 -0.06677532
000360 5b c5 3b 3d bc 29 25 be 77 41 a6 3d 77 72 cc bd
       0.04584251 -0.16129202 0.08117955 -0.0998277
000370 31 08 e2 3d db c1 14 bd 27 fb cf bd fe 12 36 bd
       0.11036719 -0.036317687 -0.101553254 -0.044451706
000380 47 66 d0 b9 ba 3e 46 3c c8 ee 3f bc c4 cf f7 3d
       -0.00039749054 0.012099916 -0.011714645 0.12100175
000390 f5 bb 1e 3d ee e6 43 3d 49 38 b1 bd 68 cc 2a bd
       0.03875347 0.047827654 -0.08653314 -0.041698843
0003a0 ec 32 f1 ba 08 48 97 bd 28 91 89 bd a6 d9 22 3d
       -0.0018402017 -0.07386786 -0.067171395 0.039758347
0003b0 72 95 e5 bd b5 58 8b 3d 1d 3d 51 bd cf dd 89 bc
       -0.11210145 0.06804029 -0.051083673 -0.0168294
0003c0 3c b2 71 bd dc 01 97 bd 74 e6 88 3d 99 25 d7 3d
       -0.05900787 -0.073734015 0.066845804 0.10505218
0003d0 b3 54 9a 3c 41 ae a6 3d 7d a2 5e 3d 7e e4 d1 3c
       0.018839216 0.08138705 0.05435418 0.025621649
0003e0 54 d8 bb 3d d9 a0 d6 3d bf 3d bb 3c 14 53 07 be
       0.09172121 0.10479898 0.022856591 -0.13215286
0003f0 fb 6b 7f 3d 72 cc 00 3e b3 33 c9 bd 67 cd 34 3d
       0.062358838 0.1257799 -0.09824314 0.0441412

classifier.0.bias f4 [64]
000000 7e 8f bc 3c be 33 ae bb 0b 27 44 bc 83 88 1b bd
       0.023017641 -0.0053162267 -0.011972199 -0.037971985
000010 2d d7 6b 3d d3 e2 01 3b 50 47 cc bc 2b cc 27 bd
       0.057578254 0.0019819036 -0.024936348 -0.040966194
000020 e3 1e 55 3d d2 c4 ae bc a6 6a 37 3a d7 0a e3 ba
       0.05203141 -0.021334086 0.0006996788 -0.0017321956
000030 0a a3 68 bd 4f a6 85 bc 5c d9 d1 3c 89 6d 66 3d
       -0.05679611 -0.016314654 0.02561634 0.056256805
000040 50 68 34 3d f8 29 dd 3c b2 02 ce 3d 05 4b ab bd
       0.044044793 0.026997551 0.10059108 -0.08363918
000050 8a df d9 3d fe fd 58 3d 08 ce 5e bd 36 67 b0 3d
       0.1063834 0.0529766 -0.054395705 0.08613436
000060 49 9a 8f 3d a0 a1 e7 bb d3 4b 8d bd fb 72 e2 3d
       0.070118494 -0.0070688277 -0.06899228 0.11057087
000070 9d 23 c5 38 86 9b 24 3d 5c 3d 51 3d 9d 91 94 bc
       9.4003255e-05 0.04018738 0.051083907 -0.01813584
000080 43 1a b7 bd bb f6 d1 bc db 12 4a 3c ef e1 cc 3d
       -0.08940556 -0.025630346 0.012333597 0.10004031
000090 66 db 6b bc 99 60 f8 3d 63 86 67 bd 5c 94 9b bc
       -0.01439557 0.121277995 -0.056524646 -0.018991642
0000a0 73 02 fe 3d 47 75 ff 3c 0d c6 c1 bd d1 40 cb 3d
       0.12402811 0.031183852 -0.09461603 0.09924472
0000b0 42 e5 41 3b 28 55 2f 3c 8a 81 37 3d 17 c6 43 bc
       0.0029586111 0.010701455 0.044801272 -0.011949084
0000c0 c5 ef ff bc 2c 90 62 bd 43 81 e4 3b ee fd 33 3d
       -0.03124226 -0.055313274 0.006973417 0.043943338
0000d0 cd d9 27 bc af c9 bc 3d ca d5 fe 3b 7d ba 17 3b
       -0.010244799 0.092181556 0.0077769505 0.0023151927
0000e0 89 22 02 bd 0f 39 87 3c 42 b8 4d bd 84 bf 18 3d
       -0.031771217 0.0165067 -0.05022455 0.03729202
0000f0 5b 51 48 3d 02 1f d7 bc 9a 3a 40 3d 53 b3 47 3c
       0.04890571 -0.026259903 0.046930887 0.01218875

classifier.3.weight f4 [1, 64]
000000 0b 3c 99 3d 36 0f 97 bd e6 91 50 bd 29 ae 65 bd
       0.074821554 -0.07375948 -0.05092039 -0.056074295
000010 fa 13 53 bd 95 42 6d 3d df cc 1c 3e 42 3a 80 3d
       -0.051532723 0.057924826 0.15312527 0.06261112
000020 a4 38 d7 3c 6f 6b c2 3b f0 e6 2f 3d a5 a8 a8 3d
       0.026272126 0.0059332172 0.04294485 0.082352914
000030 15 36 df bd c4 2b 28 be 6c 90 91 3d 84 4e 6f bd
       -0.10898987 -0.16422945 0.071076244 -0.058424488
000040 b4 3a ee bd ec e0 14 be 64 e8 aa bd 05 8a 8f 3c
       -0.116322905 -0.14538926 -0.08345106 0.017521868
000050 e2 df b2 bd d5 ee 06 3d 76 1b 18 bc db c6 27 be
       -0.087341085 0.03294261 -0.009283891 -0.16384451
000060 cb ba 8d 3d 0e 9b 50 3d 94 7e cc 3c f5 43 7c bd
       0.069203936 0.05092912 0.0249627 -0.061588246
000070 57 26 bc 3c f3 94 13 be 9a 82 9f bd 7c 63 63 bd
       0.0229675 -0.14412288 -0.07788582 -0.055514798
000080 62 60 5e 3d ab cf 68 3d ca 29 c7 bd b0 66 0c be
       0.054291137 0.056838673 -0.097247675 -0.13711047
000090 d3 f5 0c 3e d6 37 c9 bd c7 d7 3c bd 70 74 00 3e
       0.1376565 -0.09825103 -0.04610422 0.12544417
0000a0 c7 3c f3 bd 2b 27 75 3d bd f2 b7 3c aa 41 39 bd
       -0.11876827 0.059851807 0.022454614 -0.045228638
0000b0 46 2e a4 3d fd 01 98 3d bb d6 a0 bc c6 73 19 be
       0.080166385 0.07422254 -0.019633641 -0.1498557
0000c0 3c a0 a1 3d 83 64 1b 3e f6 b4 97 bd ee 87 97 bd
       0.078918904 0.15175061 -0.074075624 -0.073989734
0000d0 90 1f e2 bd 53 9a 52 bd 34 b2 8a 3d c7 a1 06 be
       -0.11041176 -0.051416706 0.06772271 -0.1314765
0000e0 81 52 9e 3d be 8a e2 3c 1e 1f 54 3c fc 1b 02 3d
       0.0773058 0.027654048 0.012946872 0.03176497
0000f0 a4 4b c6 bd aa 44 1e 3d d5 ec 0e be 4b cd cd bd
       -0.09682396 0.038639702 -0.13957532 -0.10048922
